exp/exp_second_round/usa_load_15minutes/model/_emb_empty_token_25_5614190.pth (torch, 2944 bytes, 1 tensors)

weight f8 [1, 97]
0.48120616560574675 0.2883558011810126 0.5369964289718133 0.027885056906604453 -0.8038897184120273 0.4540483709842161 -0.37479282379761947 0.17896732744589486
-0.4458961552199646 -1.410744127413477 -0.5199447066196421 1.6089603725205297 0.9004809304920347 -1.2554178014074768 0.31335555786182534 -0.6765138446392444
-0.5384237769714311 -1.6432114801801514 -1.4909049152831677 0.8962597559127612 -2.167027905394628 0.142261673116827 -1.620789731135585 -1.2963018999601128
0.230796988324226 -0.998270518267041 -0.5036939032853556 -2.037153007019268 -1.6375149014865695 -0.9286729237258724 0.5062828222681099 -0.8117685493957997
0.6955355440635226 0.17467908006212793 -1.842133648212514 -1.5525512387349756 -0.6001316079373459 0.20820074241355516 -1.3004081745401093 -1.1576396926132664
-1.6373506538234712 -1.6636050410601864 0.30095026116481227 -0.5644782342200327 0.3658773849779264 1.1159448744741145 0.1563114118573143 0.15614685747441537
0.12691088954896043 1.2006604032615815 0.8111215858706435 -0.012614841529730185 -0.8079152057785903 -0.5918996179577233 0.035273899325513315 -0.5743813126974936
0.09630004575088505 -0.3229201259154781 -0.7814635663368527 0.45881223278861794 1.682948961029536 0.9643783002037285 0.9986225375518487 0.21715443705446044
-0.911568079574556 -2.2619163437540197 -0.023310843197757596 1.4933927236333684 -0.9951179755505651 -0.6598364144889938 -1.2111914678335804 0.0516586067919981
0.8679032747981503 -1.5600180723000567 -0.9325429167247266 1.2870799592494504 -1.0877980569959147 0.428169389467495 1.7133839867953424 -1.3910344434454587
-0.6589912318499104 1.1908416888251476 1.2949381990016995 0.4516542499829936 0.9501906415308768 0.38388550673115923 0.6740926971553436 -0.43860430024687524
1.2881341489438294 2.003224174429213 -0.07210791209251251 -1.2827081551665909 0.9993217768914645 -0.47818082927076017 -0.6503894433497245 -1.4148888659932155
0.15416047180802905
00000000: 6941 faf1 14cc de3f 05cc ebe3 6b74 d23f
00000010: 5316 9022 132f e13f 3907 d87d e68d 9c3f
00000020: 2673 45ee 76b9 e9bf 6179 0be6 200f dd3f
00000030: fc1e 3f0a 9bfc d7bf cd60 37c1 66e8 c63f
00000040: a63d 0507 9089 dcbf 333d 246f 6892 f6bf
00000050: 141c d514 63a3 e0bf 0892 483b 4dbe f93f
00000060: 6a51 6462 bdd0 ec3f 08c8 fdf9 3016 f4bf
00000070: fa53 4278 040e d43f 7589 c05c 00a6 e5bf
00000080: 2065 2f80 c43a e1bf 6b91 fc1e 984a fabf
00000090: c363 c91c bfda f7bf 56b8 8bf0 28ae ec3f
000000a0: b583 f9b9 1256 01c0 eb68 c168 a135 c23f
000000b0: 33b8 8e36 c1ee f9bf 3e24 a10f a7bd f4bf
000000c0: 8715 6f76 c18a cd3f bc92 9003 d5f1 efbf
000000d0: 1cc4 39ad 421e e0bf 3ac4 30e0 164c 00c0
000000e0: 458f 49d3 4233 fabf 98aa 8247 b0b7 edbf
000000f0: 2e61 8508 7833 e03f 3771 7209 02fa e9bf
00000100: 2fab dec1 d341 e63f 23c3 1454 e25b c63f
00000110: 52f1 de21 6179 fdbf 36b2 bbf7 3fd7 f8bf
00000120: 9f60 ac33 4734 e3bf 5da6 d569 52a6 ca3f
00000130: ff9c 51cd 78ce f4bf 2235 c532 b185 f2bf
00000140: af18 6499 9632 fabf 1e07 cd51 209e fabf
00000150: d83b 5be2 c442 d33f 7eec 68a8 3410 e2bf
00000160: 63e0 b4fa 886a d73f 1515 4003 e9da f13f
00000170: a699 f528 0302 c43f 98e6 1cc7 9efc c33f
00000180: 233d 0fb4 9d3e c03f 48c5 d9ae e735 f33f
00000190: 389c 8c41 b5f4 e93f 5ceb 835e cfd5 89bf
000001a0: 3253 58fd 70da e9bf 0b96 b477 d7f0 e2bf
000001b0: c5cd 02a8 6b0f a23f 6104 2feb 5461 e2bf
000001c0: 7a75 1aab 1ea7 b83f 53bd 012d b9aa d4bf
000001d0: 79d5 8de1 bf01 e9bf 143d b5fb 2d5d dd3f
000001e0: 3658 c7e3 5bed fa3f 501b 8be1 2fdc ee3f
000001f0: daad 7a40 b7f4 ef3f ef43 aa72 b7cb cb3f
00000200: 3235 3bd2 902b edbf f7b0 9598 6718 02c0
00000210: 4bca b434 ccde 97bf 586f c1c4 efe4 f73f
00000220: 4fd8 14a7 01d8 efbf 8915 9e41 611d e5bf
00000230: a5a1 f84d 0a61 f3bf 3405 7535 ff72 aa3f
00000240: ee2d ab16 ddc5 eb3f cf29 9b82 d5f5 f8bf
00000250: 745f 2e3e 64d7 edbf b203 c527 e197 f43f
00000260: 5f32 77ef 9e67 f1bf bd50 3a95 2067 db3f
00000270: df6a cc53 056a fb3f 2d53 2355 ad41 f6bf
00000280: 01ad a4c7 7416 e5bf 8b7a c303 b00d f33f
00000290: e3da f01d 11b8 f43f fbaf 313a e7e7 dc3f
000002a0: 5be4 4a34 f667 ee3f db65 3484 9491 d83f
000002b0: f425 18d9 2a92 e53f b27f 5cc5 1712 dcbf
000002c0: 5131 a98d 329c f43f 2fd7 5d65 9a06 0040
000002d0: fd5d 3804 aa75 b2bf 4b0c 8cfc f885 f4bf
000002e0: 0bbe bda9 71fa ef3f 59b1 d2c3 839a debf
000002f0: 0739 9b85 fdcf e4bf 6da5 ee81 62a3 f6bf
00000300: 5c2e 60c4 87bb c33f
