exp/exp_second_round/usa_load_15minutes/model/_emb_empty_token_96_1848682.pth (torch, 2944 bytes, 1 tensors)

weight f8 [1, 97]
00000000: 5bab 9ec0 007b f6bf 42dd e12f 6b82 75bf
00000010: 15be 069f 1c0e f03f e63e e5d0 c8e8 dc3f
00000020: 23bc 8e19 1a1f e8bf 4338 cdc4 617c ddbf
00000030: a8f1 9833 d36d f33f 648c ac23 d945 e9bf
00000040: f9ac cc44 957a fcbf 3511 5293 eaf3 ad3f
00000050: c903 bd42 9e3d d9bf c989 93fb 77d8 0040
00000060: 0619 e9ae fd7e b2bf dafa 4249 0b66 e1bf
00000070: fbd0 d7b9 4215 bdbf 0dbb dcc3 0e76 eabf
00000080: 4743 0511 5e5f e0bf e9e1 9cb9 2dd9 ee3f
00000090: bc20 a000 3cc5 afbf c39b 5c8c 8858 e13f
000000a0: 4ddc f93c 81ac e5bf 5962 01de 36be e03f
000000b0: 41c2 5ddc 2ce7 00c0 5c24 8d5c ac2b c13f
000000c0: 565b 9a1b f90c 32bf 404d 497c 0772 0540
000000d0: 4549 6ba8 6aa4 0040 b61d 9797 acff d5bf
000000e0: 7576 e5c2 71c5 f6bf 8cc4 4bd8 e65c e8bf
000000f0: e401 a06d 6fd8 e6bf 9b33 2ab3 fd28 e1bf
00000100: af1e 80b2 ebd1 f83f 5f17 1d21 c1d2 f2bf
00000110: d464 0522 ab52 ce3f 269d 1994 8e7e f73f
00000120: f9df da1b 2b32 be3f ff8c a35d a57a c93f
00000130: bbee 2194 221d fabf 54a0 d5c6 361f f63f
00000140: eb5e 34b9 9834 933f 1d28 c607 f120 05c0
00000150: 61b2 148f c292 ddbf eaa4 2f93 2b52 d4bf
00000160: b70e 7de2 80f8 ccbf cfec dd4d f855 f93f
00000170: 1621 dfc1 f8d7 f3bf d92a 2494 b829 cdbf
00000180: 4eec 2d33 4e27 e93f 0425 0720 6d8f bdbf
00000190: c6f9 c89f 3abc d0bf 7a5e 0eb6 3490 a0bf
000001a0: 2f9e 9d0b cbca b73f fd57 609f 3709 f23f
000001b0: 8164 0ac4 53bb e8bf 762a 7aa9 b588 f33f
000001c0: c82c 0dfe 43e6 b53f b0d8 a8c6 a676 ccbf
000001d0: c5c2 8a19 0ae1 fbbf 7089 1eeb 3290 dabf
000001e0: c425 ea9c 9582 d5bf 3881 d3ac 6b45 e4bf
000001f0: 9cf4 aebf e55e 0340 ed9f 1021 e9ed eebf
00000200: 8f28 2a0a ae0d f73f 5d6a af73 ff97 eb3f
00000210: a509 f78d a51e d33f 8140 4ade 9697 d53f
00000220: 9e86 ae3b 833d fd3f 4e9a 27da b30e a83f
00000230: 0379 77a8 2f28 f33f 2fd4 0536 cd72 ecbf
00000240: f43e 9d70 a115 ec3f c91d 5343 3ef6 f13f
00000250: 3f2e 5037 46a7 e23f 76f7 ba01 d300 d83f
00000260: fdfd 74ef 0cb1 e2bf ecd4 30f5 c51b e8bf
00000270: 54b8 6258 0b5a d9bf 8443 fac1 d513 e63f
00000280: a7e3 01c8 9e9b f03f f067 1d8c 2832 e0bf
00000290: 65c3 2e21 ed24 ed3f b8af 16fc 91f4 e63f
000002a0: 4042 ab0f a9a0 f03f 1101 049d 776b f13f
000002b0: ec42 9cb0 8fcd e43f dbf8 061b 0480 fb3f
000002c0: 6e8c b8b4 3fc6 e2bf 234c b10d 623e c6bf
000002d0: 19a0 034d d277 dc3f 46ab 1f69 71bd df3f
000002e0: 56ce a4f0 e566 f63f 7ab2 be0e 5247 ffbf
000002f0: aa5d 146c eff7 d1bf 8aa0 4b89 d76e f53f
00000300: cb97 94c9 9bc6 d53f
-1.4050300144396803 -0.005251330088973662 1.0034452640501332 0.4517080345149068 -0.7537966250582752 -0.46071666926298266 1.2143127456211946 -0.7897763916738652
-1.779927510021308 0.05850155876490463 -0.39438587682166976 2.105697598876962 -0.07225022812153634 -0.543706553544179 -0.11360566174682056 -0.8269113374170459
-0.5116415340836306 0.9640110612154419 -0.062051653934817236 0.5420572987976516 -0.6773077193200919 0.5232195220988373 -2.1128785339463154 0.13414530295475202
-0.0002754314587973169 2.6806783399457856 2.080281558775058 -0.34373011401882125 -1.423204194368194 -0.761340544179022 -0.7139203206170888 -0.536253786021564
1.551250169055418 -1.1764537137509803 0.23689784203705833 1.4683976922186246 0.11795300893834328 0.1990553576680227 -1.6321130548885054 1.3826205985042366
0.01875532751463897 -2.6410847289416908 -0.46208251927126837 -0.3175152718891484 -0.22633372363099166 1.583488754432256 -1.2402274678334542 -0.22783572419606093
0.7860480308148767 -0.11546976119929658 -0.2614885864640225 -0.03235020372738702 0.09293812783800413 1.1272503114355452 -0.7728670910756962 1.2208763714030773
0.08554482414654097 -0.2223709554688802 -1.7424412725196572 -0.4150512024008526 -0.3360952408189315 -0.6334741950522931 2.4213366484896834 -0.9665418287086119
1.4408398053224436 0.8623044261433496 0.2987455259682526 0.3373772784043539 1.8275177317922622 0.0469871715356943 1.1973110752801979 -0.8890138678676801
0.877640457105342 1.1226179723615692 0.5829192238174484 0.3750503079316937 -0.584112613381819 -0.7533902920610251 -0.39612086898239807 0.6899212635636194
1.0379932225025443 -0.5061228500956059 0.9107576034640316 0.7173547671895824 1.0392237293309705 1.0887371190474975 0.6500929307386207 1.718753915381561
-0.5867002992348611 -0.17377877873022482 0.44481332322038863 0.4959376837347701 1.4001216316363716 -1.9549122405980186 -0.28075776629108395 1.3395610201933175
0.3402471035536762
