exp/exp_second_round/usa_load_15minutes/model/_emb_empty_token_96_1848682.pth (torch, 2944 bytes, 1 tensors)

weight f8 [1, 97]
00000000: e428 2cf4 4d78 0440 1f18 a7ff 0f5b e93f
00000010: a797 1cdb d4f4 e53f 7ec3 fa0f d58c 01c0
00000020: 67c1 e406 7beb c3bf f0fa 6af8 0f94 f1bf
00000030: 3431 8da1 1b72 c4bf a7d4 b334 3990 edbf
00000040: c862 c485 0950 d4bf 3ff2 1ce8 457c cc3f
00000050: f83a 41f3 2a6a cd3f bc1b e253 932d e3bf
00000060: bf7f 4374 677f e6bf 2dbb 2605 0b3c b6bf
00000070: 0c50 3210 9320 ebbf 6c75 782f 9e57 e8bf
00000080: d73c 64b9 b1a6 d2bf b728 a6b6 908d fe3f
00000090: 938b 0e51 071f ee3f 464d 5e00 9cbb b63f
000000a0: 6c1d 3cc1 f290 0140 a5d4 0b61 afe1 e9bf
000000b0: fadd 8f1f ffa4 d03f a23c cf70 360b dd3f
000000c0: 76cb 9a1a 5b56 e2bf f401 675a ec01 c7bf
000000d0: b644 4dec 466d a4bf 7cf3 77fd 7b4d e1bf
000000e0: 71e4 ec3d 6d5e e6bf 1cf9 47b8 a706 de3f
000000f0: 04c2 06ba 1ed2 f73f 181b 48c8 65b0 de3f
00000100: 93e1 9123 f75c f4bf 7973 9c1d 0972 ea3f
00000110: c1cb 06b4 51ea 8f3f 5384 9396 98d5 eb3f
00000120: ed02 c0ae a8c7 f23f 9585 bfa8 fe80 f2bf
00000130: 7161 dbe8 35e8 d73f 6e4e 818b 6a6e c63f
00000140: 420e 20ca 7e3c eabf 2757 d478 ec29 e73f
00000150: a5cf ad60 9521 e73f 1649 3cd5 25bf edbf
00000160: d453 81df 836c e13f 7d8f d18a 53ed f63f
00000170: 6d79 716f 6144 e23f 7d05 9f8d 0523 e4bf
00000180: 880b e1f9 d324 e6bf 5965 7879 e5df e6bf
00000190: 4ec2 329c 68ea cf3f 3229 65e5 fd6e d2bf
000001a0: 6de7 43ae 8bfb f63f 1e7b a297 5e87 e03f
000001b0: 014d 83fc 98d6 f9bf 1b2a 035a 59d1 e0bf
000001c0: 2a18 40fc 2bef cc3f a786 7376 8907 e63f
000001d0: b2ca 2822 04b4 b4bf d252 fa52 e1e3 e73f
000001e0: a174 b55c deb3 f8bf cffe 523e 7b37 d43f
000001f0: 1986 5cd7 8275 f13f 8adf 6f37 06dc 9cbf
00000200: a4cc 94e7 1c4e e7bf eef7 c356 0b0d f63f
00000210: 478f 1239 827a d43f 55cb 8e3b 7d55 e3bf
00000220: 73d9 691e 4a52 0040 9d38 ef82 8c22 fcbf
00000230: cc58 01e4 e79c acbf 78ff 0a2e 314d b73f
00000240: b8af c9f0 533c e8bf ab27 a50d 15ee f6bf
00000250: bfc9 f298 40bd f13f e48e 350a 1aa1 e0bf
00000260: 3a33 b5ed fbef 0640 46d5 0737 3e6a f53f
00000270: 4237 faea a285 0140 0bc2 2469 27ba f2bf
00000280: 5a7f 6524 9dbc f2bf eff4 4a31 50a9 f1bf
00000290: 33b1 eb0c 7fed d6bf 4154 f23f f77b bfbf
000002a0: 6e5c d31e 8ec4 d03f 8024 870a a642 cb3f
000002b0: c4b9 7c5a 442d e63f 3880 77b1 db43 fabf
000002c0: 92a3 e4e9 6aa9 fbbf 2b44 825b 176b e3bf
000002d0: 314d eff1 8ad3 c0bf bafd 52e3 ae09 ba3f
000002e0: 5025 8628 8912 fd3f c77d 9610 be86 cebf
000002f0: d4fb 6696 7c34 efbf fbbd d18f 29a3 da3f
00000300: 848f 5559 2963 f9bf
2.5587424350716095 0.7923660271851566 0.6861366538548638 -2.1937657593156805 -0.15562379681206126 -1.0986480430435073 -0.15973229778536224 -0.9238554028840057
-0.31738508284756195 0.22254251321455062 0.22980248334575726 -0.5993134153694579 -0.7030522604727522 -0.08685368419422153 -0.8477263752306512 -0.7606955458792704
-0.29142420868533975 1.9095618376473291 0.9412876685276949 0.0888001919650395 2.1957755180807705 -0.8087994475778443 0.26007059175705616 0.4538093663840731
-0.5730414886114505 -0.17974619306734463 -0.03989621767562694 -0.5407085371549409 -0.6990266999702169 0.46915619846540024 1.4887988344818277 0.4795164543033237
-1.272696627564163 0.8264203623144645 0.015583647066568564 0.8698237362806459 1.1737448526548022 -1.1564928619121464 0.3735480092996318 0.17524463474056823
-0.8198846767194896 0.7238676414442339 0.7228495491276489 -0.929583469844405 0.544496475728574 1.4329410002328296 0.5708472420335916 -0.6292751089132903
-0.6919956093264412 -0.714831101652787 0.2493410837828542 -0.28802440072890356 1.4364125067936258 0.516524597321993 -1.614891992929927 -0.5255553014806681
0.2260489446345571 0.6884200395108636 -0.08087182840317089 0.7465674038563412 -1.5439132329404759 0.31588631712291443 1.0911892330699458 -0.028183076032263034
-0.7282852671691171 1.3781846417691628 0.31997733663068967 -0.6041856921423042 2.0401804328968693 -1.7584347834231615 -0.055884596426652416 0.09102160810561866
-0.7573642447364284 -1.4331255467427393 1.1087041830584068 -0.5196657370947517 2.8671797343180545 1.3384382390625702 2.190252147446615 -1.1704477412387202
-1.171048299955109 -1.1038362432003017 -0.35824562322410997 -0.12298531829067462 0.2619967747718367 0.21297145380075122 0.6930257575348198 -1.641566937665642
-1.7288617264223132 -0.6068226611406592 -0.1314557725259902 0.10171025323778951 1.8170253355950372 -0.23848701295808736 -0.9751570642036946 0.4162086395726587
-1.58670935531788
