exp/exp_second_round/usa_load_15minutes/model/_emb_empty_token_96_1848682.pth (torch, 2944 bytes, 1 tensors)

weight f8 [1, 97]
00000000: 8d87 e12d 6d37 f2bf a687 a42f 1787 f0bf
00000010: 8d84 fa23 4d89 d7bf 07a2 1b7f 6ee4 f53f
00000020: dcc4 d9c6 4971 e73f f996 d9af d8d5 f1bf
00000030: 512b 5b94 6ab1 d33f 4a56 1c1c c53a d03f
00000040: 74ca 4d35 1e07 d83f 9425 03dc 5f82 00c0
00000050: 1e0b 364a b05a c73f a908 053c eb40 c7bf
00000060: 6af2 4e97 d127 d63f 95f6 558d b9da f2bf
00000070: d72b 1592 0834 f1bf 3b5f 4742 338b d2bf
00000080: 62e4 a95a 498c e5bf 0ab6 634f 2577 fabf
00000090: d43c 5dc3 f7de 97bf abd2 6b67 e97a f9bf
000000a0: 2d9e a326 674a cfbf f88f 27d4 78e9 bebf
000000b0: acc2 ca10 caa9 edbf 7e35 5c05 5345 fa3f
000000c0: cc10 c3c8 73eb d1bf 03cd c101 5420 f6bf
000000d0: ea1a 57e8 9984 f2bf f858 c6dd e09f e13f
000000e0: df52 1952 12d5 b6bf 343d 1dbc d525 c83f
000000f0: 3188 9fc9 6b03 f03f e1ab 77ec 3d96 f4bf
00000100: 592f e73f ff3c ea3f b06c 9c93 0ac9 c03f
00000110: e7f8 08e9 ba63 b4bf e73c 87a1 1dff e83f
00000120: 9c45 3a86 e275 eabf a787 afab 1eed f3bf
00000130: 7e60 4900 9a34 fabf bf31 4a4a 4f85 db3f
00000140: e428 070b aeb6 f0bf aab3 9302 552e fc3f
00000150: 49f4 448a af05 e5bf 69d4 819b 5585 b8bf
00000160: 1506 f4de 474f d7bf 04ae fe20 0d74 d1bf
00000170: 63cf 99d6 bd14 fa3f 72c5 d8a7 54d3 d23f
00000180: f663 58ee dbd1 983f f8b8 24fd 0d56 ee3f
00000190: 6c75 4892 d993 e93f 33b5 41df b564 c53f
000001a0: daff 5ad2 73fe f7bf 5c6c a0cd 7fd0 e4bf
000001b0: 3f0f f506 1aa5 d53f ef4d 3cf8 cab8 c83f
000001c0: fe24 0719 c243 f33f 5b2e 9ed4 6267 e93f
000001d0: 354a c3ac b844 f93f 3c93 dba8 1cb7 e4bf
000001e0: 32fc 2c5d 647c e93f 3bcc 8b80 d913 e4bf
000001f0: a2b6 f166 939f f93f 1e85 c31e 37aa f43f
00000200: 227a cb6f 9800 f23f fa67 ce4d 70e2 d3bf
00000210: cce4 131e e722 ee3f 5bea f881 8aa7 f3bf
00000220: 561b b5ce 10b3 02c0 8062 680c 8b79 cb3f
00000230: 2600 f054 bd22 e2bf 2b33 68c7 6165 cabf
00000240: 51c7 03bd dbe5 dc3f 183b 139e cc3e ee3f
00000250: 0697 3c68 0a0d e53f 5f0a ad8b 9612 adbf
00000260: 2952 b743 a701 03c0 e653 7bdc 696b eabf
00000270: 7063 0973 690d e5bf cf52 2514 1778 d4bf
00000280: db6c 08e9 47ac cabf fd44 6e59 2a2f eabf
00000290: 86fc 556c 6de4 e13f 6919 f758 baa0 e33f
000002a0: fe2c 4d36 58b3 e9bf 74ee 9822 b3eb e33f
000002b0: cc6f 9167 c325 e5bf d082 c447 efae b83f
000002c0: b191 d713 d587 d5bf 7338 3464 d878 e43f
000002d0: 9c9b d8e8 e9ba f5bf f3d5 15c2 6d40 e73f
000002e0: f155 9217 fa3c dc3f c73e 7fb8 8f0a d23f
000002f0: 7a80 7bd4 472c c4bf 78d4 7d1b 8f1f d93f
00000300: ca98 cfbe d30a dfbf
-1.1385318557954378 -1.0329810963671462 -0.3677552081445093 1.3682694401887845 0.7325791248132663 -1.1147086018694934 0.30770363319304744 0.25358703370270474
0.3754344482942209 -2.063659399839432 0.18245509742345062 -0.18166866713187815 0.34618034149369825 -1.1783996125153966 -1.075203486094997 -0.2897461077932239
-0.6733748217367401 -1.654088316073628 -0.023311492251477287 -1.5925077476396534 -0.24445809733082183 -0.12074999980501377 -0.9269762351960558 1.64192487806153
-0.27999586682950617 -1.3828926151880416 -1.157373340205306 0.5507664042986837 -0.08918871406906302 0.1886546295668069 1.0008352161317016 -1.2866801487932593
0.8199459312540781 0.13113529403276436 -0.07964676083881593 0.7811420588349421 -0.8268902417786879 -1.2453905779334293 -1.6378421794125013 0.4300115800367869
-1.0445995741634357 1.7613115406668194 -0.6569440556119243 -0.09578452154694762 -0.36421391270423104 -0.27270820829537024 1.6300638563961563 0.2941486014488738
0.02423804895633804 0.948004717274471 0.7992980820742281 0.16713593865589757 -1.4996221749315652 -0.6504515663285804 0.33820200614376356 0.19313943024518163
1.2040425279286064 0.7938703682606943 1.5792776821659917 -0.6473525331499341 0.7964345760191291 -0.6274230490365719 1.6014589329965152 1.2915564729413016
1.1251453749642981 -0.31069572065609885 0.9417605960326454 -1.228403575615309 -2.337434401418629 0.2146467028221828 -0.566740671056327 -0.20621893154784607
0.45152944048378624 0.9451659285931298 0.6578418765900274 -0.0567824407103401 -2.375807312995921 -0.8256120020183715 -0.6578871962366133 -0.3198297211395528
-0.20838259581146343 -0.8182574984258789 0.5591342082915538 0.6133701074220826 -0.8031426487517874 0.6225219417314762 -0.6608597777189913 0.09641929151667772
-0.3364155477304634 0.639751620970641 -1.358133229785131 0.726614836762279 0.4412217359725608 0.2818946172455807 -0.1576013362418996 0.39255120930403775
-0.4850358355892125
