exp/exp_second_round/solar_15minutes/model/solar_emb_empty_token_40_6306166.pth (torch, 2969 bytes, 1 tensors)

weight f8 [1, 97]
0.26144481580995566 0.6678665268321079 1.1724618822616868 0.5847928345153579 0.09374323434842949 -0.7689233224132553 0.20430718230621234 -1.3910047776997603
-0.4231156590506951 0.5510362028931618 0.33349911578444463 0.5105329223543965 -1.1190727550899968 0.8746751448105801 -0.43507843385718353 -2.4561028662085556
0.23989554201937247 0.23269537588206324 1.2454766793664762 2.236390656389377 -0.6348673211257875 0.2977943706673839 0.8329775468720284 2.2617623496856267
-1.815998940351684 -1.2605232099048054 -0.7570083748260937 0.9362736086641795 -1.2991954492759006 -1.0449214505197244 -0.5629034606161054 -0.17695958500281136
-0.12525987424656676 -0.8003884623735068 0.8264803161188689 -0.1487171507577272 0.9045535020928783 0.8101796695796494 0.9849550934001381 0.8264623802299039
-1.4334191030516477 -0.4402676865351123 -1.9077488709485952 -1.7662620591976563 -0.5118942959378425 -0.6414421365207157 -0.03129212116228387 0.796628385122367
1.8772068688990309 -0.7467251561940059 0.906710574302423 0.1403425270688038 0.05638130162993591 -0.94318541552237 -0.494962332954306 1.0360545700089763
2.3418570297952144 -1.0380362496524147 0.3969667070773719 -1.0314946520840953 -0.13226732419798545 1.5689524743522696 0.12378770896838044 0.05484131157642184
-0.6340360323175868 1.1476628737480328 0.4359474269890159 -1.15370627241081 -1.8202427115255209 -0.4266703337029281 1.0451000422784813 -0.011089142363243069
-1.0243838393018103 -0.5603797841003622 0.6197742430185249 -0.5119129482630249 0.19014542516985525 1.4014944094540427 -2.0467079487986113 -1.9245550301081906
1.0912081172908281 -0.06386293102125201 -0.18489781733416333 1.1407188200404386 0.657276566967153 -0.4352566524939211 -0.08000487505756232 0.10924008623058318
-0.28533797667929306 -0.40527498237171466 1.390712981497287 -0.12340881410996926 -1.2015997133984317 -0.18686606731422223 0.7610688699226758 0.3909736463686879
-0.5821504304378886
00000000: 4133 6709 83bb d03f c9c8 5a9f 295f e53f
00000010: c3ed 0164 67c2 f23f 1cb7 6576 9fb6 e23f
00000020: c26d bf7d 8eff b73f e9b0 5c15 059b e8bf
00000030: 6fea 2bdd bc26 ca3f b4cd cc39 8e41 f6bf
00000040: 1116 83b3 5314 dbbf 21d2 caac 16a2 e13f
00000050: bb80 e2ac 0c58 d53f dd63 a123 4956 e03f
00000060: 684c 4fd5 b8e7 f1bf 76bc b2ba 56fd eb3f
00000070: db22 2737 53d8 dbbf 25d2 6f42 19a6 03c0
00000080: 88f6 b6a9 e5b4 ce3f 8c04 ac4a f6c8 cd3f
00000090: 81f4 5cf4 78ed f33f c52d d2c8 20e4 0140
000000a0: b319 b145 d550 e4bf 96c1 bc1e 100f d33f
000000b0: f2c3 4387 c0a7 ea3f 83ca d9db 1618 0240
000000c0: 2419 a6e7 540e fdbf c73d a662 1a2b f4bf
000000d0: 49a3 95a0 6939 e8bf f941 2a12 f4f5 ed3f
000000e0: 4608 dc2a 81c9 f4bf 05f0 0d8e ffb7 f0bf
000000f0: 3ed8 441e 4e03 e2bf d780 2697 9ca6 c6bf
00000100: 0aee b1fb 8308 c0bf 93ad bf43 c89c e9bf
00000110: c795 10d9 8672 ea3f 31eb 6de1 2909 c3bf
00000120: e813 9f2f 1af2 ec3f 5951 17ea fdec e93f
00000130: bcd4 458b c084 ef3f b1c6 ce3b 6172 ea3f
00000140: 7f18 91de 48ef f6bf 48d9 c984 582d dcbf
00000150: 4248 1bae 2386 febf 7ab6 4601 9c42 fcbf
00000160: bcfb 8125 7061 e0bf 3c40 d4a8 b186 e4bf
00000170: c269 075a 8505 a0bf b84e a5cf fa7d e93f
00000180: 63f7 db11 0a09 fe3f 1985 9e27 2ce5 e7bf
00000190: 011f f2e4 c503 ed3f 14cf ff71 bef6 c13f
000001a0: 5d85 368d 02de ac3f b072 372e 932e eebf
000001b0: 4f99 327e 76ad dfbf 55f5 f0f4 ad93 f03f
000001c0: 7006 d789 1fbc 0240 221d 05e6 cb9b f0bf
000001d0: 44e1 1f0c e767 d93f 8f33 4b89 0081 f0bf
000001e0: 5f40 e1bb 22ee c0bf f323 e5e8 6d1a f93f
000001f0: 597c aa21 8db0 bf3f 5586 610f 2914 ac3f
00000200: af44 e9ee 054a e4bf 814c d9be d35c f23f
00000210: ea5c 6c09 90e6 db3f a81c 53b5 9475 f2bf
00000220: 358d 4cd2 b61f fdbf e15b 5b16 914e dbbf
00000230: 1226 6ad2 bab8 f03f ef97 537e e7b5 86bf
00000240: 97a2 054f e063 f0bf 7c9e c195 a1ee e1bf
00000250: f85d 15cb 30d5 e33f 4609 6643 9761 e0bf
00000260: 6555 4b6f af56 c83f 741c e266 856c f63f
00000270: 1d6d c46a a85f 00c0 edab 1a37 faca febf
00000280: 2a4d 8ea4 9675 f13f 24b9 2930 5259 b0bf
00000290: 60a8 464f bbaa c7bf 1716 a060 6240 f23f
000002a0: 6aa2 f1dd 6808 e53f 22fb f4b7 3edb dbbf
000002b0: 4c8e e411 337b b4bf 74c7 c585 28f7 bb3f
000002c0: 6e3d 8937 fa42 d2bf 7a1a cb7a 06f0 d9bf
000002d0: bd74 5a41 5c40 f63f 46f5 a354 b897 bfbf
000002e0: 28de fe9e c039 f3bf 4a61 ec2f 3aeb c7bf
000002f0: 4e4a 4a1a ad5a e83f ac16 3054 b605 d93f
00000300: 62a8 82f0 f9a0 e2bf
