exp/exp_second_round/solar_15minutes/model/solar_emb_empty_token_96_704366.pth (torch, 2964 bytes, 1 tensors)

weight f8 [1, 97]
00000000: 4e60 4ff7 0e94 ddbf 0e99 64bd 77a4 fdbf
00000010: 3c75 d43c c9c0 f23f 3ba9 1b04 7163 e13f
00000020: e3d6 a273 3521 fc3f 2b2d 0480 bbbc 96bf
00000030: df39 5c28 97fa dabf d3df 3ae2 c50c f5bf
00000040: dabf 2ff9 41b8 fbbf d640 f823 9231 f4bf
00000050: a06c 5eb8 840f e33f 9256 9039 6786 f1bf
00000060: fc07 35cc fd3a d1bf 7566 367e 6c2c f3bf
00000070: 163b 910d 31a9 e33f 95f5 58ad 461a 01c0
00000080: 7e95 3e80 8e5b e13f c188 b510 e19c 08c0
00000090: f0f2 e525 d3ad debf 937e 0cc4 a635 68bf
000000a0: 43a0 4d09 a903 e6bf 6f2c c784 5a6b d83f
000000b0: 959a c693 965e c63f 8110 286a c2fa d4bf
000000c0: 250c 558f 8fc2 f23f e0cb 8408 78ef c93f
000000d0: 6180 32a3 69f4 d9bf 3359 f652 9ba2 f23f
000000e0: 1376 fbd2 1bdc f8bf 3927 14b2 3937 00c0
000000f0: e9bd fdd9 e291 e13f b42d 9332 30e5 523f
00000100: 0154 0067 1530 f93f d4f4 afe9 8c00 ec3f
00000110: 770a 775d 2064 9c3f 05a5 0d0d 676b d8bf
00000120: 675a bb1d c8c6 d03f 9834 4a6c 3b2d edbf
00000130: 3c10 ee90 f9ff ed3f 1f0f fe93 c4ea b0bf
00000140: d5f2 f7ad 0f2a eebf 1759 aafd a7b3 bd3f
00000150: fc04 8be9 e089 ab3f a3cd 4572 1307 ddbf
00000160: 5e38 7980 8faf d13f f39f eaa8 be1b f43f
00000170: 7b02 bcf1 fcef eebf 85d8 fe81 b853 f23f
00000180: c109 a550 63bc fbbf dce4 5b9f f917 ba3f
00000190: 800f 3224 682d fabf d56a 2c45 d4d7 dfbf
000001a0: 21c0 d3bf f1d6 f0bf 6228 5506 3fa9 e2bf
000001b0: e969 c95f 59d7 f13f ac11 64b0 1d81 b6bf
000001c0: 4ab6 e0e1 b198 d03f 0769 773c 8638 e43f
000001d0: 8526 0309 17be d4bf 984c 082f da91 06c0
000001e0: 3194 97b8 e8bf d9bf f47b e0ac cff3 f33f
000001f0: ea02 9e9c 1ac9 f23f 9a56 bf5d 1095 d53f
00000200: 3829 38fa 3bc0 e7bf 7cff b383 b5ae e73f
00000210: 77d6 b6ae fff3 fbbf 6206 9e23 06af e2bf
00000220: 33d3 f074 65ec e83f 4c7e 093e 6d64 f7bf
00000230: a461 7021 ed24 e7bf e662 6a24 69f5 ef3f
00000240: 3e8c 178c 7506 f1bf da36 e91b 4b97 e43f
00000250: 4811 9f67 98c9 f13f 0e6f ceaf 0267 debf
00000260: cad3 ed95 e5b6 fa3f 586c 7c56 71b0 d03f
00000270: 9dfa 2a9b be7a ccbf 4bd2 028f dbe9 e63f
00000280: adac 77a3 b289 f13f c131 42fe aa30 e43f
00000290: 60ce 5fac 51af 9fbf cc97 c423 1116 e63f
000002a0: a01a 128f 27f2 cabf e86c 85ec f88a bb3f
000002b0: df26 a893 0620 eabf a94c b074 e131 e53f
000002c0: 3942 a20f 118c 0440 4c82 e35d d562 0140
000002d0: 1b67 d354 80cd f53f 85eb 98e8 a037 e1bf
000002e0: 51c5 cf16 9e3b df3f 1739 1443 f710 0240
000002f0: fe7f e72e bbe3 f0bf 9166 520f 32c8 c73f
00000300: 20f7 352b ced6 e33f
-0.46216177131055225 -1.8526532552874104 1.1720669151466856 0.5433888511882182 1.758107616141779 -0.02220433205461096 -0.42154482785636377 -1.3156184041126735
-1.7324847921226962 -1.2621022610729162 0.5956443406061176 -1.0953132866465336 -0.26922554914574426 -1.198345654504377 0.6144032731043321 -2.1378301184437967
0.5424263481879021 -3.076601152935013 -0.4793594236469252 -0.0029552704949223434 -0.6879468137458463 0.3815523430500382 0.17476160255065012 -0.3278051411327923
1.172500190631362 0.2026205102534666 -0.40554276406510864 1.164698909827689 -1.553737472676748 -2.0269655144119523 0.5490583665504661 0.0011532755545883124
1.5742391608703203 0.8750671924787192 0.02772570200409993 -0.3815553309892297 0.2621326723432617 -0.9117714991604258 0.9374969320929334 -0.06608227360817097
-0.9426344297240471 0.11602258627894844 0.053786304958984815 -0.45355688247146925 0.27634036585084754 1.2567736242581276 -0.9667954179167987 1.1454396322201614
-1.7334931516821686 0.101928330808636 -1.6360856450928338 -0.4975481677553664 -1.0524766438720763 -0.5831599353489418 1.1150754682226938 -0.08790765339296652
0.259319754203578 0.6318999463067322 -0.32410217170818384 -2.8212169336707795 -0.402338199868896 1.2470242264751024 1.1740976446018814 0.3372231402875997
-0.7422160994622464 0.740076787216807 -1.747070009686835 -0.5838652320528122 0.7788569721220483 -1.4620182441066332 -0.7232576039414664 0.9987073622933991
-1.0640769455283272 0.6434684319626414 1.1117176101407313 -0.4750372616633606 1.6696525436975542 0.2607692093458289 -0.22249586655194245 0.7160470765289316
1.0961176286171324 0.6309409109103897 -0.03094222654904255 0.6901937197296717 -0.21051496969103756 0.10758929991191091 -0.8164093860552518 0.6623389510226804
2.568391916407816 2.173258527284167 1.3626712144382 -0.5380405943791265 0.48801376559921034 2.2582841148897717 -1.0555984337042896 0.18579698322428276
0.6199713558159807
