exp/em_trans_half _small/model/small_30mr_emb_empty_token_49_34956.pth (torch, 2600 bytes, 1 tensors)

weight f8 [1, 49]
000000 1f cc 5c 9c 2a d3 ef 3f 32 70 12 b5 b4 09 fc 3f
       0.9945271543459774 1.7523696015478092
000010 0f c3 0b 3e 3a a7 d9 bf 2d 90 07 bc 06 49 00 c0
       -0.40083175715612723 -2.035657376271067
000020 53 cd d6 01 76 31 e0 bf 43 37 5b 6a 60 9c f7 3f
       -0.5060377155227037 1.4756778864425122
000030 41 2b d2 42 27 2a d4 bf 0b ae 3d 5b e0 7e cb 3f
       -0.3150728371189651 0.21480946021198152
000040 0d 2c 49 cd e9 d3 f2 3f 62 e9 b9 0c bd 71 d4 bf
       1.1767366427400276 -0.31944204561991374
000050 b4 92 0e e8 0d 5b ef 3f 4f 72 e5 8f e2 9e cb bf
       0.9798650295602642 -0.21578628565011335
000060 86 4a 1d c2 dc 60 f3 3f 19 93 32 c6 c5 7e fa bf
       1.211148031482169 -1.6559503309337684
000070 93 5b fe dc ca 03 cf 3f f0 c8 07 76 32 bb d9 3f
       0.24230323591902145 0.40205060507209023
000080 ef da cc d7 82 fe e7 3f 40 8a 46 6b 4a 63 fb 3f
       0.7498182501647913 1.7117408934069687
000090 ad 36 46 f7 c0 63 a3 3f 72 18 78 07 3f 11 fd 3f
       0.03787043589100612 1.816710499931585
0000a0 43 e8 3f ed de 69 ec bf 6b b1 b9 19 ad c4 f3 bf
       -0.8879236825735081 -1.235516643991185
0000b0 3f 4c a2 58 5c 36 a2 3f db c0 9a 2d e7 86 fa bf
       0.0355709894367 -1.6579353124071108
0000c0 e6 f2 8f ce 75 12 b5 3f c1 8e f7 3a ed 14 c7 3f
       0.082312930040597 0.1803261316227829
0000d0 c7 a6 c6 b0 a4 1c c2 3f 72 ad f5 b5 63 99 ed 3f
       0.14149912482871782 0.9249743036174733
0000e0 df c0 8d e4 4d 48 c1 3f ec b8 37 cd d3 b5 ca 3f
       0.13501905116891685 0.20867393036264248
0000f0 a9 75 02 fd b3 92 eb bf 62 67 48 c9 07 ce fb bf
       -0.8616580907434371 -1.7378003943071794
000100 3c 6b 42 97 fd 8e ce bf 75 f0 89 b3 bf d2 9c bf
       -0.23873872647967598 -0.02814769299810434
000110 20 45 9e 76 6e e4 eb bf d6 a5 a6 9d d6 63 c6 bf
       -0.8716347042810959 -0.17492182443429155
000120 d0 40 dd 27 e7 c6 e0 bf 44 78 04 05 d1 cd de bf
       -0.5242801455115345 -0.4813120411871561
000130 c1 b1 55 df 62 33 c1 bf 26 1f bb 92 3a 9c 72 3f
       -0.13438068299309516 0.004543522645412945
000140 ff bb 4f 7e 68 11 b7 bf 42 03 d5 7d ba c8 f2 bf
       -0.09010937770629822 -1.174005977183882
000150 0d bd 9e 83 d1 ef f2 bf 4e 0c ea d7 19 ad f2 bf
       -1.183549417630107 -1.167260974326172
000160 3d d0 1c 8c 7b 4f e2 3f ef 7e 9f a7 bd 45 be bf
       0.5722024666379252 -0.11825166075095316
000170 5d f4 57 d6 5b bd ee 3f 02 8e 4d cd 8c a3 e3 3f
       0.960615080489912 0.6137146005461889
000180 cf fc 34 47 d0 f7 b3 bf
       -0.07800008524371836
