exp/em_trans_half _small/model/small_30mr_encoder_49_34956.pth (torch, 311806 bytes, 88 tensors)

linear_map_in.mlp.0.weight f8 [30, 49]
000000 b4 79 7b 63 06 93 b7 3f ad 37 46 b3 7b fd ba 3f
       0.0920871727825901 0.10543034674466752
000010 1c a3 d7 7e a8 53 b5 bf 34 73 96 c3 90 f7 b8 bf
       -0.08330777260529171 -0.09752754950609416
000020 43 13 b8 38 a6 dc be 3f 96 3d d5 6d 56 44 b6 bf
       0.12055434117071422 -0.08698024922818201
000030 6a 28 4a 99 f2 e8 b9 bf f8 de e1 3a 04 b6 92 3f
       -0.10121074907707031 0.01827246293438997
000040 65 8d 43 66 52 fc a5 bf 93 71 d4 fb f4 d5 92 bf
       -0.04294068811739286 -0.018394306059336406
000050 0b 85 72 5b d6 8d c0 bf ab 94 6e cf 56 03 b9 bf
       -0.12932853188707613 -0.09770720066315401
000060 a0 f8 1d 52 1b 27 97 3f 5b 7c a6 05 9f 78 7d bf
       0.022610117804554464 -0.007195111446349402
000070 f0 57 d2 ff c3 30 c0 bf c1 1f 75 98 91 61 9b bf
       -0.12648820868770327 -0.026739382677334115
000080 0e de b4 81 77 db 96 3f 9c e7 42 e5 b9 d5 a2 bf
       0.022321574489266686 -0.03678685115433142
000090 c3 9e 6c 98 0d 5f a8 bf 34 74 8c 60 68 1f a9 bf
       -0.04760019765518344 -0.04906774691173901
0000a0 22 f8 1e 19 59 0c b5 bf 98 1a af cb 3a 9f 77 3f
       -0.08221966613106749 0.005767087622138199
0000b0 87 56 f9 cb a4 ed 98 bf 68 ad 59 26 57 64 9f 3f
       -0.02434403891523698 0.030656205859867752
0000c0 9d 8d fd c7 b1 3b 9f bf 44 3b d6 3d 7c 39 c4 bf
       -0.030501153785179026 -0.15800431270005266
0000d0 be 96 0a 13 f7 1e b5 bf 2a c7 9e 88 a0 c9 9f bf
       -0.08250374045254724 -0.03104258378852546
0000e0 81 33 6d 9f 7c 6a 9f bf 5a 9e fd 40 ca d3 92 3f
       -0.030679652433991848 0.018386039940564515
0000f0 77 fd e7 6d 47 e2 a4 bf 6c 7b 9e ff 87 21 98 3f
       -0.04078887192371899 0.02356541154551499
000100 28 00 52 ae 8d 6b ba 3f 3b d4 f5 9c ca 24 a2 3f
       0.10320363527171195 0.03543694654482762
000110 c4 36 ac a5 b7 cd bc bf bc 16 94 2c 80 68 a3 3f
       -0.11251399798149025 0.03790665191813278
000120 f7 99 b5 c2 23 49 b3 3f ef 30 db d4 ea 03 b1 bf
       0.07533477309844004 -0.06646602341351458
000130 68 a4 b4 97 43 53 b3 bf 7a 72 f2 18 c3 a6 c6 bf
       -0.07548925832510778 -0.17696417539709214
000140 3b fa e0 1c 15 fc a4 bf 72 c7 8f bb a8 df b1 3f
       -0.04098573663258206 0.06981901721135644
000150 4d 63 ba 96 1c 8b ab 3f 16 84 51 aa ae 90 84 3f
       0.05379571285192828 0.010041584561067334
000160 f6 fe a6 dc f2 43 b6 bf ef 1b 62 18 65 f6 a3 3f
       -0.08697431456584667 0.03898921892783124
000170 f1 50 16 9d 1f d8 c1 bf d3 82 77 e9 c1 f5 99 3f
       -0.13940806551239107 0.025351552843747193
000180 06 e2 e2 2f 72 23 d4 bf f9 04 5a 40 71 d7 98 3f
       -0.3146634547843238 0.024259347489082626
000190 3b 4d 03 5d 43 be c4 bf 72 33 ff 57 61 ba bc 3f
       -0.16205637017865535 0.11221893690453813
0001a0 7d d7 00 36 69 c5 90 bf ee 9c 1e d9 b9 d8 c0 3f
       -0.01637806312665856 0.13161395169775097
0001b0 7a c5 b2 ec dc 6a bd bf 99 59 67 cd fa 16 b8 3f
       -0.11491184977309912 0.09410064234484707
0001c0 21 b8 c2 aa 6c 6a c5 bf 6f 04 00 99 2b 6f b7 3f
       -0.16731031740113259 0.09154007420876707
0001d0 e2 e4 39 f4 c3 fd c1 3f 8c ea ac ed 8f a2 b4 3f
       0.1405568068037502 0.0806055026304568
0001e0 70 c2 1e 59 d1 5f c0 bf 68 14 40 23 7c e0 bf bf
       -0.12792412616319693 -0.12451911793330483
0001f0 5b 96 f6 c3 10 c8 c0 bf bc bb df ac bf f7 b1 bf
       -0.13110551422612357 -0.07018659563594459
000200 d9 10 af f2 c4 1a a3 3f 7b e9 4d 4f e9 82 a4 3f
       0.037313608765119084 0.04006127446241955
000210 5f ce a8 3d 72 25 b7 bf 4b 0d 6f d3 66 d9 cb 3f
       -0.09041513448101444 0.21757207225719308
000220 8e 84 2b 4c 7d d8 9c bf 0b ef 65 7e 0a fe ae bf
       -0.02816959168820126 -0.060531928948846035
000230 d0 b1 35 25 c7 56 a3 bf ef ef 68 e8 5a 2a bc bf
       -0.03777143792362703 -0.11002128767080398
000240 49 79 5a 82 49 69 a6 3f b1 0b 80 1e cc 21 a6 3f
       0.0437720271704501 0.043226603243986424
000250 ad 20 a5 2e 76 f0 ad 3f fa d7 12 31 3a ad ad bf
       0.05847520179173791 -0.05796224450152461
000260 9a d1 0e d6 b9 5d b5 3f c7 22 a4 e5 f0 bf b3 bf
       0.08346139408133127 -0.07714753729318168
000270 ca 66 0c 21 5c 56 b6 bf 6d 07 d7 4d bf 81 40 3f
       -0.08725524718138469 0.0005037483312479836
000280 96 c9 04 41 53 d2 b2 bf 1a f8 6d 45 06 b4 b7 bf
       -0.07352180802698735 -0.09259070582444942
000290 c1 9e 28 f7 d1 b5 80 3f 67 de a9 38 0c 6d b6 bf
       0.008159294467147917 -0.08760143645656059
0002a0 bc 2a be 83 80 08 af bf 15 c7 75 ab c0 fa b5 3f
       -0.06061174019040069 0.0858574312785801
0002b0 24 a6 ca b4 e4 6f b6 bf 02 42 91 b5 1a a9 b4 3f
       -0.08764485753877033 0.0807053273467844
0002c0 b3 81 a4 c4 76 64 ae bf bf b4 72 58 36 62 ae 3f
       -0.059360229019378784 0.059343050286182024
0002d0 43 f3 a9 42 ce 77 bf 3f 55 01 5c 3b f9 74 b2 bf
       0.12292183997665256 -0.07209737490848529
0002e0 2e f5 10 cf 95 31 b8 bf d7 bb 5e a2 74 b0 b1 3f
       -0.09450660996750024 0.06909874881851806
0002f0 19 40 2f a9 d6 4a b3 3f 24 7d 2a 6c f7 37 b3 bf
       0.07536069517595968 -0.0750727309300499
000300 98 e2 44 92 d8 75 ba bf 8e e2 7e 86 34 8f bb 3f
       -0.10336068697950862 0.10765388759217329
000310 fc 95 8c 8a a1 0c c0 bf 46 56 6a 52 f6 66 88 bf
       -0.12538546815009954 -0.011915134801976934
000320 8f a7 55 50 8d 58 b2 3f cf c0 48 6e 6f ee b2 bf
       0.07166369639676716 -0.07395073358998448
000330 ea 0e 89 0e a0 9f b1 bf 4c d1 bf 2a 06 e5 9e bf
       -0.06884193758838433 -0.03017053256913131
000340 7f 70 36 4c 02 a9 91 3f 02 f6 33 37 1f d8 c0 bf
       0.017246280576373337 -0.13159551806886333
000350 bd 16 86 1a 5c 3c aa bf d7 c1 66 70 a5 bb 9d bf
       -0.05124175857330957 -0.02903612612289116
000360 35 5a db 74 ad 39 ab 3f ce 96 dd 27 91 5f bf 3f
       0.05317441989398156 0.12255198691635913
000370 47 70 d3 51 ef 57 b9 3f a3 72 a8 f1 7a 4a c1 3f
       0.09899802921012323 0.1350854568453502
000380 b7 b8 92 80 da f7 a8 bf 72 81 16 a3 ad 0f a7 bf
       -0.048765972323381694 -0.04504149070567366
000390 9b 69 0a b6 ca 37 c5 3f a2 dc cf 89 3a 88 bb 3f
       0.1657651318426588 0.1075474344687444
0003a0 27 fb 56 78 14 a8 ae bf 22 3c dc bd f1 6a a1 3f
       -0.05987609833709078 0.034019045282654994
0003b0 08 6d db fd 43 ae b2 bf 51 70 11 85 33 37 77 3f
       -0.07297158191379449 0.005667878388603568
0003c0 8b 5d 75 54 48 3d b9 bf 1f ed 52 45 68 93 87 3f
       -0.0985913473317536 0.011511625876997443
0003d0 2c 3a 8e eb 23 24 bc 3f b7 38 11 36 4c 26 b4 bf
       0.10992645741337331 -0.07870937652589559
0003e0 7a 86 d7 ba 31 55 b6 3f aa 00 4f 84 43 3a b1 bf
       0.08723746120042533 -0.06729528408232235
0003f0 ad 72 61 62 f3 02 ba bf cb 71 ea 09 4b cf c0 3f
       -0.1016075244128369 0.13132608398599496
000400 6f 5e 50 33 38 f1 be 3f 96 53 c7 b9 cd 43 c5 3f
       0.12086821797162782 0.16613170214864387
000410 23 d9 fb 28 d0 7e a4 bf fe 1c 8f c4 fd 1f ba bf
       -0.04003000736513431 -0.10205064820103257
000420 c0 9b b0 f3 34 bc b8 bf 03 9a be 8e 7c e9 c1 bf
       -0.09662180852374913 -0.1399379441256344
000430 e6 3d e0 9c 1f 55 7d bf c4 bb 96 dc 0a a2 ae bf
       -0.007161258208739229 -0.05983003561720282
000440 50 71 9d ce 7f e4 c1 3f c9 9e b5 3b 99 a8 be 3f
       0.1397857436048846 0.11976010997534127
000450 0c 4f 53 54 23 d3 b6 bf 29 78 81 d0 68 ad b7 3f
       -0.0891592102882976 0.09248976793739473
000460 78 f5 16 8f 52 61 9d 3f b8 89 84 45 0f 56 bb bf
       0.028691568358899272 -0.10678191611490362
000470 59 b4 8d 9c 9a 1c b4 3f a7 07 c9 ec 53 da a7 bf
       0.0785614616595053 -0.04658758416600444
000480 31 bf d9 e6 70 02 c5 3f 30 ac 85 d7 2d 2e c0 bf
       0.16413699409485497 -0.1264092733721056
000490 5b dc 55 56 08 8a c6 3f f3 0d 4d 44 7c 19 af 3f
       0.17608741965861693 0.06074131330253953
0004a0 50 4f 0d 33 c2 1b b8 3f 9b 6a 67 bf 70 5d 93 3f
       0.09417356249224196 0.018911134416934244
0004b0 8d e4 19 62 70 10 67 3f a1 60 6d c1 f7 b6 92 bf
       0.002815455912067727 -0.01827609174810674
0004c0 2c 65 0a d9 26 96 bc bf a5 20 3d bb 6f a2 b7 3f
       -0.11166613386958052 0.09232233353862059
0004d0 d2 fa 91 eb e7 49 af 3f fb 26 34 2f b3 9d b0 bf
       0.06111073256123735 -0.06490631010469976
0004e0 62 d6 4e af b9 6f b7 3f 67 84 d4 55 a0 7a b2 3f
       0.09154854326228581 0.07218362899267704
0004f0 b5 41 86 4c cd bd 89 3f bf 9d 1b 65 04 6e b8 3f
       0.012569049737778263 0.0954287287564659
000500 5b 6c 7a ee a5 12 b6 3f 43 0b 75 d7 82 ad 81 3f
       0.08622204849454944 0.008631727409584072
000510 c4 1e 96 fe c9 7e b9 3f f0 1d 1c 85 0b 02 bb 3f
       0.09959089723099185 0.10549995422126535
000520 3f 64 fd 86 01 23 bf 3f 9d 3d c5 1a 36 b8 7c bf
       0.12162789865159683 -0.007011615129456497
000530 a2 ca 75 21 13 1d 93 3f cc b9 62 72 af 34 be 3f
       0.018665598790401312 0.11799141447656963
000540 28 22 fe 1a b0 49 6b bf a4 f0 55 66 1a 34 ba 3f
       -0.003331035571992897 0.10235753057890179
000550 bc bb a7 17 37 f7 b7 3f 48 81 7b 20 bf 9d 9d 3f
       0.09361595466155753 0.028922067983218086
000560 9e d8 b0 54 10 7b a0 3f a6 27 f0 ef 70 54 ab bf
       0.03218890222380931 -0.05337860993320413
000570 e1 48 31 ae b4 0a b5 bf 65 1e ed 29 19 2c b0 3f
       -0.08219460728404072 0.063172886596584
000580 10 01 43 ff 1b 03 bc 3f af df 9c eb 6e ef 9f 3f
       0.10942244512535049 0.031186802988684977
000590 7e 02 0f 9a f4 41 84 bf b5 74 0a f3 61 0e b6 3f
       -0.009891425086494762 0.0861569612847742
0005a0 36 ba 66 8f 50 1c a9 bf 7d b9 5a 0c d1 54 bd bf
       -0.049044148926772044 -0.11457544852848929
0005b0 84 aa 42 97 8f f5 b0 3f 0b 88 58 d3 11 f3 b5 3f
       0.06624696200257502 0.08574019822893335
0005c0 25 fc 04 f1 eb ee 8c 3f 66 c3 e9 ef 06 d0 9e 3f
       0.014127581875639514 0.030090435402999736
0005d0 18 c0 e7 b5 87 93 b0 bf e4 58 7a 34 cb dd 87 bf
       -0.06475113097235441 -0.011653506793021191
0005e0 40 16 b4 11 b8 d2 b0 3f fd 54 ba 40 e4 94 a0 3f
       0.06571531707967271 0.03238595285544397
0005f0 20 be a3 cc 6e 64 b1 3f e9 44 f1 91 25 2b a0 bf
       0.0679387330635497 -0.03157918364071028
000600 09 44 0a 0e 3f 7e b1 3f ec bb c6 f7 c2 87 b9 3f
       0.06833261578346152 0.09972780751444049
000610 e2 5f e3 20 f7 01 b0 bf 08 62 e8 71 e9 4d b7 3f
       -0.06252998879369856 0.09103259116125895
000620 55 d6 1a bf 23 8e b9 3f 3b b8 df 2e 34 f9 a4 3f
       0.0998251287045034 0.04096377441588613
000630 ba 56 24 ad 09 5b c4 3f 8a ef ef 38 4f c3 90 bf
       0.1590282531184835 -0.016370046472715262
000640 d7 d4 a9 7b 94 86 c0 3f ca 34 2a 73 59 39 a0 bf
       0.12910705602886338 -0.031687541301928926
000650 91 cc 14 da a3 7f b5 bf 46 e1 e5 7d 76 f8 9e 3f
       -0.08397888254403287 0.030244685587122143
000660 54 f8 6a ee 89 a9 bf bf 23 b1 ef fb e5 6c a1 3f
       -0.1236807066988786 0.034033953670446836
000670 44 39 39 a7 36 95 b9 bf 24 f5 5b d7 67 1e a4 bf
       -0.09993306715589251 -0.03929447654625509
000680 d2 f2 32 47 e3 76 b7 bf 78 07 b1 10 6e 55 c0 3f
       -0.09165783394105212 0.12760711493507038
000690 c7 7e cc b4 a0 20 a1 bf f0 91 23 60 98 9e 8d 3f
       -0.03345205504433362 0.01446265262024668
0006a0 a4 d1 a8 79 29 29 bd 3f 99 e7 58 cf 2c 15 94 3f
       0.11390933246804608 0.019612026362871047
0006b0 d4 b6 a4 93 6f 49 a4 bf de d8 7f f7 db ce b5 bf
       -0.039622771046521926 -0.08518767158952609
0006c0 62 4f cb 6b 95 fe b1 bf 9d 08 ae 21 40 81 b5 3f
       -0.07029088861173485 0.08400345632802204
0006d0 b9 80 12 8a 44 ff bd bf 44 a8 a2 a3 1b 05 b0 3f
       -0.11717632647423927 0.06257794137005229
0006e0 ef 31 53 c5 1b 93 af 3f 5f de 18 b9 89 28 c3 3f
       0.06166922363044935 0.1496746209902424
0006f0 96 7d 32 e3 fd b9 c0 bf 56 d5 44 bf 17 23 bb bf
       -0.13067601770033538 -0.10600422305727383
000700 e6 c1 b9 7d 87 82 c1 bf ca ab e6 01 6f eb 85 bf
       -0.13679593695589104 -0.010702960248485289
000710 51 1f 71 c6 61 70 ac 3f 2c dc 26 ee ce 84 a2 bf
       0.05554490611444741 -0.03616949708105496
000720 4b 47 5a 0d 10 60 b0 3f fe f1 4f 89 be d3 c0 3f
       0.06396580053322258 0.13146192269040563
000730 e5 a0 86 46 0b 39 a4 bf 64 9e 26 20 b0 23 69 bf
       -0.039497711524121994 -0.0030687751725116275
000740 ac bd 15 a6 e4 dd 7d bf 1e c0 3d d4 cd df ad bf
       -0.007291691931967586 -0.05834811416468731
000750 fa c7 b2 34 c3 59 90 bf 4a 29 7a 56 7f 52 c2 3f
       -0.015967416850521922 0.14314262125510374
000760 10 4f 1b bc c1 5f a4 bf e0 84 94 02 44 1b a8 bf
       -0.0397930662271887 -0.0470830205106354
000770 bb f2 f0 40 7b 9d ad bf 92 2c b4 81 46 6f c1 3f
       -0.057842113187211074 0.1362083562201844
000780 3e d9 d9 ed 53 b9 a9 bf 10 95 0b 5a bc ad b9 bf
       -0.050242064270536776 -0.10030724714632222
000790 71 0e ab 8d 0e ba b8 bf c5 15 60 2e fb 32 cb 3f
       -0.09658900221534751 0.21249332203312413
0007a0 e4 82 d7 18 4a 9e c0 3f 22 59 c8 23 90 74 ab 3f
       0.1298306103990604 0.053623680465692894
0007b0 61 4d a2 9a b0 ec b2 3f e9 95 b3 d6 e3 30 bc bf
       0.07392410063976264 -0.1101210021184539
0007c0 75 6e ed 19 4b be b6 bf ed 58 12 3d 09 56 b9 bf
       -0.08884114630694191 -0.09896905652053407
0007d0 f4 5e 85 fa 21 7c ae bf 35 d9 1e 15 e3 04 a6 bf
       -0.05954080756299432 -0.04300603516405702
0007e0 cd d5 88 93 e1 39 b2 bf 60 e4 c6 5f 77 7d b3 bf
       -0.07119569637219243 -0.07613321388534322
0007f0 6f 98 52 ec a1 89 9b 3f 24 21 01 c9 50 93 c4 bf
       0.02689221386813084 -0.16074571432751228

linear_map_in.mlp.0.bias f8 [30]
000000 b9 b3 0a 64 c1 7d ae 3f 93 4a f4 95 f4 e7 c2 bf
       0.05955318781102598 -0.1477037174414205
000010 8f 9c 5a 77 13 dd c3 bf 39 77 30 1b 89 1e c0 bf
       -0.15518420532064112 -0.12593187167743183
000020 02 83 c2 54 3a 07 c8 bf 29 28 f8 8b ac e2 c4 3f
       -0.1877205766550319 0.1631675418323664
000030 8a 13 bf 94 27 6a b5 3f 70 53 f4 fa 5f fc c3 3f
       0.0836510408544894 0.15613937142975542
000040 c2 c6 80 f9 7a 43 b0 3f 35 34 f1 82 0e 29 b1 bf
       0.06352966872580182 -0.06703272530394673
000050 15 7d b4 c9 6a 07 5b bf bf 7c b1 26 55 30 c0 bf
       -0.0016497176027952577 -0.12647499455758823
000060 fe 25 a1 4a c2 a9 ca bf 3e c9 5a cb 10 fd 87 bf
       -0.20830563205736036 -0.011713153081789881
000070 49 0e 0f da 14 b4 ba 3f 03 1f 94 7f d8 52 c6 3f
       0.104310324894919 0.17440325002120724
000080 1e 16 5d 6d 82 8e b9 bf d0 78 f8 2d e2 28 a8 3f
       -0.09983077211389754 0.04718691645779105
000090 07 c6 38 c2 7e 5f c5 bf 27 29 a0 30 65 95 77 bf
       -0.1669767807339186 -0.0057577088100606915
0000a0 f2 ad bb 96 20 4e bd 3f cd ff f0 a6 ba 6e a2 bf
       0.11447337799079785 -0.03600104606493879
0000b0 8d 24 4e 9b 0e 6f c4 3f 15 34 8c b6 28 26 95 bf
       0.15963919242156913 -0.020653377668214363
0000c0 51 3a ae 54 71 f4 95 bf 62 a5 e1 f1 29 d7 87 3f
       -0.021440287393085736 0.011640861219535285
0000d0 fa 07 90 b0 2f af 86 bf 5c 80 91 eb f1 a6 a4 3f
       -0.01107632882667885 0.04033618927564994
0000e0 aa 27 ef 37 5b cd b9 3f 83 06 eb f7 ef 5b b1 bf
       0.10078973880368261 -0.06780910303771219

linear_map_in.mlp.1.weight f8 [1]
000000 e5 b8 a7 f2 ae b5 e8 3f
       0.7721781482084934

linear_map_in.mlp.3.weight f8 [30, 30]
000000 05 42 0d 36 0a 39 c2 bf 59 95 73 41 91 80 b7 3f
       -0.14236571921584598 0.09180553291260675
000010 58 2c 2f 3e 74 5c b6 bf a9 ba c3 26 b3 5a a6 bf
       -0.08734823721094764 -0.043660734636309435
000020 a2 f3 02 30 4c 1d d9 bf b3 86 e4 bc ba aa c3 3f
       -0.3924131840574835 0.15364774916911514
000030 4f b7 ce 73 6f 17 9c bf 40 82 1c 2f bb f6 97 bf
       -0.027433148806884685 -0.02340214228672921
000040 06 d0 3e 5b 12 58 ac bf da 02 e9 5b f2 93 d5 bf
       -0.055359433782911124 -0.33715495086293645
000050 0e b1 95 e3 47 99 4d bf 41 85 7a 0e 3a 8d b7 bf
       -0.0009032822628518859 -0.09199869969827025
000060 0b f5 6d 20 4c 72 be bf 91 2d 38 0c da bb 94 3f
       -0.11893153945671402 0.02024784755307746
000070 e1 1e 1e e6 a7 4a c0 bf c9 56 ae 92 e3 39 b6 3f
       -0.12727831588949015 0.08682081538276089
000080 41 11 01 16 a1 21 b8 bf 97 dd 77 bc 85 cc b7 3f
       -0.09426314151011629 0.09296451426768325
000090 98 8d 18 8d 6d 19 b5 3f 30 27 95 65 13 73 ae bf
       0.08241924948429469 -0.05947170844099359
0000a0 6c 64 b2 b8 c7 d5 ac bf 3d 78 25 a0 b0 ff c4 3f
       -0.05631851319885403 0.16405303783079886
0000b0 c6 5c 68 27 a9 fc be bf f6 ad 2d 3f bd 07 c7 3f
       -0.12104279720402919 0.1799236830223518
0000c0 92 4e 20 ad 3f 19 96 3f 36 4d a4 8d b1 49 b5 3f
       0.021580691282066918 0.08315572460223994
0000d0 f0 15 29 be 45 9e ca 3f 06 8c 9a 6b db 2b 6b bf
       0.20795509133510803 -0.0033168111375103696
0000e0 66 82 49 9d a4 e6 c2 bf 63 3e 8f ca 83 cf cc bf
       -0.1476636665347712 -0.22508284941294496
0000f0 fd 0f b4 b5 ae e2 be bf c6 12 eb fe f0 01 b0 bf
       -0.12064639984242827 -0.06252962325659003
000100 1e ce 9f 77 19 09 c6 3f 49 e8 45 7c 1c 0f c8 3f
       0.17215269413974083 0.1879611594011428
000110 9d fa 83 b2 d6 53 b0 bf 11 9c 99 0d 31 75 9b bf
       -0.06377927645005817 -0.026814238028603003
000120 6e e1 6c 70 9d 83 8a bf 95 5b 42 c7 4f 90 98 3f
       -0.012946348184059455 0.02398800519639684
000130 5c eb c2 5f e0 cd 9c bf 98 7f d8 63 9e f6 c2 bf
       -0.028129106373607868 -0.1481512057807748
000140 59 10 77 70 f8 95 cd bf 86 56 7c 0e 0a 35 b5 3f
       -0.23113923541507367 0.082840565239474
000150 79 9d a2 a2 58 15 c0 bf 0f 8f 4b b7 f1 be c1 3f
       -0.1256514352910292 0.138639654635988
000160 1f 80 7c f9 49 1f b5 3f cd f8 bb 06 2b 3a a5 bf
       0.0825086816880689 -0.041459412166646815
000170 3a d2 55 47 5d 32 ca 3f b3 f6 67 42 3a 59 ad 3f
       0.20466199858823747 0.05732137737866818
000180 09 fe d1 76 66 3f b5 bf 92 d7 92 50 03 0e b6 bf
       -0.08299866104970745 -0.0861513206208129
000190 94 fb b5 0f 9e ea c2 3f db af 4a 91 d2 ef b9 bf
       0.14778495566494299 -0.10131565138971103
0001a0 52 ac 3f 2a 56 a7 aa bf 92 1d 6f 35 3b 2c c5 3f
       -0.052057926804842794 0.16541233166774966
0001b0 da 5f df 10 4a f7 d0 bf a5 89 e1 5f 93 1e 98 3f
       -0.2650933422823961 0.023554136969673362
0001c0 e8 50 ee d4 f2 74 b6 bf 24 1e 4d 16 fd 82 bc bf
       -0.08772199343212927 -0.11137372774566551
0001d0 e2 d6 96 fa e0 bc b4 3f b4 92 db 80 99 77 91 bf
       0.08100706212902822 -0.017057798852777764
0001e0 17 50 16 0a 03 8f 99 bf 33 65 d2 54 68 47 b6 bf
       -0.02495960949961792 -0.08702709265562163
0001f0 a0 1d e0 b0 1c a6 ad 3f 9c 9e 8f ab ee 3a 66 bf
       0.05790795954822703 -0.002713647987991964
000200 fb cb 09 ca b3 84 c5 bf b2 3f 42 ee 40 35 bb bf
       -0.1681122528567299 -0.10628133599152426
000210 1d 37 36 f0 04 e7 c5 bf c4 c4 db 12 9d 07 aa 3f
       -0.1711126492413592 0.05083933692174861
000220 51 c8 13 ce d9 39 91 bf 5a 1c ef 36 ec 96 c9 bf
       -0.016822245791395855 -0.19991829569173342
000230 5a 3c 7b bb af b0 ca 3f e4 06 9f 26 ca f2 b4 bf
       0.20851704267849663 -0.08182967608356823
000240 fc 2e 54 a7 ee f0 ce bf 80 b3 55 c0 d1 15 bd bf
       -0.24172766847947702 -0.1136141867224989
000250 83 46 b6 14 5b cd c3 3f 42 73 37 56 93 29 c4 bf
       0.15470446120575695 -0.15751878461642305
000260 24 c6 ff f2 8c 6a c2 3f 2e 8f 46 a6 58 cb a0 3f
       0.1438766657370688 0.03280140905124394
000270 dc e3 52 b4 55 8c 99 bf 6b f0 76 8d ef 6d c9 bf
       -0.024949397212114963 -0.19866747291041817
000280 d1 d6 1a 2d bc 3f c6 bf 4f f5 6c b9 bf c7 ac bf
       -0.17382003977188856 -0.05621146334167781
000290 b3 fb 59 3e 04 ff c2 3f 8e d6 f5 f8 16 03 c8 3f
       0.1484074882937115 0.18759429126992128
0002a0 75 c3 d6 34 d4 a1 aa bf e7 69 e5 73 1e d1 86 3f
       -0.05201590676313731 0.011141050254697539
0002b0 73 c3 63 4c 1d dc b4 3f c6 77 00 da a4 d3 a7 3f
       0.08148367991431175 0.04653659020571825
0002c0 f4 49 c5 26 c7 2e a0 bf e3 e7 f6 ad 56 8f c7 bf
       -0.031606887324091476 -0.18406184667929812
0002d0 03 16 f8 fd a9 d7 cb 3f 72 bf 1d 10 6f 97 b3 3f
       0.21751904393038055 0.07652944701635336
0002e0 15 65 1b c1 84 33 9f bf 21 a9 d0 22 a7 a4 b9 3f
       -0.030469965254131887 0.10016865348794514
0002f0 62 e5 7f 0f 1b 93 b0 3f 70 2e 20 40 07 20 cf bf
       0.06474465492637685 -0.24316492682588686
000300 31 34 68 28 d4 33 c9 3f e9 1b 99 a7 da 84 d1 bf
       0.196894187669757 -0.2737337719631215
000310 64 f3 95 26 6a 23 85 3f bf bd 85 4a 59 79 bb 3f
       0.010321454336684695 0.10732038564105205
000320 f3 fb 84 7b f2 81 bb 3f 24 a9 49 6f ac d9 bd 3f
       0.10745158687221572 0.11660268513665933
000330 09 23 42 60 de 32 c0 3f 9e 9d e4 09 a6 f7 bb bf
       0.1265523881923161 -0.10924756757287077
000340 1f 0c 85 32 b6 03 a6 3f e2 b7 d4 1b 68 91 c4 bf
       0.04299706808753733 -0.16068745955402536
000350 45 9b cb 02 6c 9e c1 3f 44 9a 5d e1 8c 79 a3 3f
       0.13764715324870216 0.03803673029942847
000360 0c 62 23 a0 b7 88 c3 bf 18 ed 08 ce dc 9e b9 bf
       -0.15260978049515506 -0.10008029966495646
000370 78 1a af 10 a3 28 a3 bf b8 f7 9a 26 ac eb a7 3f
       -0.03741941050207215 0.04671991320854779
000380 69 b5 94 cb 38 5f b4 3f 44 e9 1b 60 13 66 a7 3f
       0.0795779702209153 0.0457006506748763
000390 3a 88 ab fc 05 26 c9 3f cf 63 8e 82 02 9e 95 3f
       0.1964728816738573 0.021110572069662766
0003a0 d4 dc ee 60 3c 8e c4 3f c6 d1 db 12 4d c7 bf bf
       0.16059069378909518 -0.1241348429719614
0003b0 6e 3c 1b 81 eb ed 8d 3f 2e fb 0e 8c 37 7d c3 3f
       0.01461395251990735 0.1522588189963811
0003c0 11 42 e0 3f 3e b3 b8 bf 0d e8 8b f7 ad b6 ca bf
       -0.09648503360245565 -0.2086999376986686
0003d0 cc ec 76 a5 f2 f5 a1 3f 27 13 e9 d8 ba c9 a8 3f
       0.035079558084783 0.04841407678444503
0003e0 2f 75 02 be 4a 18 b8 3f 50 0d 4e ad 87 9f aa 3f
       0.09412066592127098 0.051998367219335706
0003f0 1e dc 26 77 af b0 87 3f 1a cd 64 75 1b a5 b2 3f
       0.011567469428753138 0.07283183685358488
000400 29 f6 a5 5c 60 e1 a2 bf e8 d6 06 f3 71 ba c2 bf
       -0.03687573557816066 -0.146314853349103
000410 00 f5 02 c6 d7 b6 bd 3f f6 89 77 10 8c 52 c7 bf
       0.11607121071115856 -0.18220663837480772
000420 0f 10 34 45 02 05 a6 bf a2 10 2b c7 50 d8 a1 bf
       -0.04300696463363362 -0.03485348159077374
000430 46 9a 4e bb e4 48 c7 3f 45 99 5d 19 96 8f 84 bf
       0.18191203256465566 -0.010039494179818429
000440 47 bd 9e a2 1b ba a4 bf 82 fd dd 04 f7 11 c4 bf
       -0.04048239097698541 -0.15679824578908713
000450 3d 2d 5e 25 4c 4a b6 3f 03 43 ae 6d b2 d8 9e 3f
       0.08707118904401497 0.030123508400325082
000460 8c 39 bf 65 8a d1 8d 3f cf 09 08 e6 94 5b c7 3f
       0.014559823255606806 0.1824823497009462
000470 79 af ca 50 cc 6d c5 3f 3c 2a d2 27 f6 d1 b1 3f
       0.167413272332279 0.06961000892821628
000480 4d 8f 75 dd a0 18 b3 bf 90 73 bd 53 ae 48 b5 bf
       -0.0745945492431563 -0.0831402735179394
000490 ed 15 63 3b 0d df ba 3f 5b 0f 09 a6 70 b9 d1 3f
       0.10496599864844543 0.2769433614196168
0004a0 d2 bf 25 c9 e9 dc b4 bf 87 87 f4 6f 6b 94 76 bf
       -0.08149586830927483 -0.005512637784052538
0004b0 5e cb ae 01 ac cb c9 3f 5b d4 3f 9f 27 4b c4 3f
       0.2015280731407882 0.15854354167791737
0004c0 11 7c bc bc f1 8b c5 bf 3a a7 32 34 e6 66 67 bf
       -0.1683332606853303 -0.002856683365810489
0004d0 20 93 6d 12 34 7a c5 3f 72 76 e5 f3 92 19 a0 bf
       0.16779185199552504 -0.0314451143956206
0004e0 8c f6 94 e8 5c 7b 9a bf 4b ff 07 b2 2c af c6 bf
       -0.025861217208549322 -0.17722090428287127
0004f0 bd 3f f6 6c 10 f3 c1 bf 0a 78 3a 6f d1 34 c0 3f
       -0.14023022957235112 0.12661188059877332
000500 83 b8 02 ab 3c 82 ab 3f 09 c5 5c d8 6f 96 c4 3f
       0.05372800433666305 0.16084096970147524
000510 8e b9 c0 97 4b fa c2 bf 60 8c 43 99 b1 e6 c3 3f
       -0.1482634058933851 0.15547771438204716
000520 9f 82 53 23 c4 12 ba bf 0e 94 7c 0c 4c 01 aa bf
       -0.10184884893852562 -0.050791145824668246
000530 ec e3 56 db e1 80 62 3f d9 bc f8 84 15 c2 9b 3f
       0.002258721472312866 0.027107559433883963
000540 b1 c7 f7 6e 47 0a 6c bf 53 4a be 34 82 e3 c2 3f
       -0.0034228701767852966 0.14756801200253963
000550 e3 ab ed f6 e1 ae 9f bf ab 0a 81 ef 88 75 ab bf
       -0.030940561958612178 -0.05363109515794425
000560 f6 a4 25 ae bc da 8a 3f 4f 8d 2f e0 71 02 99 3f
       0.013112520279451517 0.02442338877507427
000570 99 c9 6c 02 ba 41 be 3f 10 cc 70 f8 35 ed c2 bf
       0.11819040831759366 -0.1478640997971472
000580 8d a3 12 da e6 bf b8 3f 26 9c fa 7b c8 93 c6 3f
       0.09667818855326811 0.17638498357448035
000590 0d 24 94 ec d4 18 c8 3f b8 68 6a 15 56 a6 98 bf
       0.18825780440991516 -0.02407202249251192
0005a0 d8 51 e9 a8 46 c3 8d bf f7 29 97 6f 38 8b c8 bf
       -0.014532615690009118 -0.1917486710429583
0005b0 25 9a ff 1a 48 25 b0 bf c8 22 c7 f6 c2 3f 91 bf
       -0.06306887301580184 -0.01684479361736882
0005c0 45 f7 4c b0 fb c0 be bf 02 ab c9 ee fa 71 bc bf
       -0.12013218931403198 -0.11111419992236551
0005d0 28 3e c8 27 ce d6 93 3f 64 42 29 09 c3 c0 b4 bf
       0.0193741046696784 -0.08106631253873214
0005e0 62 54 c3 ed 94 59 c4 3f c6 d8 89 11 4e d7 b5 3f
       0.15898381814500612 0.08531654289422183
0005f0 02 0b 65 08 b3 45 ae 3f 22 9d 30 93 1b af a7 bf
       0.05912551381563526 -0.04625784084083252
000600 ea d3 a5 67 c2 ff b4 bf 13 d7 31 7b 7f f9 c3 3f
       -0.08202757864439972 0.15605157389989496
000610 da 47 af a5 f6 b9 b6 bf 7f f1 06 89 c5 84 c3 3f
       -0.08877507729565029 0.15248936835076773
000620 18 d6 9f 4d ab 7c c6 3f 57 22 f5 53 5a b6 c2 bf
       0.17567960062267285 -0.14618996715059282
000630 9f 86 7c 7f 6f 1a a8 bf 52 bd 72 04 2e d3 c8 bf
       -0.04707668715697121 -0.19394469468304948
000640 32 b0 bf 82 a2 74 b8 3f 21 94 7c 32 9f 90 a9 bf
       0.09552970592602675 -0.049931502259177536
000650 ab 20 58 c8 36 05 95 3f 8f db 51 47 e0 b0 c4 bf
       0.020527702310602674 -0.16164782984170897
000660 4c d0 c1 f0 c5 61 c4 bf 05 f9 b6 87 fe 6e 9b bf
       -0.15923380141942045 -0.026790596993799393
000670 7e 70 bd 9b 3a 5c b9 3f 71 c6 b2 93 9e bb 94 3f
       0.09906355192419089 0.020246961369315423
000680 63 12 8c 7a ad a9 ba 3f f6 a1 01 e8 a3 af b7 3f
       0.10415157548784175 0.09252380766123011
000690 be bd 71 31 2a 91 c5 3f 7d 5d 28 e3 f2 43 a6 bf
       0.1684925786425832 -0.04348715804024559
0006a0 60 c7 9d 71 d2 2c 81 bf 66 69 2a 7c d1 0d c1 3f
       -0.00838627251843932 0.1332342010762872
0006b0 4f 9b 4f 52 75 0f c3 3f 67 df 1c 1f 2e 0e 94 bf
       0.1489092494877817 -0.01958534302613604
0006c0 c4 31 46 3b 42 db bc bf 36 e9 9e a0 85 c2 b7 3f
       -0.11272062251209208 0.0928119198933118
0006d0 a3 1f ad 96 47 16 c0 bf 13 21 87 a0 a7 03 c2 3f
       -0.12567992074241116 0.14073653543733453
0006e0 06 e1 41 fa f0 75 ba bf a8 2c 2a 02 2e 76 94 3f
       -0.1033621417026361 0.019982069856763346
0006f0 bf cc 50 c5 26 58 c5 3f 96 1f 2a 53 ae 20 ba bf
       0.1667526687102505 -0.10206117182144533
000700 76 4e 7c d5 16 1f b9 bf 17 37 59 2a fc d5 c3 bf
       -0.09813063346910575 -0.15496780460164736
000710 14 ec 57 f6 11 8b 91 3f 53 73 65 40 fd 0e c7 bf
       0.017132073078737944 -0.1801449360308661
000720 96 2b d3 ac 38 c2 bd bf c3 a1 18 da f7 24 c0 3f
       -0.11624483317716136 0.1261281790659848
000730 1d 06 83 74 f9 4b 75 3f 7b cb c6 c4 f8 77 c7 3f
       0.0051994079914847975 0.18334874733190162
000740 cb 7a f2 f0 74 f3 90 3f e8 34 dc ff 52 e0 c1 3f
       0.016553713995217472 0.13965833180592502
000750 84 12 39 90 2d c5 c1 bf 62 53 a6 83 6b f7 69 bf
       -0.13882989446769411 -0.003169736851484848
000760 6f 10 be a6 b4 d3 c5 bf f6 9e 19 82 eb 9b b3 3f
       -0.1705232443019926 0.0765978996874955
000770 f4 59 c8 c0 0a 99 b0 bf af e1 98 44 5a d6 a7 3f
       -0.06483523565871235 0.04655725562446677
000780 90 2f 1e 0d 9d 86 c5 bf 35 35 eb 6d 5a 23 bd 3f
       -0.16817057743571384 0.11382069762767773
000790 07 00 d4 ba 98 a3 c8 bf 58 3f 5c b1 1d 49 c4 bf
       -0.1924925720450121 -0.15848132286236694
0007a0 02 40 6e ef 5a e1 ca bf 7c 88 1d 3d e7 14 c8 3f
       -0.21000229540777587 0.18813791736744523
0007b0 25 c0 04 54 8f a8 c8 3f ab 3f c8 57 6e 5b b7 3f
       0.19264403917759512 0.09123887675400393
0007c0 60 cc 65 1f cc c5 b0 3f d3 18 28 93 10 21 76 3f
       0.06551814810318168 0.005402626748496969
0007d0 b8 29 60 30 6f 61 bc bf 9f 54 07 e7 97 69 97 bf
       -0.11086172991796317 -0.02286374423586734
0007e0 b1 ba ef 1d 70 48 b6 bf 45 07 e4 5a 7e cd bb 3f
       -0.087042815502836 0.10860433310520275
0007f0 5d a1 bc c9 24 23 b1 3f 2f 03 37 3c 94 a9 ca 3f
       0.06694250035491707 0.2083001417177228

linear_map_in.mlp.3.bias f8 [30]
000000 89 37 70 67 d4 2a 64 bf 45 ad 6d f4 1a a6 ba bf
       -0.0024618290440291996 -0.10409706561556671
000010 35 29 8d 6d 5e 33 b2 bf 87 c4 f3 04 34 43 a8 3f
       -0.0710963265857217 0.047387719730871906
000020 b4 db e7 f3 18 b7 bf bf 84 90 b8 62 cd 3a b5 bf
       -0.12388759569863234 -0.08292850170306748
000030 ab 06 5d a3 1c fb c4 3f b2 db 74 27 3d 01 70 bf
       0.16391332604148565 -0.003907431491191925
000040 be fa 5b 88 dd 40 b3 bf 37 be 7d 55 06 1b b4 3f
       -0.07520851687511773 0.07853736483752348
000050 6e fc 29 28 8f c2 a8 bf 72 83 0c 61 84 fe c0 3f
       -0.04835936894686986 0.13276724566187742
000060 17 49 1c d6 7c c2 91 3f f5 34 41 b5 b8 71 7d bf
       0.017343473976390102 -0.007188531413772061
000070 34 07 a7 27 f7 dc b0 bf e1 97 e8 46 60 20 c3 3f
       -0.06587166517331583 0.1494255396111717
000080 6e db 8d 8b 2d 2e c0 bf 8b 92 36 35 25 4e b9 bf
       -0.12640923799673537 -0.09884865330838914
000090 73 03 3e 64 eb d4 c1 3f 6f 6b f2 9a bd c7 9d 3f
       0.13931028742447502 0.029082262594424643
0000a0 05 8e ae 8f b0 8c b6 3f 14 da cf aa f9 06 8e 3f
       0.08808425433976914 0.014661741757646708
0000b0 59 6e 1b ed 42 f8 c4 3f 0a 35 3c fc b7 50 bf bf
       0.16382633759973222 -0.12232541950307421
0000c0 a1 44 0b 51 66 c6 b3 bf 8c 05 9a 35 f4 48 66 3f
       -0.07724608877767249 0.00272033402581035
0000d0 97 5c 61 85 f9 c0 c3 bf cb ae f0 0d 35 4a b2 3f
       -0.15432662022314922 0.07144481268249618
0000e0 a0 e5 bc 4b 3c bd b0 3f 52 71 01 01 54 ce af bf
       0.0653875050455981 -0.06212103378558943

linear_map_in.mlp.4.weight f8 [1]
000000 9d 49 62 a4 4a 1f bf 3f
       0.12157122147826845

linear_map_in.mlp.6.weight f8 [30, 30]
000000 7a 00 ae 43 65 0b 93 bf a5 fe c7 c8 11 a8 a1 bf
       -0.018598158126679178 -0.03448539329474202
000010 10 87 d3 cf 67 1c b8 bf bb 05 0c f0 bd b1 a4 3f
       -0.09418343376048832 0.04041856341610691
000020 9b 10 ef cb 92 a6 a4 3f e2 a7 db 4a ba c7 a2 bf
       0.04033335437228055 -0.036680051458304566
000030 41 56 96 76 fc 17 a4 3f 19 8b 04 85 c9 65 c5 bf
       0.039245500064833745 -0.16716879839904022
000040 56 74 53 a5 fa bb 88 3f 69 e6 8f 57 b2 cd ae 3f
       0.012077291651104865 0.06016309088586242
000050 4e b4 c8 01 6f 9d b0 bf 17 04 46 26 46 a5 9d bf
       -0.06490224641375272 -0.0289507828579226
000060 db e1 96 a4 fc 52 a8 3f 44 76 82 ae 5a ac b5 bf
       0.04750813969753028 -0.08466116676796626
000070 8e 9b 84 26 24 8a b4 3f 25 8c c4 31 91 c9 91 bf
       0.08023286762600731 -0.01737048021562883
000080 8b a2 2a ce 58 f8 b5 3f ba 8f b5 7c ec cc c2 3f
       0.08582072289812907 0.14687877740209193
000090 2a f0 7f 68 20 c3 c2 bf a5 4b c3 16 d9 65 b9 bf
       -0.14657979109313263 -0.09921032720312313
0000a0 b2 41 b6 07 d8 df ad 3f 51 5f ac 88 8f b9 ae bf
       0.05834841817989246 -0.06000946563125232
0000b0 75 ae 72 d2 0a c9 bd 3f 66 0f 76 24 77 50 b6 3f
       0.11634891164674761 0.08716530456700652
0000c0 a8 72 83 20 c4 de bc bf b4 34 c1 ff 59 dc 81 3f
       -0.11277414125238272 0.008721068494333607
0000d0 f9 df b3 1b 63 ee a2 bf b1 28 44 64 68 37 b1 bf
       -0.0369749995533652 -0.06725170562654871
0000e0 dd bb fb d3 04 d8 c0 3f 2e 44 99 55 fa 69 be bf
       0.13159237242459101 -0.11880459394275597
0000f0 44 3b 43 44 5e 75 83 bf 24 88 cc e4 9e 9d c4 bf
       -0.009501205881318982 -0.1610602013761887
000100 a7 a0 13 cb 32 c5 c7 3f 48 ef fd f8 75 a3 c5 bf
       0.18570551792004616 -0.1690509286671562
000110 46 30 85 50 42 1b bb 3f 36 27 69 10 cb 63 ad 3f
       0.10588468995882847 0.057401986840501726
000120 4b a6 12 30 9b 1f c9 bf 8d 82 56 c7 0c 8e c5 3f
       -0.19627704474742055 0.1683975194291815
000130 09 2d 0d 38 65 42 b7 bf 2a 70 86 0a a4 f5 a5 3f
       -0.09085686319774679 0.04288971546631644
000140 87 22 47 15 18 83 b0 bf 78 dc 01 a2 a4 5b cc 3f
       -0.06450033683280242 0.22154672537337539
000150 d5 53 4e d6 a0 e5 be bf 15 2b b3 15 d8 b3 ab 3f
       -0.12069134933547272 0.054106476448927555
000160 ed 73 71 20 1c 1a c5 bf c3 8c 36 e2 98 70 c9 bf
       -0.16485930999888812 -0.19874869390068825
000170 8b 5b 33 3a 12 49 bf bf 8e bf a9 fa d3 6a b8 3f
       -0.12220872803605524 0.09538006658271866
000180 26 a7 4c 44 d4 d4 bb bf 4f 73 67 8b cd 1a c9 bf
       -0.10871626536814158 -0.19613045985070207
000190 86 b6 92 5a e3 8b b9 3f fb 73 c6 12 88 6c 93 bf
       0.09979077302224412 -0.01896870245547076
0001a0 81 4d 74 70 68 08 c0 bf 9d 48 b6 65 b3 02 ae bf
       -0.12525659075673093 -0.05861435524561041
0001b0 fe 5e 20 93 fd e3 b0 3f 57 e9 16 1a 5b 5d 95 bf
       0.0659788593478616 -0.020863936869980417
0001c0 7d 40 3c 90 e0 34 b4 3f ff fc 69 25 b5 b6 b7 bf
       0.07893184205409116 -0.09263164676120893
0001d0 74 79 f3 c9 b1 47 c0 bf b3 06 0e 8c a9 d1 a9 3f
       -0.12718794213192164 0.05042772135403819
0001e0 9c ff 2e a8 d1 8e a3 bf ab 0e f2 fc 75 50 93 bf
       -0.03819899728796303 -0.018861621440477688
0001f0 b9 c1 ff 9f 07 90 ad 3f 9d fc b5 ff 8c 5d ab bf
       0.05773948505509758 -0.053448110785205595
000200 08 c7 3d e4 90 53 bc bf b4 1e 94 fa b1 82 b6 bf
       -0.11065011570260819 -0.08793175094262545
000210 43 dc 22 c3 57 ea c0 bf eb 16 49 d1 d1 28 c7 3f
       -0.13215157535680264 0.18093321532267423
000220 6f 95 c9 2b 95 f6 a9 bf 13 1c 59 7f 81 26 b7 3f
       -0.05070940169825177 0.09043130263408754
000230 95 14 95 39 f0 cd a2 bf 1f 7a 9b 2e 30 de 71 3f
       -0.03672743513974656 0.00436228581540246
000240 d8 bf 91 4f 07 50 a6 3f be 36 3b 99 06 16 a9 bf
       0.04357931944184629 -0.0489961683320934
000250 99 ff e4 4f f2 9f c1 bf 08 82 d8 a8 a7 79 bd bf
       -0.1376936807737337 -0.11513755676470094
000260 3b 4d 30 45 fc b3 c9 bf 5d 05 11 6a 51 64 c5 bf
       -0.20080521944383087 -0.167123963156011
000270 17 54 b5 d1 2b 7f b1 bf 64 85 43 21 86 8c c1 bf
       -0.06834672803718465 -0.13710095047194237
000280 79 19 39 36 3d 0e b7 bf 0d af fe 33 2a a6 ba bf
       -0.09006102155499275 -0.10409797448545195
000290 86 61 a5 dd 2d 75 86 bf 01 19 00 14 4f d4 a5 3f
       -0.010965689016914092 0.04263541335244448
0002a0 88 7f 4a 88 b5 f3 ca bf ce ab 01 35 9f fb 8c bf
       -0.21056241183123015 -0.014151805691843846
0002b0 5d 99 9f e8 70 1c b1 3f 32 25 23 f5 7f 35 a2 3f
       0.06684022597582868 0.035564421342835564
0002c0 3b dc a8 61 94 f8 c2 bf b6 9e 83 75 f9 84 c4 3f
       -0.14821104782615344 0.16030805814738408
0002d0 24 13 d1 16 eb 71 a9 3f 9b e3 31 70 32 c9 bf 3f
       0.049697252784005636 0.12416377295620722
0002e0 9d c7 d2 b5 2c b3 b9 bf 9f 57 09 32 85 f0 c7 bf
       -0.10039023818060717 -0.1870275968855681
0002f0 13 fc 16 94 b4 9d b7 3f 21 fb 95 ad 88 27 b5 bf
       0.09225014319871176 -0.0826344894212352
000300 c4 04 3c 51 90 aa b4 3f f0 2f c8 92 9c 92 99 3f
       0.0807275961233414 0.024973341425763296
000310 eb 85 10 f2 68 8f ac 3f 95 be c2 96 c1 ec be 3f
       0.055781631039518796 0.12080011301690725
000320 2a 5a a7 50 4e 4f ce bf d8 c6 97 41 65 4b c0 3f
       -0.23679522455377483 0.12730088904168357
000330 45 b7 6b 68 73 25 ca 3f 1c 1c 76 be 9b d1 bd bf
       0.2042679080836313 -0.11647961997924522
000340 72 1d 9f c7 cc f8 9f 3f 07 a8 a6 59 b4 42 b8 bf
       0.031222533878261634 -0.09476782978768493
000350 79 17 77 62 cb ba c7 3f fb f9 04 83 db d1 b1 bf
       0.1853880148684615 -0.06960842083660872
000360 89 16 42 1e e3 cd c1 3f 22 6c e8 d4 d1 ac be bf
       0.13909567811440507 -0.11982451866099145
000370 12 ad 4e 7f b3 5d 6c 3f dd 1f bb e8 2e 19 c1 3f
       0.003462648945477328 0.1335810314542404
000380 50 98 8a a2 92 d3 c3 3f ff 8d 6a 29 06 c7 8e bf
       0.15489418922988074 -0.015028045786784182
000390 26 19 0c 04 78 ab c5 bf 7b a7 f3 c9 9e a8 c7 bf
       -0.1692953128587728 -0.18483338223387222
0003a0 1b 98 03 76 47 8c b1 bf 45 2f e1 17 f0 2c be 3f
       -0.06854673987581388 0.11787319739340514
0003b0 8d cf fd 94 2b 49 c0 bf b2 b2 06 d2 e0 86 c1 bf
       -0.12723297858212526 -0.13692865615066335
0003c0 ac d3 37 32 33 46 c6 3f b5 78 e6 31 74 40 b3 3f
       0.1740173335271299 0.0752022382571081
0003d0 aa 61 9e bb 45 61 ab 3f ba 98 70 09 e7 1f b3 3f
       0.05347650447146475 0.07470554333176241
0003e0 fd 72 ad a2 0d 44 7e bf cd 8b 20 c3 16 93 bd 3f
       -0.007389119399559216 0.11552564872594857
0003f0 94 8a 0a 4d c3 14 c2 bf a3 68 62 c4 f3 8d 89 bf
       -0.14125863324905608 -0.012477783613850163
000400 5a a9 47 a6 1a 92 c5 bf 7d 8b 4a 54 a8 65 8a bf
       -0.16852124327790358 -0.012889208862650875
000410 be 55 a0 6d 0f 4c c0 3f 2c e1 1a 0c fc 3b ae 3f
       0.12732117512557112 0.05905139587179273
000420 bb 77 ce 86 b5 5a a3 bf d8 7f 24 90 cc 6e b5 bf
       -0.037801430421708436 -0.08372190970521787
000430 7f 5c 27 17 04 36 bf bf e2 32 4a d6 81 f6 cd bf
       -0.12191796841885781 -0.2340853020035843
000440 2c 8b 51 54 3f 28 c3 bf 59 e8 54 70 1b 13 b9 bf
       -0.14966575257411685 -0.09794780247185154
000450 22 a3 6b 81 96 f5 be bf 4a 02 9d 37 0b c0 c8 bf
       -0.12093487415007734 -0.19336071219915346
000460 45 d8 3d ce a9 ee c0 bf 59 c7 9d 8c 2d 73 b2 bf
       -0.1322834260024043 -0.0720699756909914
000470 e7 54 21 36 04 46 a9 3f 62 4f de 7e 4c a5 c8 bf
       0.04936230812806191 -0.19254451937433276
000480 4a dd b9 d5 48 fc a3 3f bb 7e a0 5e 8c 3b c4 bf
       0.03903415307007181 -0.1580672704740119
000490 a0 6b f0 14 47 fb af bf a8 ee d2 18 2d 51 8e 3f
       -0.06246397142987026 0.014803268737856826
0004a0 cc 08 e7 86 c2 8f c4 3f ef a7 cd 6f e3 53 a9 bf
       0.1606372030929094 -0.049468142888898
0004b0 82 a0 0e 15 3e 0c bc bf c0 45 46 d6 04 d0 b1 3f
       -0.10956180585947276 0.06958036643324927
0004c0 a5 d0 6f c1 3a 5d ca 3f 1c 60 d1 c3 5a 56 a8 3f
       0.20597013898043773 0.04753383293490307
0004d0 8b b2 74 7b 80 b7 a5 bf d2 9a 66 d1 28 61 c3 bf
       -0.04241563326863681 -0.15140257095955306
0004e0 5d 22 8f 4c af 9d c4 3f 3f 46 d1 80 d9 99 c3 3f
       0.16106215704191387 0.1531326178542702
0004f0 31 e0 a2 d7 e5 8e bc bf 72 60 5d c7 04 5e c4 bf
       -0.11155544771725158 -0.15911922201735568
000500 8d 5a 3e 33 4c 51 c3 3f f0 14 df 5c d8 e4 c2 bf
       0.15091850759627726 -0.1476088002656648
000510 bc 60 55 31 10 4d ae 3f 42 c9 e9 b5 21 e7 b0 bf
       0.05918169595924058 -0.06602678958168887
000520 b3 20 8c c8 8d 9b c1 bf c6 6e db d6 9b fa a5 3f
       -0.13755962650634998 0.04292761800544791
000530 26 da 76 27 ef c3 a4 bf b8 93 b0 1c 69 b8 aa bf
       -0.04055735928288966 -0.052188191177527654
000540 d5 22 80 5e d9 43 c0 3f 3c d1 08 e2 b0 af c0 bf
       0.12707059015544667 -0.13036166226232548
000550 70 6a e8 a9 53 59 c6 3f c0 bc bd b3 d4 70 8e bf
       0.1746010379436771 -0.014863645301117834
000560 14 92 fe 3e b7 e5 c1 3f bf b2 bb b5 e5 d3 cc bf
       0.13982287002467386 -0.22521659253779622
000570 37 ab 29 f4 50 77 c0 bf f4 46 fd 08 05 dd b5 3f
       -0.12864124223718829 0.08540374249903576
000580 ab ce 7c 8e 41 8e 82 bf 0a 09 30 26 45 e1 84 bf
       -0.009060394440531047 -0.01019529364385054
000590 5f 8b 6f 42 44 b8 aa bf 00 87 fe 33 8f 2c b3 bf
       -0.05218709288580813 -0.07489867228880698
0005a0 2a 28 59 0c 89 db b2 3f 4e 8b 68 c3 04 8c 9d 3f
       0.07366234351607717 0.028854441096096743
0005b0 02 61 97 08 20 86 c3 bf 02 59 eb a1 b9 a3 b3 bf
       -0.1525306741666626 -0.07671699717625205
0005c0 5f 1f e9 60 73 67 c6 bf 3b e1 51 20 b2 06 a2 3f
       -0.17503206474270436 0.03520733494309743
0005d0 b7 29 38 dc ae 25 c2 bf a6 b7 f3 c4 89 8c bb 3f
       -0.14177499535464985 0.10761319216155005
0005e0 f3 44 ca 8c b3 8f 9f 3f 5c fc 63 dc 98 64 c8 bf
       0.030821614711901323 -0.190569980251868
0005f0 55 08 c4 c2 b0 cc a1 3f e8 4e 68 b0 f0 e5 be 3f
       0.03476478936683295 0.12069610888311966
000600 91 5c 45 73 d9 72 b2 3f 9a de a5 2d 58 b2 84 3f
       0.07206496299964928 0.010105790036262708
000610 c5 ae f7 6b ad 2a 86 3f e4 70 b0 50 9b 0d bd bf
       0.010823588235289514 -0.11348887176467631
000620 27 6a 66 d9 95 95 24 bf 75 27 3d f6 c6 85 b8 bf
       -0.00015704588140581893 -0.09579127799693572
000630 89 04 1d e9 55 e9 b7 bf e1 80 9c 8e 66 4a a7 bf
       -0.09340416852229984 -0.045489506634341266
000640 b4 1d 91 89 44 75 b7 bf ce 41 f8 4b e3 ae c1 bf
       -0.09163311346593767 -0.13814965447865152
000650 4a dc fb 5c a5 e2 af bf 50 e4 18 11 fa 8c c3 3f
       -0.062276046371998975 0.15273977122140758
000660 32 d8 6d 3b 46 d2 b1 bf ca 3e d4 18 c2 19 ad 3f
       -0.06961478186517026 0.05683714440431016
000670 1c d1 71 6e 2b a4 ca 3f 66 e8 d7 ff 4f 58 b7 bf
       0.2081350602417239 -0.0911912917726184
000680 81 85 ea 57 eb b5 a0 3f b1 cf 3b 9e 5b 3f a5 bf
       0.03263793419069839 -0.04149900728762591
000690 f9 e0 46 0f 45 a8 b3 3f 8b 05 59 ec 36 a3 c0 3f
       0.07678634283991305 0.129980912594004
0006a0 33 e4 09 84 8d 57 a7 bf 68 9b b9 30 2a a1 c1 3f
       -0.045589849822995986 0.1377308595576452
0006b0 59 4c da fb cc 27 c8 bf bf 01 50 12 21 bc af 3f
       -0.18871462152000865 0.06198218678037248
0006c0 b2 e6 38 5a 5c 39 c8 bf b4 cf 76 58 f9 1b bf 3f
       -0.18925051122078212 0.1215205994583915
0006d0 98 47 2d 06 57 d0 99 bf 5d 8e e8 f4 5b c0 ae bf
       -0.025208816291815234 -0.06006133427243008
0006e0 03 68 11 52 9b 8d bb 3f 31 8c 25 91 12 25 c3 3f
       0.1076294970856964 0.1495688637470223
0006f0 1c d1 a9 b2 7b 47 95 3f b1 f3 ad 0a e9 c5 b4 3f
       0.02078049924826174 0.08114487181405995
000700 dd a4 63 73 d0 da ba bf 1a 5f a0 57 d0 a9 a7 bf
       -0.10490134064788799 -0.0462174517598994
000710 6f 4f ea 79 b9 91 9b 3f 0f 38 b4 5b a8 32 a1 3f
       0.02692308241473945 0.03358961219247202
000720 22 6f c2 93 75 02 97 3f 77 c8 16 15 2b 5c c0 3f
       0.022470318931126283 0.12781275300727987
000730 f1 a3 8c e2 12 58 c1 3f 52 fc e0 9f 14 6f b3 bf
       0.13550029813748624 -0.07591370490352858
000740 82 cd 12 e8 b8 dc aa 3f 56 1a 4c 7e 08 aa c0 3f
       0.05246522744109951 0.13018900076731893
000750 35 25 7b 07 1d 55 a0 3f 63 0f 56 4b 2e 82 aa bf
       0.03189936367341276 -0.051774450966177075
000760 34 ea ee 70 9b da bf 3f a0 30 00 81 a7 2b c6 bf
       0.12442943102988907 -0.17320722388138154
000770 b0 15 cf 17 a5 d9 c3 3f 2f b2 c4 59 7e 50 c6 3f
       0.1550794950727954 0.17433146842212596
000780 81 3f fa 80 ba 14 ca bf e3 8a f3 fc 58 24 ba 3f
       -0.2037575845501998 0.10211712050981307
000790 1e b6 8d b1 82 6f 8d 3f 50 e6 33 f3 61 33 b2 3f
       0.014372845691208499 0.07109653651777958
0007a0 96 3b c4 ef 8a a1 a4 bf 35 a9 7a b6 1e 11 c7 3f
       -0.040294973152518995 0.1802099600802848
0007b0 63 d8 e2 79 5e ab c9 bf 1e df 3e 74 e4 dc c1 3f
       -0.20054226829023766 0.1395536010365896
0007c0 41 cd 21 77 af ba a4 3f 18 18 db 6a c3 70 a9 3f
       0.04048679665802491 0.04968844108002218
0007d0 ea 69 25 8e 0d e9 ab 3f 6f 1d af 89 ba 1b c0 3f
       0.05451242790396178 0.1258462116513601
0007e0 b7 6c 5b c7 a9 c8 80 3f e6 33 dc e7 09 52 c1 bf
       0.008195234676739422 -0.13531612225815975
0007f0 1b 35 87 85 b3 03 bd 3f 72 1f be 7d cb d7 84 bf
       0.11333772668804835 -0.010177221083509134

linear_map_in.mlp.6.bias f8 [30]
000000 1a ed f6 9a 7a 4a a1 bf f0 3f 81 d7 dd 00 bb 3f
       -0.033771354118892385 0.10548197280263572
000010 82 09 b8 63 bd e8 c2 3f 8b bd 78 00 40 ab c2 3f
       0.14772765511595415 0.14585113547353176
000020 ac 3a 3d bf b4 9d c1 bf 4e 37 c0 b9 0a d8 ba bf
       -0.13762530649042526 -0.1048590377324363
000030 d4 ce ee 36 ae 5c 8d 3f 2a cf e9 1f ac 0d b4 3f
       0.014336930323998777 0.07833362368711208
000040 f2 d7 a0 00 d1 6f b7 3f 40 59 a2 4d d8 64 79 bf
       0.0915499331029819 -0.006199688849071017
000050 c0 80 7b bf 68 70 87 bf 85 e2 b2 e3 da b6 94 3f
       -0.011444872230129355 0.02022878660929674
000060 7c 10 94 be 68 21 bf 3f 7b bd 6b d2 02 fe c0 3f
       0.12160353329460521 0.13275180124717764
000070 e1 ca bb 70 4a d2 92 bf d8 f0 76 df e2 8b 94 3f
       -0.018380320673666687 0.020064873589704074
000080 d6 c3 1e cd 2d bb a2 bf f1 b0 15 8e 1c d6 71 3f
       -0.036584311760982466 0.0043545833044442575
000090 71 75 09 76 99 94 c3 3f 6c 11 78 ec d1 85 6a 3f
       0.15297239554903855 0.003237638480415741
0000a0 c7 a5 88 fb 42 5c c1 3f 15 74 5c 09 ce 7f b8 3f
       0.13562810213015394 0.09570014694732294
0000b0 8d 6b 71 ce 8b ba aa 3f 91 4f a0 6c d9 6b b5 3f
       0.052204483938758185 0.0836768999291151
0000c0 46 98 ed 15 52 c3 87 3f 7f 00 ec 40 23 e9 c1 3f
       0.011603013319199228 0.1399272982598667
0000d0 a8 98 a5 12 d5 c8 a6 3f 60 04 44 6a f1 d2 ba bf
       0.04450097897169886 -0.10478123516442528
0000e0 d6 02 51 6b 01 ef 8a 3f 75 5c 99 60 01 68 bc 3f
       0.013151179397142537 0.11096199615836773

linear_map_in.mlp.7.weight f8 [1]
000000 85 93 37 30 ae f1 ed 3f
       0.9357520047893649
