exp/exp_second_round/gaussian_number_exame/8gaussian/transformer_embedding_40_6306166.pth (torch, 2329 bytes, 1 tensors)

weight f8 [16, 1]
0.26056066842058306 0.8853579591160713 -0.908227882436367 0.02278535760979923 -1.1719606420705262 -1.3539191038607736 0.7743152894046833 0.004328821518898554
-0.9907422872988828 0.29702939717005605 -0.5187685212425859 -0.994521231661771 0.30400838798376556 1.2672839274508203 0.5946397170910896 -0.03979182027738336
00000000: 2561 5fa7 06ad d03f c304 f536 da54 ec3f
00000010: 1a25 8ceb 3310 edbf d408 0c77 0b55 973f
00000020: ed45 5ecd 59c0 f2bf b82f 0814 a7a9 f5bf
00000030: 0326 99db 30c7 e83f ea88 a92d 19bb 713f
00000040: 63d0 562b 29b4 efbf 6ef1 b296 8702 d33f
00000050: 4acc 1d71 c099 e0bf 3d47 a530 1ed3 efbf
00000060: 9f65 0699 df74 d33f 055d f282 cb46 f43f
00000070: b1e2 39df 4907 e33f 2eb6 7aed 975f a4bf
