exp/exp_second_round/gaussian_number_exame/8gaussian/transformer_emb_empty_token_40_6306166.pth (torch, 2999 bytes, 1 tensors)

weight f8 [1, 97]
000000 15 97 93 63 d3 f3 d0 bf 03 46 f8 a0 16 c1 00 40
       -0.2648819420268052 2.0942814422385267
000010 ca dd 2c 02 55 e0 d7 bf 9a 0d cf 84 9e 4a c7 bf
       -0.37306714260509166 -0.1819646976929164
000020 cb dc a3 16 9e e0 02 c0 7f f1 43 6a ef 5f e0 bf
       -2.359676529765783 -0.5117108417030493
000030 db e0 b7 23 da 1c f2 bf dc a7 58 0a 4b a2 f9 3f
       -1.132043971561919 1.6021223453667437
000040 68 a7 c3 7d 2e 81 f0 bf cf ce e8 2b c9 9b e1 bf
       -1.0315384781519814 -0.5502668244939403
000050 26 1e 37 95 53 f7 e4 bf 84 12 11 1b fe 7c ee 3f
       -0.6551912226067926 0.9527578858038201
000060 e9 13 36 69 57 46 f6 bf e9 15 cb 8e 8c 46 e7 bf
       -1.3921732053579439 -0.7273619450504017
000070 c7 41 d5 02 3f 5f f7 bf 3a 93 55 4b 66 40 e5 bf
       -1.4607534514108111 -0.6641112777111637
000080 ef 00 5a 6c 47 85 f3 3f b0 f1 8a 3c b6 fd e6 bf
       1.2200388176425425 -0.7184706861949532
000090 b3 ad f2 62 c3 c0 ef bf fb da 3d c6 c9 dd f5 3f
       -0.9922806675507928 1.3666475051701912
0000a0 f9 f5 ba 9a 20 7d ec bf 33 0c 7b b7 c6 76 de bf
       -0.8902743360592346 -0.475999526195838
0000b0 ab 8b 34 db ad 68 ed bf 6f 28 06 e6 e4 7d db bf
       -0.9190282136299762 -0.4295589681938798
0000c0 21 55 e9 ea 5f 2a 8c 3f 45 b2 a1 4a c0 8d f0 bf
       0.013752698284557998 -1.0346072116182239
0000d0 84 9a 74 5d 15 f7 a0 bf 0c 96 07 38 b1 34 e2 3f
       -0.03313509717763899 0.5689321607903266
0000e0 48 1d df 37 6b 69 e4 bf 18 e0 97 25 fa 1c e8 3f
       -0.6378685084572817 0.75353724806246
0000f0 71 46 f9 d0 87 39 f0 3f 28 f6 31 64 83 eb da 3f
       1.014045540145528 0.4206245878666288
000100 a7 4d 14 8e 72 a3 d6 bf e2 44 dc 71 60 1a df bf
       -0.35372604250843626 -0.4859849082868789
000110 0a d9 e3 57 2c 99 c4 3f d7 0d d2 46 e6 91 c4 3f
       0.16092447558884998 0.1607024999430979
000120 e6 0a f5 60 c5 c9 b8 3f 66 7e b1 86 bd 7d ba 3f
       0.09682878129118996 0.10348114527141092
000130 19 d8 73 f8 0d ab ea 3f dd 7b fa 66 cc b6 dc bf
       0.8333806850994306 -0.44865713173379423
000140 bd cc 33 7d 45 33 f6 bf 72 f7 6f 8e aa 1a f1 3f
       -1.387517441817905 1.0690103115043397
000150 35 c0 d2 32 b3 6a d7 bf b3 66 a2 b4 3c e1 fd 3f
       -0.3658874508209949 1.8674895339994861
000160 44 28 73 d1 46 3c e3 bf a2 8b 83 36 4b 95 c1 3f
       -0.60110798748179 0.13736858522233059
000170 0c 42 75 f4 68 e0 ab 3f 2d a6 88 6d 98 45 ef 3f
       0.05444648727518961 0.9772455348331214
000180 e7 b4 e0 3f 24 44 d9 3f 84 af 5d 67 ac ea ac bf
       0.3947840331846479 -0.056477916353144614
000190 d6 d6 b6 c8 bd 2d f5 3f c0 67 e8 00 75 d4 eb bf
       1.323667320289521 -0.8696846978884807
0001a0 1a 7b 9c 71 08 7d e5 bf 0d 90 ec b6 b4 a9 fc bf
       -0.6715128153772156 -1.7914321084472278
0001b0 2e ea b8 7e 2f 52 d0 bf 77 a8 ba fa a5 70 ea 3f
       -0.25501620650507817 0.826251020150507
0001c0 7c ca 86 03 b7 e9 e7 3f 8e 20 45 86 80 fb d2 3f
       0.7472796505811199 0.29660046684558317
0001d0 7b 00 37 7e f2 89 c2 bf 2c 90 f5 c9 c5 5b c4 bf
       -0.14483481562456632 -0.15905067788401206
0001e0 c9 aa 03 c5 35 6b 04 c0 cc 82 1b 96 4a 9c ef 3f
       -2.552348651098644 0.9878285342966477
0001f0 3d 6d 6f c7 3c 7c cd 3f 9c 2a c7 ef 74 57 f5 3f
       0.23035392511415323 1.3338517538383377
000200 a3 a5 b4 fe 4b 03 d7 bf 0b ab 64 c0 bf c8 e1 bf
       -0.3595762240753066 -0.5557554967575425
000210 be d3 1a 80 2c 38 f2 bf 1e 19 20 49 18 2f eb 3f
       -1.138714313897466 0.8494988849859373
000220 b9 30 63 70 87 43 e2 3f b4 58 ad 76 a9 f3 e1 bf
       0.5707432932918187 -0.5609938924706257
000230 83 b8 d9 be a1 2d 8b bf 25 a7 77 9a 0c 2f e3 bf
       -0.013270629536432437 -0.5994933144513409
000240 78 1c 99 6b 0f b8 e5 3f 7e 3a ca 57 7f 9c ed bf
       0.6787182904744347 -0.9253536905906257
000250 b8 cc 2e 60 cc 0a f8 bf 9e 6c fa 79 a9 d5 03 c0
       -1.5026363141194405 -2.4793271569775035
000260 ed fa 26 d4 86 ff f5 3f 04 ce a7 41 e6 d2 ef bf
       1.374884442062178 -0.9944945604642617
000270 4f d6 8c 1a 15 c8 f7 3f 1c 77 ec 86 cc 9a f1 bf
       1.4863482510676425 -1.1002927084404694
000280 6f 40 38 0c be 33 d0 bf 5c 58 16 44 d4 19 e2 3f
       -0.25315810387929266 0.5656529741124916
000290 79 e6 85 17 85 24 f8 3f 6f 57 46 c9 1d 94 de 3f
       1.5089159888142645 0.47779030471553247
0002a0 2c b3 4b 9a 22 bd eb bf 75 c6 70 db 50 98 8a 3f
       -0.8668377889240211 0.012985831925195182
0002b0 39 68 ce 88 30 0c c2 3f 17 18 6b aa d2 ab a4 3f
       0.14099699668878587 0.040373404791850635
0002c0 67 62 1b b5 5f 7b 02 40 c3 dc f3 ac 9f 7f da bf
       2.3102411412221957 -0.41403953447247605
0002d0 f1 9a 99 d4 3b 14 f2 3f 86 57 78 4b 8e 32 c6 bf
       1.1299398712814617 -0.17341784176886338
0002e0 67 12 cb 5a 23 f1 00 40 91 e8 6a bd 0c 2c df bf
       2.117743214914572 -0.48706358430684654
0002f0 d2 e9 81 02 79 19 f1 3f 82 6c 16 a2 1c 6c f2 bf
       1.068718919558354 -1.1513944942041978
000300 5f 0d aa 7b bc 5b e0 bf
       -0.5111982741658884
