exp/exp_second_round/gaussian_number_exame/8gaussian/transformer_embedding_40_6306166.pth (torch, 2329 bytes, 1 tensors)

weight f8 [16, 1]
00000000: cff5 b0fe bced d0bf 5a2e ae5e 2ce5 e0bf
00000010: f439 983e a296 d7bf 9186 4730 485a d73f
00000020: 4b6f 889f 2c90 efbf 7a42 8008 558c e2bf
00000030: 0fbd 803c fb49 a8bf 9acf ecee 5934 e5bf
00000040: 7470 38b7 aad4 ea3f 857b 6c73 01fc f1bf
00000050: b1b5 87aa 90f8 fc3f 9a5e 953b 617a a4bf
00000060: 51bb 8f9b 1b58 01c0 d5d1 2ca7 8d9e d23f
00000070: 6d01 59b4 535a c9bf 3ca6 9720 488f f3bf
-0.26451039192383247 -0.527975258753439 -0.3685689555431104 0.3648853751638877 -0.986349402988233 -0.5796303907428204 -0.04743943322716337 -0.662640539789652
0.8384603098416066 -1.1240248211613288 1.8106848393757498 -0.039996183894513496 -2.1680214074362216 0.29092732740107624 -0.19806906038321462 -1.2224808953418593
