exp/mmd_vit_exp_abl/model/_embedding_abl_ktt_25_4537398.pth (torch, 4554 bytes, 1 tensors)

weight f8 [12, 25]
0	0xbffba31fb1dcda09	-1.7273251483690066
1	0x3feedced2f149e92	0.9644685668508421
2	0x3fbb1f7bd7796dd4	0.1059491540012723
3	0x3fcc063b5c01a176	0.21894018166063817
4	0x3fe88bef207c22a5	0.7670817980261587
5	0x3fec4fda31e5ff81	0.8847475981310567
6	0x3fe25ccb6d9c6d9f	0.5738274708596015
7	0xbfa1ff3eb8004a8d	-0.03515048977000843
8	0xbfe832dee98601fc	-0.7562098084454756
9	0x3fd4f69ed9e526a0	0.3275525215036428
10	0x3fa17370dd255376	0.034083868975961204
11	0x3fdcb853d3c33a5e	0.448750454711364
12	0x3fe018d66efaec2a	0.5030319373685235
13	0xbfeae27b848bbec2	-0.8401467884813985
14	0xbfe4c17b4c52936f	-0.6486183634448092
15	0xbff988fc695c75cb	-1.5959438434286877
16	0xbfed51c087a8a07c	-0.9162295007308923
17	0xbfe08e92b1f83569	-0.5174039340942446
18	0xbfc3aeb986018e05	-0.1537696747137575
19	0x3feaf8c3dcb75874	0.8428668318617967
20	0x3ff1228fddce3c50	1.070937982967525
21	0xc00296c451cbe7c2	-2.323616637263485
22	0xbfc947a24a345314	-0.19749859450589524
23	0x3fbd7301f23a0d4d	0.11503612674464599
24	0x3fd462debcdff820	0.3185345501404999
25	0x3fe0f4d399ab117c	0.5298860551197744
26	0xbfe35dc7bf02a253	-0.6051977854413714
27	0x3fe15fa6bc9d459a	0.5429261859773533
28	0xbfc62fc33af3e1cc	-0.17333259943531087
29	0x3ff7398c3e227402	1.4515497614986548
30	0xbfde1cc06a258420	-0.47050485959886323
31	0xbfc02ea12b1e0805	-0.1264230213674297
32	0x3fb33b5e265e0522	0.07512463032437158
33	0xbfc09705a607546d	-0.12960882765642925
34	0x3fe747615a4e4cd8	0.7274634135996179
35	0x3fd492ba058135df	0.3214554837948906
36	0xbfd7f1061c136b9e	-0.37408592931540763
37	0x3fedbbcbb89b0ca4	0.9291742902354554
38	0xbfe746ca9e6e8dc7	-0.7273915380832755
39	0xbfe354ecd2c65b27	-0.6041168324180476
40	0xbfe6fc09a826c3be	-0.7182663234908586
41	0xc00046f3c87c54da	-2.0346446669524143
42	0x3fd8f8b84f6e4c73	0.39018066174430216
43	0x3f9e69b9f6667113	0.029700189270088617
44	0x3fc03d21e2f014c7	0.1268656118483362
45	0x3fd265535faf8e51	0.28743442863762875
46	0x4000913e1c39781b	2.070919247154064
47	0xbfe7e32325327191	-0.7464767195229333
48	0x3ff3a79ba9235a33	1.2284199339825477
49	0x3fc8616df79f7b01	0.1904733141991173
50	0xbff777939d7cb44b	-1.4666935111847745
51	0x3fe16153fd05f560	0.5431308690892074
52	0xbff7a82361a089b4	-1.4785493672903671
53	0x3fcdd759d316988f	0.2331344872192784
54	0xbfefadfc9f27febf	-0.9899886234779486
55	0x3fe4074b9ae7591e	0.6258905435049973
56	0xbff26bfecc7ff0d3	-1.1513660419723706
57	0xbf86f8df69f71665	-0.011216874524403406
58	0x3fe493b2737689f9	0.6430294280183367
59	0x3fe0b01f4bd7742c	0.5214992982179232
60	0x3ff3130cbc9cdec5	1.1921508186041347
61	0xc00a5f6ce0338d8e	-3.2965943828327857
62	0xbfcde357cf219ec4	-0.23350045789560714
63	0x3ffa2d43daf30423	1.6360510399538348
64	0x3ff7ee378c747a46	1.4956584440730167
65	0x3ffaae670960acef	1.6675787321390165
66	0xbfdc564c22343d2d	-0.4427671751045235
67	0x3feafeaa016972f8	0.8435869243217828
68	0xbff1538bee75a436	-1.08289712093598
69	0x3fd67e8c1388d91f	0.35147382648155373
70	0x3fe06d7adc68f244	0.5133642487413188
71	0xbfe3e1e5b7f08012	-0.6213253586356606
72	0x3fc73804b5e05e28	0.18139704590497385
73	0xbfdbecf2dbdacea2	-0.4363371989268022
74	0x3ff6c3c3d6fe76b5	1.4227941892817573
75	0xbfdbe4c5376f503b	-0.4358380357127804
76	0xbfd9b06589cd77cc	-0.40139139611517005
77	0x3fe28d4b3d8e8c12	0.5797477915078864
78	0x3fd8ec167557d785	0.38940965136804834
79	0xbfd5fcc79899436b	-0.3435534467908414
80	0xbff33aba9c47fe4f	-1.2018381218657799
81	0x3ff816bad9de3a6a	1.505549288794692
82	0xbff853d2d0fd2f09	-1.5204647220261356
83	0xbff3bcc5a93c00c7	-1.2335869417875516
84	0x3ff673b8d7667cdf	1.4032524503780264
85	0xbfef77965f6be7ce	-0.9833480704976354
86	0xbfe9688a0cb47a55	-0.7940111396927231
87	0xbfd2c059aa09d4b7	-0.2929901276141424
88	0xbffaed9123b36ac8	-1.682999743896902
89	0x3fe91b5566327576	0.7845866199528888
90	0xbfe4defad7ca5d72	-0.6522192206056572
91	0x3ff2c6afaa69243c	1.1735073715847326
92	0xbfe88f0076e5cfcc	-0.7674562761517278
93	0x3ff7f794ce8ccf01	1.4979446476326645
94	0x3fbf3f8aa97efa48	0.12206331861578079
95	0x400452daf0fde603	2.540456660030715
96	0x3fb2163292b8ad4a	0.07065120775285041
97	0x3f9cf393139742c1	0.028272913046580642
98	0x3fe234731799cc48	0.5689025364830593
99	0xbff06f6b02c34e3c	-1.0272016628195066
100	0xbfe717c19e89ce0d	-0.7216499420596293
101	0xbfbc77164d252670	-0.11119212516236998
102	0xbff2cef69569ffd5	-1.1755281292425839
103	0x3ff0cac5ff4b5749	1.0495052311357134
104	0x3fdcdf40faeba7e1	0.4511263323207669
105	0x3fbb11e57f32d854	0.1057418284934511
106	0x3fcc81e18f8bc296	0.22271365651206015
107	0xbfec7dfe4c146de0	-0.8903800474103569
108	0xbfe7f948a3606589	-0.7491801444004277
109	0x3fa051a44ab08a3c	0.031872877232917735
110	0x40021135ce9453b1	2.2584034098640235
111	0xbff6315aa8e49e57	-1.387049350489084
112	0xbfed4321692588b4	-0.9144446424145571
113	0x3fe0a992c4aeebb4	0.5206998673887626
114	0x3fe8c224f482afb0	0.7736992621989796
115	0xbfe31508b060a15b	-0.5963176197883898
116	0x3fcfc000ba0d555e	0.24804696163725287
117	0xbfd419040a9fa525	-0.3140268424745776
118	0xbfee731009ef57ce	-0.951545733837287
119	0x3fb996b69aacb032	0.0999559524177023
120	0xbfb99e9776ccfb00	-0.10007616663368069
121	0xbfd0bee95472a682	-0.26165230986462273
122	0xbffb52c6939fbd0d	-1.7077089087068231
123	0xbff808ff78a99fcb	-1.5021967614538763
124	0xbffd52d2ecbd8bbf	-1.8327206847832114
125	0xbfc7ffa61dcf16e3	-0.1874892850448112
126	0xbfcb49bc87303124	-0.213187757501495
127	0xbfe372ec6d714337	-0.6077787530467508
128	0xc000313ad131cd82	-2.024037966091499
129	0xbff92a6d7e7ed697	-1.5728583279828052
130	0x3fe7734857d79768	0.7328225818316527
131	0xc00031bf68c17062	-2.024290865329065
132	0xbffa36017e6065cc	-1.6381850182136644
133	0x3ff4ee307fe78159	1.3081517215979004
134	0xbfc7a445e8cb240c	-0.18470071665640864
135	0xbfd64f0d72f49b28	-0.34857498384592356
136	0x3fe54b46834de85f	0.6654388966119419
137	0xbfe235823f59aa0f	-0.5690318333921044
138	0xbfb2c7af3736fa07	-0.07335944269195958
139	0xbfcda9040a3fec26	-0.23172045231317034
140	0x3fcd68be33efca53	0.22975900207491637
141	0x3f90d0177f8c2043	0.016418807182191363
142	0xbff44245abf75948	-1.2661797254018712
143	0xbff1819071000741	-1.0941318906847786
144	0xbfe11b53ab455b7e	-0.5345857949385928
145	0x3fd140f31ab0cc3c	0.26958921057229523
146	0x3fe8a2ceed766b61	0.7698740613881051
147	0x3fe17b84334c6786	0.5463276864932005
148	0x3ff202105ee6a5ff	1.1255038935727268
149	0x3ffc23b50cfb4033	1.7587175852859331
150	0xbfc17fa4ce1939d3	-0.13670787871747211
151	0x3fdbf272de5af186	0.4366728946149795
152	0x3ff24b065775109b	1.1433165947246724
153	0xbfd4220206240e95	-0.3145756778687681
154	0xbff324c597d6dbb1	-1.196477501985765
155	0x3fedf5960e759cb5	0.9362287790690035
156	0x3ff1b4814b7a6044	1.1065686176643945
157	0xbfd38b1748f8c5c6	-0.305364438306324
158	0x3fe4ac6a8e38ae03	0.6460469033967801
159	0x3fe9b2917ebcf555	0.803047893081081
160	0x3ff5fc1ad5a15b81	1.3740490288671199
161	0xbff624a3b894401c	-1.3839451990243168
162	0xbfbc237a719a44a0	-0.10991635583401882
163	0x3fbc47417d0c9fb4	0.11046227744065967
164	0x3fc32817be4e55ba	0.14966103355679455
165	0xbffe86dca4504d7b	-1.9079252642157758
166	0x3ff2a699a4ba937e	1.1656738695830593
167	0x3fdd559cacaf8922	0.45835034240566774
168	0x3ff88867d7ab65ba	1.533302156886164
169	0xbfeddbd93bbc1b28	-0.9330869833655457
170	0x3ffb1f5e5fd60096	1.6951583617774637
171	0xbffd67df74f29020	-1.8378595894109893
172	0xbfd24a243051ca23	-0.28577522963238006
173	0x3feafce7691a8c3b	0.8433720639044461
174	0xbff5a9f149634429	-1.3539898745259598
175	0x3ff317094dafb60a	1.1931241068481335
176	0xbfdb93741f6aeb69	-0.4308748537838967
177	0x3ffd73c1eb17f542	1.8407611068099219
178	0xbfec3a35dc6f9247	-0.8821057610881063
179	0xbfe33bec998a8e4a	-0.60106496799967
180	0xbfebe2e6645a94a6	-0.8714477500949627
181	0x3ff8b70787256482	1.5446849135535392
182	0xbfa037687e532080	-0.03167273084687938
183	0x3ff3c17b2caaf9b9	1.2347366089667118
184	0xbff83171f07314fa	-1.5120715515670882
185	0x400364381fa13893	2.4239351721835845
186	0xbfcfb6cbf581bbd1	-0.24776601302752835
187	0xbff1378b681e0fd9	-1.0760606829726298
188	0xbfdd459aece6d64a	-0.4573733628743396
189	0xbfe43cac33b6e533	-0.6324063310668521
190	0x3fea0d038dea6162	0.8140886089122825
191	0x400b2ca9ed26f729	3.396808483840591
192	0xbff6e2c5d3aaf244	-1.4303644436141818
193	0x3ff13d85737381ab	1.0775198468983074
194	0x3fec6c965833d490	0.8882552836136188
195	0x3fb765e805ab3eb5	0.09139871729279998
196	0x3fb8efb1fc34ef0c	0.09740745932952793
197	0x3ff6a1da969d7d4c	1.4145151027112943
198	0xbfefe5ec8892fd16	-0.9968168895210592
199	0x3ff0f346cadd102a	1.0593936848026808
200	0xbfd9222158d69de4	-0.39270814586276814
201	0xbff3819035fc0997	-1.219131670834576
202	0x3fee1692005301ad	0.9402551657040498
203	0x3fee06cb3400fa97	0.9383293166827852
204	0x3feef142095bf6d0	0.9669504339978747
205	0x3feba0964727f513	0.8633529081122638
206	0xbffc25b06e82b628	-1.7592014614887237
207	0xbfdee0741623675b	-0.48244955217307045
208	0x3ff0dc730dcdfd1c	1.0538206614726908
209	0x3fe6a4177a2a79da	0.7075307260564003
210	0xbff66b2d25ff10de	-1.4011661037666765
211	0xbfe095bd7ddb55be	-0.5182788332119157
212	0x3fd349d00195a033	0.3013801589463611
213	0x3fd3eb26729304a9	0.3112274283303785
214	0xc000ea337f7b7df8	-2.1143560370981014
215	0xc0006e46ef08e81b	-2.0538462328522775
216	0xbfccc4b77fa99aa1	-0.2247533200599792
217	0x3ff703154c961554	1.4382527343417069
218	0xbfe7214e358d95c6	-0.7228156133611996
219	0xc0032a34e0af14cd	-2.395608668654495
220	0xbff4514969181b4c	-1.2698454003563766
221	0x3ff923c094b7b0f7	1.571228581359774
222	0xbff4ee7db1511092	-1.3082253385955807
223	0x3fd4b2bc95564f27	0.3234092195864257
224	0x3ff270ecc61b1877	1.1525695551404433
225	0xbfe90d46d8ef56b6	-0.7828706967363448
226	0xbff41beffe3c4ccc	-1.2568206721378372
227	0xbfd261263b11009f	-0.2871795250721422
228	0xbfecd4d997ebf014	-0.9009826628894211
229	0xbfe0be9292ab8e1e	-0.5232632507945174
230	0xbfe6f228e8302c14	-0.7170605215955015
231	0xbfc264f36d9fdee2	-0.14370577671774415
232	0xbfe9a14c656ff271	-0.8009397488782054
233	0xbfb9a6625c0f75ac	-0.10019507167404268
234	0x3ff18e62caa1f4f5	1.0972621836984306
235	0x3fe2de4086022c82	0.5896303765633919
236	0x3fe3998521f670f9	0.6124902404149274
237	0xbfe74daab5e6bda3	-0.7282308151970266
238	0xbfecdf18aa76d43c	-0.9022334412935673
239	0xbfe282fcf5c2b8fd	-0.5784897613537222
240	0xbff5d34154fef281	-1.3640759773399227
241	0xbfe11cf9abafba3b	-0.5347870209932987
242	0x3ff102879d40ea56	1.0631176130979347
243	0x3fec41f1fcc881fe	0.8830499589130907
244	0xbfd913dbf94faa52	-0.39183711382671504
245	0xbfd4888502c39b43	-0.3208324934952779
246	0x3ff49c887ac6fffb	1.2882160945882777
247	0xbff7ebd16cae46db	-1.495072769674542
248	0xbfd882f7674210de	-0.38299355586810957
249	0x3ff257bb84408d91	1.146419064149857
250	0x3fdfcc361189826d	0.4968390628110118
251	0x3fe8e372fa54ea60	0.7777647866526642
252	0xbfd777862f1a99c6	-0.3666701755522833
253	0xbfea2058d9ab7dbb	-0.8164486171116815
254	0xbfef6c450b19eca8	-0.9819665161916378
255	0xbfd0c1df3766ff26	-0.26183300409683097
