exp/mmd_vit_exp_abl/model/small_60m_ktt_encoder_25_34074.pth (torch, 304658 bytes, 88 tensors)

linear_map_in.mlp.0.weight f8 [24, 25]
00000000: 0464 4dcd adc1 d0bf de40 5fba 0b5b c0bf
00000010: fb70 c193 3194 b73f 91a8 0a8d e7fa bfbf
00000020: 35ba 75ba a9d6 a93f b264 f402 e36b d2bf
00000030: 3880 69d6 9d99 ccbf ad76 bb10 b820 c5bf
00000040: cbbe 7051 eacf 93bf bb54 eb81 f962 b2bf
00000050: e7b0 03a1 7ac3 be3f 8fd4 e1eb 8bc5 b4bf
00000060: 5102 36a6 e8cc c23f a41f 8da3 89a2 b93f
00000070: 2ff5 899c a6fa c2bf 6cc4 d8da c594 b23f
00000080: 1883 f8eb 915e c4bf 9447 b5fb 677d 8b3f
00000090: 4755 ec2f 8d8e b23f bbb3 278f 2fbd a2bf
000000a0: 65e5 7c92 f6ab c4bf eade 9602 f026 a23f
000000b0: 6ae0 10d1 e3f6 babf e73f 7ecd 11bd d1bf
000000c0: 917c 3ddb 2e9b b3bf 4fac 03eb 1d23 abbf
000000d0: 26f4 c10e 5b01 6b3f d7ca 1a6b 9339 883f
000000e0: fa9c d57c f044 cabf 92d5 4b25 7e9b c13f
000000f0: 5e53 a497 c7d4 c53f 10f7 5e93 55f0 a9bf
00000100: c87d d1ff 3240 b03f 6162 761b 7e7d b0bf
00000110: 8ebd f10a 13f7 a83f 28f7 068c d520 b0bf
00000120: 2692 d289 94da 933f eff2 dfa5 f6c7 ba3f
00000130: d0cd 9be5 e57b 853f 8c6c b7e3 ff7f b3bf
00000140: f7dd 0786 3701 c73f 6780 7dea 70ab b03f
00000150: 42a1 47c0 c30c c63f f4f4 f2e3 54a8 c83f
00000160: e2f3 16c9 a08a aebf 644f 112d 3b2c a0bf
00000170: 0b72 81e1 c946 cd3f 151e fc50 56cb ba3f
00000180: 0d19 49fa 5081 b33f 987b ac11 f0ad ba3f
00000190: 32f3 8050 1047 babf 6579 4fb8 4060 c23f
000001a0: d682 0c7f 299f 713f 6077 a3d2 6032 c6bf
000001b0: 7281 cadd de75 b43f 82bd ea9c c12f 9ebf
000001c0: c2c9 b4c1 6b63 bc3f ddcc e308 50b3 c5bf
000001d0: ff2c 00ae 8bf7 8f3f b9e9 2035 2a3a bdbf
000001e0: 5d41 0013 3d78 ba3f cfb1 8c48 07b3 c0bf
000001f0: e4cb b380 42bd c5bf ba4a 9a0f 696f b13f
00000200: eec9 b28b d2f2 ae3f 6c8b 037b afcd 9d3f
00000210: 55e5 3c5a 4882 83bf bf11 bc62 09b3 9b3f
00000220: 8c11 cfe2 9f2f c2bf 174e 7781 7fe2 c33f
00000230: 74c5 d264 58ab c1bf 7bbe 8f73 5c88 b23f
00000240: 960a 9c6d 4cc2 b9bf f31d 5bed e714 8d3f
00000250: bdb5 82d2 5a26 bcbf deff 91eb b20a c7bf
00000260: 4159 5928 0ac8 b3bf f9c1 a082 51ed 9fbf
00000270: 44ff 843a 24a9 c9bf 645c 49af d85e abbf
00000280: 5553 0ae7 67b7 ba3f c7bb 6166 d13e b63f
00000290: e9e1 c844 e8f5 94bf b92e fa82 5d58 a8bf
000002a0: 7dd3 8e9a de4f a0bf efa6 a0fb 8d37 c23f
000002b0: d853 8323 3614 af3f a5b1 1396 f5d2 8abf
000002c0: 1b4b 0556 af72 b23f 95fa e615 da1a c5bf
000002d0: d39c e8d4 8b19 893f 27cc b986 486f b6bf
000002e0: 353d 0a61 e474 c1bf 9ced 46cb d7e8 c8bf
000002f0: f2c5 1130 3c07 cb3f 7ced 12a2 0fe3 c6bf
00000300: 091b 5773 1187 88bf 0218 920d 22e0 c3bf
00000310: dcc1 43f6 3434 b9bf e879 9f8d f362 c3bf
00000320: a657 e693 29e7 c2bf e27e 1f75 9994 c93f
00000330: 4f07 e4b8 0f86 bfbf 57d1 da8a b1ef 61bf
00000340: f38d 597f d895 a53f 44e3 e0c6 d6fd b5bf
00000350: ce4c 2f6c 394b 9ebf eb51 3532 0730 c2bf
00000360: 4e1a c67d 28a1 9b3f f90f df02 14c4 633f
00000370: a9fe dddc 996b c6bf 1fca 775b e388 c43f
00000380: 64d1 e0f3 f5d9 b5bf da16 450e 8e71 c7bf
00000390: 3066 d073 2bb8 c5bf 60b4 7a10 454c c8bf
000003a0: 0cc2 eeaa cb5f a93f b6fe 426f a32b c1bf
000003b0: a0b2 075c a917 c8bf 1a45 bc92 f16b b03f
000003c0: f9a6 3f96 4a8e a93f bb6e 46c9 fbac c33f
000003d0: a945 ffb1 b9cb b6bf b607 67de 7de6 a73f
000003e0: f70c e721 71e9 b8bf 7f3e f6af cb26 c2bf
000003f0: 7a13 da97 de0c aa3f a9cf 6490 4fb3 b23f
00000400: d53e ab72 b337 ca3f 64c5 91c5 73bb ce3f
00000410: b83d 85be 9a82 b53f a181 74a8 c43c c13f
00000420: f50a 802a 7719 a1bf 748d 7850 0d0c ba3f
00000430: f7e3 a7e1 cd1f 9abf d289 29cc c2c9 b23f
00000440: 2849 6baf 7b06 b83f dad5 2af0 f0a4 a73f
00000450: 8f44 c352 3778 c03f a0d9 a0c7 c5f2 b8bf
00000460: bffc e309 48ff a5bf da67 65f7 901c 723f
00000470: cb33 1580 3988 abbf a610 8cd3 5bdf b8bf
00000480: 7918 cfbc 36a6 bf3f d30b 780a 5d4d ba3f
00000490: fe72 458e 27bb b6bf cc82 3270 2b30 bd3f
000004a0: 0949 b1ce 4294 babf 769c f935 029d 7ebf
000004b0: a0dc 7a1a 7a46 b8bf ec53 ada7 513d c53f
000004c0: 7ffd 7343 4b29 ce3f 690f 8927 115b c63f
000004d0: 8309 96f6 53fb c83f 5fb7 6c15 beda c23f
000004e0: 92db 5b3d 3187 b13f f512 bf01 e022 b83f
000004f0: 2737 c97b b644 c63f 027d e129 6590 b73f
00000500: 9e54 50d9 06aa 68bf 4326 78e2 ff33 c2bf
00000510: b790 d57b 6925 c0bf 2af3 2950 e126 84bf
00000520: 93e7 b253 8b83 bbbf e812 51eb 7833 443f
00000530: f0c4 196e 9260 c33f 72e6 ad99 bde9 b93f
00000540: 567b e290 ae01 b73f 21f5 9988 69d4 78bf
00000550: 1b06 0df6 f80b c1bf 7188 8e66 727e c33f
00000560: ee38 e15d 1f1e a9bf 26d0 a583 4526 c83f
00000570: ea15 cfd0 f693 c2bf 9b72 0012 9722 83bf
00000580: bae2 83f7 3482 b53f ae88 c1da f056 bf3f
00000590: 8753 72c5 f988 cc3f cad2 f3ef 3313 b93f
000005a0: 5b75 07c5 2fa1 bebf d465 06fa 96bb c53f
000005b0: 7371 156b bd59 a8bf 915d 5872 4c08 943f
000005c0: 0dae dc18 8b36 b6bf 9cd0 39da 26f0 a53f
000005d0: e3b2 d855 7860 cebf bb70 84de 85bf ae3f
000005e0: 9ba1 b781 66f7 80bf 25cf 0682 6568 c1bf
000005f0: 11f7 ceb2 4144 c2bf cf61 2783 c902 9c3f
00000600: db08 3ddb 8589 acbf ac58 ae35 9929 c2bf
00000610: 63a8 09cc 4155 b23f a2bd 2263 d1b9 c2bf
00000620: 5515 a8ec 3c04 a7bf 803a 4b7d 58c2 c33f
00000630: 6fcb 9f08 9769 a1bf b758 e7c5 0016 c13f
00000640: 6b5c d5ce 91d5 cebf f72e ed85 a0a4 bdbf
00000650: e52b aaac 1308 b7bf ba37 8a90 f9f0 a63f
00000660: 100b 29bd 4a8b c0bf c8a9 de5d 4167 a6bf
00000670: 00bf d330 7abe acbf 196c 674e 7362 b9bf
00000680: 81cd 5b5a f8f5 b03f b2c4 e843 431b cabf
00000690: f4e5 a839 ae5c 9ebf a29f c540 fc25 d0bf
000006a0: 5562 a10a 52e2 bb3f 1f25 eb04 34ab c9bf
000006b0: 67c5 f6e3 e3d3 b73f 6c96 1921 64d2 a83f
000006c0: ba50 192c 036c b03f 58f6 a89e 5e0e ba3f
000006d0: 9df6 204c 3806 993f e84c a694 a62b b73f
000006e0: 640f aca4 566b b93f 2642 37a5 8e03 cfbf
000006f0: aa29 c3a0 a433 be3f f412 c023 b1b8 b83f
00000700: 851a 9092 4880 ca3f 3b07 de2c f7b5 bd3f
00000710: da26 66e9 12d9 9a3f 9887 1b48 6d16 b3bf
00000720: 8792 fb66 7443 b03f a6f2 f2a0 6ccc 8c3f
00000730: d595 254b b2c4 ab3f be3f dd6b a321 863f
00000740: bd49 0594 b734 c63f ca70 4299 d860 8cbf
00000750: 0e4f 20be 6385 c33f 2ffc 5664 d213 c63f
00000760: e7bc 5920 85bb bebf c173 df39 5d9c c43f
00000770: 2e9d 07b0 2281 c23f 4e7c 4454 0c90 c93f
00000780: aead 0b45 01c5 8ebf ad55 95dd 364a c73f
00000790: 97f1 328d 39bc 5a3f 71f8 e5c8 9463 bfbf
000007a0: bc9f 5287 c895 cb3f 394e 04f8 085d c63f
000007b0: 419a bf75 3df7 b8bf d3bf a4c0 0475 d03f
000007c0: 01c3 90fb 3eb8 d13f 5fba c327 d5cf a43f
000007d0: ea73 7358 4101 c3bf fc0c a5fa c9a3 c43f
000007e0: 6ca7 0ebb 4227 b7bf 868d e047 5a88 c63f
000007f0: 9e91 0fe2 2932 c03f 7616 cdee a325 aa3f
-0.26182122277310804 -0.1277784976978244 0.09210500581088248 -0.12492224877738269 0.05046587372895709 -0.287834885487949 -0.2234380051550049 -0.1650610048008522
-0.01934782144615958 -0.07182273313385938 0.1201702731229407 -0.081139321411529 0.14687831989069136 0.10013637774420531 -0.14827425616741993 0.07258259385049975
-0.15913604757317823 0.013422787064573595 0.0724876634597723 -0.036599622941003905 -0.16149789955833707 0.03545331985099927 -0.10532974104069273 -0.27716488902751596
-0.07658665516417985 -0.053002295435213946 0.0032965448827426856 0.011828567224573856 -0.20522886367255194 0.13755776234726774 0.1705560198248816 -0.050661730041140385
0.06347960229458416 -0.06441486521215146 0.04876002796742816 -0.06300100964196231 0.019388504898090762 0.10461370038678884 0.010490222997282667 -0.0761718684147345
0.17972463650197287 0.06511598324641597 0.17226454628622362 0.19263707285237042 -0.05965139822681188 -0.03158745694295709 0.2287227965451993 0.10466517903488921
0.07619196043478756 0.10421657973755172 -0.10264684644148472 0.14356240272077084 0.004302179427015237 -0.1734124210842607 0.0799235621912027 -0.029479050829363647
0.11089204291491853 -0.1695346873671956 0.015608874557094142 -0.11416877553066386 0.10339719499484575 -0.13046351473293646 -0.16983825001042796 0.06810623770642624
0.06044633822729738 0.029104940303010293 -0.009525838140336399 0.027050158168110402 -0.14207838606502 0.1553496725233436 -0.13804154322637496 0.07239320584607782
-0.10062101055158687 0.01420003121474076 -0.10996024741571993 -0.18001400473076407 -0.07727111325343562 -0.031178735349557816 -0.20047428948782386 -0.05345799579361524
0.10436105147011905 0.08689602613024681 -0.020469311903271423 -0.04754917358249373 -0.03185935627644818 0.1423203924799092 0.06070107635029104 -0.01309768547295038
0.07206245279421035 -0.16488195485540716 0.012255756792980332 -0.08763554848864939 -0.13637976396828724 -0.19460580278051232 0.21115829798831914 -0.17880435384527604
-0.011976372082143099 -0.1552774969351845 -0.09845286381074153 -0.15145725646193786 -0.14767951699894616 0.1998473951234621 -0.12313936485227582 -0.0021894900918032856
0.04215885691226253 -0.0859045253317961 -0.029583832958292082 -0.14209070159507972 0.026981957127214344 0.002412833294302527 -0.1751587227299656 0.16042749372680107
-0.0853570671468496 -0.18315292069217187 -0.1696829143045746 -0.18982756905225795 0.04955898725109273 -0.1341442387838378 -0.18822209352164965 0.06414708931358284
0.04991372188653815 0.15371653869521204 -0.0890461024821635 0.04668038692354008 -0.0973120410699727 -0.14180894939316954 0.050879436527828184 0.07304856562842467
0.20482485865658498 0.24009558817810295 0.08402411605242477 0.13466699815127206 -0.03339741128731603 0.10174639906522548 -0.025511948488176697 0.07339112743787915
0.09384892494862085 0.04618027621965455 0.12866870442534092 -0.09745441554773615 -0.042963267524095176 0.00442177417274966 -0.05377368629942899 -0.09715818323826628
0.12362997159570623 0.10274297242726442 -0.08879325126094881 0.11401626099769685 -0.1038247828121578 -0.007473953853696638 -0.0948253931663765 0.16593380629879506
0.23563519281013254 0.1746541445773986 0.1951699213060004 0.14730049177290547 0.06846912143724485 0.09428215067516617 0.17397194904554533 0.09204704544525913
-0.00301076257393136 -0.14221190031121198 -0.12614172503083917 -0.009839782961756766 -0.10747595590046748 0.000616487543660141 0.15138464332589008 0.10122284891067482
0.08986941373085008 -0.006061947098371407 -0.13317787183955052 0.15229635245947606 -0.04905794163697573 0.18866795471296988 -0.14514050670383877 -0.009343319165105604
0.0840180496487716 0.12242036190721947 0.22293016568133003 0.09794926269735096 -0.11964701233178714 0.1697872849297669 -0.04755966121840318 0.019562906722141064
-0.08676976544364141 0.042847837580582054 -0.2373190325901283 0.06005495396877466 -0.008284378846796161 -0.13599842881159777 -0.14270802718049727 0.027354382162089238
-0.05573671628236961 -0.1418944847216087 0.07161341887845789 -0.14629571285830162 -0.04495420826791966 0.15436845891823125 -0.034008712580450566 0.1334839788748405
-0.24089262580193646 -0.11579325933160677 -0.08996699300239148 0.044807242292435004 -0.12925085293144223 -0.043756525715554384 -0.05614072652849522 -0.09915848411712637
0.06625320631046884 -0.2039569932544843 -0.02965042330672492 -0.2523184425867787 0.10892212638408101 -0.20053720703280306 0.09307693782354463 0.048480156937142777
0.06414813830025681 0.10178176282439588 0.02443778957989783 0.09050980691090482 0.09929410476985151 -0.24229605738811805 0.11797551083433314 0.09656817553338809
0.2070399013175185 0.11605782361405385 0.02621869611315373 -0.07456095705449994 0.06352927698351084 0.014061783468031063 0.054235049889750954 0.010806347588783068
0.1734837982899772 -0.013856594254598415 0.1525082281447045 0.17247991465953436 -0.12004882850463937 0.16102185560057872 0.14456590266420605 0.19970850100159726
-0.015024194640736645 0.18195234126566842 0.0016317903544368123 -0.12261323837989992 0.21550852401310105 0.17471420393177242 -0.09752258419721561 0.25714224636885524
0.27687048499051065 0.040648137191841675 -0.14847580737014648 0.16124844301712205 -0.09044282023265077 0.17603615293147018 0.12653087175489203 0.051068423176315145

linear_map_in.mlp.0.bias f8 [24]
00000000: 2997 db08 d4b5 c1bf 2643 7b18 0732 6cbf
00000010: 338e df20 24f6 c73f adef 4d2a 1cb3 a3bf
00000020: aa08 29ce a798 c53f ecda 43b9 8ed1 9cbf
00000030: 53d5 7fc4 0f4e a5bf bfa2 c104 bbb9 b53f
00000040: 5f60 58fd 63bc b2bf 6cd4 7991 0ce5 b3bf
00000050: 47ab f637 cceb c03f e856 c6a2 2e13 c43f
00000060: 035c b66e b97a 6b3f 3044 0730 f155 c2bf
00000070: 1486 ffc2 14ad 8ebf 68ba b702 c031 cd3f
00000080: e9e6 3d5f 4ba0 b23f 5183 6289 9430 c23f
00000090: 12ab 4786 fd5e a0bf beab 4633 4b34 afbf
000000a0: 0ba8 e6bc 4559 ce3f a07a e77c 0a30 c3bf
000000b0: 1858 d36b 3e2e aabf c034 d569 05b8 b3bf
-0.1383614581347328 -0.003441823824552509 0.18719913106098005 -0.03847587601100542 0.1687211758272203 -0.0281431484772509 -0.04161118768380825 0.08486527315256874
-0.07318711219011352 -0.07771376182229667 0.13219597561450255 0.1568353934096003 0.003354417965691693 -0.14324774594436596 -0.014978563500281296 0.22808075077724088
0.07275839877356884 0.1421075506996439 -0.031974718705745656 -0.06094584465912288 0.2370993778579876 -0.149903594005953 -0.05113406244497315 -0.07702668985185124

linear_map_in.mlp.1.weight f8 [1]
00000000: ac87 0876 b7a8 dc3f
0.44779764677707123

linear_map_in.mlp.3.weight f8 [24, 24]
00000000: 1639 71eb aded b2bf a0a2 3aef 29d5 73bf
00000010: 1438 3b3f 14a8 b7bf c56e 60be 6171 913f
00000020: 7b00 c59a b089 ccbf b0c2 89af bffb c23f
00000030: af4a 916e 8cb0 8e3f 6e2f fb58 0e77 c63f
00000040: 45dd 030a 435c c03f 5d58 1087 5630 993f
00000050: 697f 8549 492c b6bf aee7 826d 46a2 b7bf
00000060: dc82 00ec 5e96 c13f 496a afe1 8d6b c0bf
00000070: 217d 32a1 cd4c c0bf 7e9c dc08 5b7c bbbf
00000080: 7ff0 7f46 2ba4 b9bf deab 5c73 490e c1bf
00000090: d845 17b6 04d1 cb3f 1255 81a1 4b53 ac3f
000000a0: d2be 13b1 fcf9 bdbf 1187 b087 3ddc 9dbf
000000b0: e763 f441 40b5 ca3f 4cd5 bd66 84e9 b3bf
000000c0: a8ba 27ac cbe8 8ebf 0313 4926 865f 97bf
000000d0: 2305 57f1 92bb c8bf f995 ec58 4a4e b0bf
000000e0: 4823 8a52 9db8 c53f 6c7d 2f7e 74e3 c0bf
000000f0: 2728 e9d7 1c87 c9bf 5622 0619 5917 c03f
00000100: e79c 6acc 2214 b03f 15ce 2a18 5f58 a13f
00000110: 20f6 a4a9 047a c23f aef1 5380 5a37 c5bf
00000120: b679 9ee1 1bbd c33f 7ed8 a53f 6320 c33f
00000130: ba02 6383 6135 a33f 8e33 fbe5 4fc5 833f
00000140: 478e 1e39 b435 d03f 0715 399a 2415 7cbf
00000150: 29a0 44a6 be41 cc3f 4f64 c592 8f11 b9bf
00000160: c5c7 3f20 ce87 abbf 50c2 1a82 9671 c83f
00000170: d2ff 381d 301a c13f c21b 33f9 c71c c33f
00000180: 0517 89e9 2336 9c3f 90d6 006b 6cc5 c93f
00000190: 7637 6caa 73cd c13f 59e1 89d6 0129 bcbf
000001a0: a29f 008f c4d8 ac3f 75e0 2f45 bac8 ac3f
000001b0: 9e3a 10b6 a8d9 c03f 0c1d dec6 dc6a 7abf
000001c0: d9b9 3966 09ef b33f 90bb 54ab 0319 84bf
000001d0: 7d82 8247 2569 b0bf 7071 78e9 09d9 c33f
000001e0: ff4e cfa8 33de c13f d20e ad85 5367 c23f
000001f0: e3cb 6e8a ee16 9bbf 1823 ae92 72a1 9cbf
00000200: 7bc0 772c 5677 673f 5b76 3431 4b2f 9e3f
00000210: c2e6 7ac8 1c14 b0bf cf2e 5f46 1e09 bb3f
00000220: d394 4b01 cab9 9bbf 4980 8b10 8084 b2bf
00000230: fc1f 5f7e a4e1 bd3f c589 f157 29f1 933f
00000240: 3294 1a72 76fa b0bf c667 6b36 a89a a2bf
00000250: c1b3 d5b2 5bfb d1bf 7ff1 5ca8 7a22 c9bf
00000260: 6874 1b35 3162 6fbf d836 3cd2 d553 c0bf
00000270: 1ea6 6e5b e35d bb3f 35b0 0522 c445 9fbf
00000280: 7d1b 947d c3e9 cd3f 393f e7a3 189a c23f
00000290: 6ad3 dabb c249 ac3f 4228 7f66 bbee 7b3f
000002a0: 2462 3a14 8913 b6bf 514f 72c7 0529 ca3f
000002b0: 0097 c760 20cb bf3f 02fc ba04 1054 d2bf
000002c0: a55a 0cd8 0450 af3f cba6 4b44 d80d bcbf
000002d0: b8b9 794d 16c0 b6bf eb71 fddd 4928 b9bf
000002e0: 501d cc9b ccae 8e3f 9530 48b6 0191 d03f
000002f0: 11d9 d5d7 308e b63f 8655 c132 1390 afbf
00000300: ed7a 7646 261a ae3f 3f25 ccc6 387c b63f
00000310: 92cc 99e2 8ec5 c63f 34f4 7b19 b709 7d3f
00000320: a885 91b6 4efb b43f fa91 7599 e2c7 9b3f
00000330: 19dd ceae 27f7 b13f 25e8 640e 5dcb c0bf
00000340: 5bbf 6d6d 2db2 c23f b2b9 8219 e4a4 c33f
00000350: 7904 a0a5 6dcd c4bf 475b f612 3ada bc3f
00000360: a398 2f7d a106 c0bf b9e0 94c3 8c84 c43f
00000370: 9e95 0cdc 92d0 c4bf 1f0a 476b c646 41bf
00000380: 061a 403c a7c5 c8bf ff7c e0fa 8ea1 a2bf
00000390: a09e 1dfb acde b8bf c020 0066 7601 853f
000003a0: 5418 298f f04f b2bf c898 2e3d cba2 b3bf
000003b0: 911d 9c90 ea7f b3bf b84e c85d 0630 c73f
000003c0: a73d c3cf 0e64 c0bf b72c 8e61 8f9f c33f
000003d0: 0a62 be7b c0a3 9bbf a4a3 8e65 c5d2 7ebf
000003e0: 6a94 906a a690 b43f 981b dae8 2079 c43f
000003f0: 0f4d fde7 7b26 afbf 5b10 8ba4 221d b2bf
00000400: b7cd 8d7c 6a1b c5bf 70df d606 a463 b53f
00000410: 1200 c8be c37e c93f 9060 c116 1552 c0bf
00000420: 9de8 ccf9 a69b ab3f 40a6 51ae e928 c3bf
00000430: d9d9 1547 3adb c0bf 2ab0 3317 1e18 bd3f
00000440: b00d dd97 0f98 ba3f 2200 265a d81a cf3f
00000450: b194 3756 bec4 b13f 8dba 337f 87d6 a93f
00000460: 40a1 138f 6699 d03f 1a0a 585b 9679 b3bf
00000470: b5ad 75d5 d8f4 b3bf e3b0 c858 5499 ad3f
00000480: 07f7 bb4a 0e5c c4bf 0533 8c38 8b16 b0bf
00000490: 351d 3411 adc0 cc3f 124d e88c b3a3 abbf
000004a0: e044 8ddd f972 a23f fa94 4689 00e4 a2bf
000004b0: 468b 7327 e25a c5bf f0d3 1ffc 5038 c7bf
000004c0: 1be7 08a3 fcd5 bc3f b2bf 25cf 247b 96bf
000004d0: 903c 3f5c 7ef3 963f 83b1 9cb1 a748 b13f
000004e0: 4da6 57c4 c5fe b23f 6d4a f4cf be1a acbf
000004f0: d39d 42d4 b7ee b7bf e84e 8e8a 0c9d ae3f
00000500: d5cd 5c03 6677 9f3f 8559 aa23 4fcd c1bf
00000510: 9a42 ab28 b121 c63f 90c7 b7d2 0be2 cbbf
00000520: 80d5 d618 7658 a7bf 1c5e 9846 d48d 8fbf
00000530: 0a1d 74b1 76ac aabf fa43 40dc 0029 a5bf
00000540: 0bd7 afa4 c0ce c53f 8361 7456 923c c7bf
00000550: a256 a35b d192 a93f c722 4d3f 8ba4 c4bf
00000560: 6d40 502a 44b8 c63f 6aaa 3ca7 4a2a c7bf
00000570: 6bf6 349a 8f74 8a3f 652c e4bc edb2 b1bf
00000580: 69ec 944c baa8 9d3f 2eb9 40d2 9cc8 c1bf
00000590: 2d9f bb14 65a2 c43f d4df b49c 94a5 c23f
000005a0: 516a 8eb8 ffd6 b4bf 1fc2 9106 d57f bbbf
000005b0: bc7c fb1b 4b42 c13f a3a4 a2c4 f4ff a1bf
000005c0: d12a 1b64 3862 8fbf 459b b392 a8a4 a4bf
000005d0: cafe e761 84d9 c93f 4f88 4d44 ef0d cabf
000005e0: 1652 d122 9766 b63f 9d5a 48b5 631f bcbf
000005f0: e809 f9a3 2d21 c9bf f3da 576f e555 9abf
00000600: 163c a74b 24c8 ac3f 5419 d1bb d93b c2bf
00000610: 4448 c0a8 4bac a63f 2e53 771e 2971 7abf
00000620: fb1f ba63 b819 c73f c8e6 4f8a 5f1b c0bf
00000630: ca8a 8b3b f801 c43f 2053 c65c 9a70 c53f
00000640: ddd1 6176 1949 7a3f d622 7e2c 86d4 b93f
00000650: a09b d262 95e0 b83f 48cc 5faa b8ed cb3f
00000660: b7f3 439a 2943 cc3f f037 0830 f746 cbbf
00000670: 6b0c 83cc f422 bb3f d90c 13ca 1441 bc3f
00000680: 177a f1ef 4a3a c2bf 60d1 2425 cb4e b93f
00000690: 29b3 098e 4293 c23f 541c 996a 7d59 a6bf
000006a0: 21d0 1de9 f766 ca3f 3cd2 a582 cf2e be3f
000006b0: c6d1 b9a1 d4d0 b2bf c3ea a9b7 ffe3 b23f
000006c0: 5b68 5a47 5373 c2bf 8ec4 e1dd 36f1 a43f
000006d0: 90c7 7e75 b23e 923f 7307 483a 8da1 c13f
000006e0: 0ccb 65bb a8dc b6bf 8379 4154 1717 c83f
000006f0: b52a 1a16 d816 b23f 3479 043d 6843 c5bf
00000700: f088 c574 8974 c6bf 6495 6198 2606 bf3f
00000710: da0a 6d36 4985 423f 1cfb 9f37 194c 753f
00000720: c578 38c3 ea78 d0bf 898c 3b69 5568 cc3f
00000730: 6fbe 2b6c 9a70 bc3f d33a c7d3 e873 bebf
00000740: f726 5af9 2180 bd3f b2d3 1972 d2c4 cf3f
00000750: c17c 9790 f9ac b23f 3cd6 91de 70ef cc3f
00000760: 57c9 5038 1d2e b63f db6e fba6 ae93 b63f
00000770: ccd8 745a dc0c ccbf ee53 faa4 9139 b5bf
00000780: 57a2 1faa f9c5 b0bf ee52 86ad c2e7 bbbf
00000790: 3c90 5f40 1e84 c43f 797c fcf9 f68a bb3f
000007a0: 87c7 b6a0 5156 cc3f 3e07 d62c 325c 923f
000007b0: bfd8 df91 c46b b7bf 9f6b 0f44 338b cf3f
000007c0: a967 44c4 486f ca3f 597b 71c6 5ef2 aebf
000007d0: 7be0 d9aa d366 c2bf d4d1 f241 01de b5bf
000007e0: d187 517b ab1c c0bf cbae 4f15 493c cebf
000007f0: b1f8 50ea 0b6a c3bf 1d16 f02d acba c13f
-0.07393919942953561 -0.004841960722537536 -0.09240843337758547 0.017034079785033258 -0.2229519611082685 0.14830776282498936 0.014985177158597677 0.17550830216202534
0.12781560887354196 0.024598457330363355 -0.08661325497587104 -0.09231987165085684 0.1374014522889614 -0.12828229446206965 -0.12734384890516373 -0.10736626592971452
-0.10016127082048064 -0.13324850209150346 0.21731623545797052 0.055322993721953165 -0.11709575007602815 -0.029160462767442278 0.2086563417476832 -0.07778193958605079
-0.015092459861049193 -0.02282533272434063 -0.19322430404830823 -0.06369461699485858 0.16969648866895626 -0.13194137727166877 -0.19943581144826902 0.1257125255763351
0.06280724993358754 0.03387734575281002 0.14434870036522884 -0.1657517553902727 0.15420864597849765 0.14942589385799815 0.03751663903085985 0.009653686719866685
0.2532778318220363 -0.006856101015334965 0.22075636976774263 -0.09792420705106618 -0.05377048629442486 0.19096642830619937 0.1336116926850069 0.14931583087874684
0.027550278786541166 0.20133738732117878 0.1390823919431871 -0.11000071990736639 0.056341307121612574 0.05621893019264316 0.13164242639364415 -0.006449568185309628
0.07786616082896759 -0.0098133360539501 -0.06410439487309279 0.15506099605489565 0.13959356062570547 0.1437782671656494 -0.026454665374057284 -0.027959623530054406
0.002864521320354694 0.02947728622267785 -0.06280689138921061 0.10560788362561911 -0.02707591660409465 -0.07233429340294707 0.11672428212398239 0.019474645607610492
-0.06632175718057523 -0.03633618988324332 -0.28096668686231047 -0.19636471958973442 -0.003831001385022282 -0.1275584484614487 0.10690136892539967 -0.030539574219275962
0.23369639999165406 0.14532764437762483 0.055250249320500114 0.006819469483113906 -0.08623558753823396 0.2043769096240973 0.12419321406158801 -0.28638077222780123
0.06115737092311705 -0.10958625476237242 -0.08886851684085328 -0.09827100438764773 0.01498184061485 0.25885050583816255 0.08810715932290615 -0.061646079965309616
0.05879325494901431 0.08783297398999411 0.17790399612895108 0.00708934329281612 0.0819596477245087 0.027129688850793678 0.07017753618025714 -0.13120616152610967
0.1460625442809896 0.15346957440983783 -0.16251917445336853 0.11270487750003354 -0.12520235645860564 0.16029510068779532 -0.1626151632746486 -0.0005272358744650741
-0.19353189889825745 -0.036388843655226204 -0.09714776163820682 0.0102566957357485 -0.07153228278284135 -0.07670278781606321 -0.07617059736741384 0.18115310267659424
-0.12805352348958118 0.15330688727803984 -0.02699185138007646 -0.0075252257164856486 0.08033218480757545 0.15994655008054504 -0.06084048468496849 -0.07075706975143829
-0.1648991687940062 0.0835516468713402 0.19918104949465537 -0.12750495539762996 0.053921907418456906 -0.14968606006304874 -0.13169029684986702 0.11364925447895816
0.10388276536564578 0.24300674821643137 0.06940831761274315 0.05046485355147921 0.2593628308518596 -0.0760740254409388 -0.0779548188344766 0.05781043609417382
-0.15905932091839523 -0.06284399157102534 0.22463000621812915 -0.05398331732808449 0.03603344754686488 -0.03689576793412104 -0.16683604170165206 -0.18140613852270304
0.11264018040028782 -0.021954131263043748 0.022413229351340436 0.06751487814171324 0.07420002025141877 -0.05489155090812834 -0.0934862988675527 0.059791938699303604
0.030728906588775324 -0.13907803765750884 0.1729031990603474 -0.21783588208159843 -0.04559678128445466 -0.015407236484903435 -0.05209704319173099 -0.04132845581637663
0.170372085965646 -0.18153599950234076 0.049948255955013524 -0.16127148238071795 0.17749836031044045 -0.18097813764446197 0.012917634862442648 -0.06913648473362029
0.028963957714250563 -0.13893471018077136 0.1612058974490024 0.14567811633764782 -0.08140562301415712 -0.10741931352982491 0.1348356138832737 -0.03515591526349595
-0.015324059062000657 -0.04031874457159871 0.2019505956704875 -0.2035502513418259 0.08750290489235399 -0.1098539655289223 -0.19632502085194337 -0.025718293114517853
0.056214460597054636 -0.142451492984217 0.044283260678768005 -0.0064555746279964365 0.18047242040142905 -0.12583536389847993 0.15631010920977523 0.1674988701821798
0.006417369330041525 0.10089911066291832 0.09717687285102139 0.21819217986157668 0.22079963715068882 -0.2131031975299602 0.10600213997808942 0.11036806043107407
-0.14240395275096837 0.09885854393798388 0.14511901793903206 -0.04365150381323049 0.20626734621657852 0.11790177287714071 -0.0734990019644278 0.07379148706415166
-0.14414444908180965 0.040902819237893615 0.017817295476283912 0.1377426657273265 -0.08930449080598296 0.1882046853451805 0.07066107310871923 -0.16611960391396396
-0.1754314251111917 0.12118760318988603 0.0005652053340344479 0.005199526314753535 -0.25738019051085487 0.22193400991736592 0.11109318867578975 -0.11895613832823963
0.11523640001010081 0.24819403239567134 0.07295188694068867 0.22605715625438616 0.08664114594356441 0.08819095207894227 -0.21914247910326023 -0.08290968206195234
-0.06552086261184208 -0.1090051339763922 0.16028192656733775 0.1075891838377049 0.22138424250948338 0.01792982481629867 -0.09148815690409416 0.24643555472615916
0.2065211256347628 -0.060442887996706225 -0.1437630256875798 -0.08541877613135479 -0.1258749344006547 -0.23621476688946638 -0.1516737836954625 0.13850929492052524

linear_map_in.mlp.3.bias f8 [24]
00000000: 0c53 761f 4d49 b13f 018e 0d65 8790 b6bf
00000010: a337 c974 8ea9 ca3f 7b86 3124 1deb b33f
00000020: faa7 de61 b885 bf3f d22b 440d 4108 bfbf
00000030: 1a8c e258 989c 903f 1845 f7c7 1fbb ab3f
00000040: bb2c e6f3 bf8c adbf 7662 11b0 3a1d 803f
00000050: be9f a09b c6c7 8a3f c8b9 ca7d 5792 5c3f
00000060: e985 2e4a b815 bb3f 3207 6df2 30d9 c8bf
00000070: 9234 03b9 4bc9 bf3f d46f 7a69 a5f6 6b3f
00000080: 2cc2 4d9e aae1 b53f 6184 a2e4 7fc5 aa3f
00000090: 4c29 ff82 a142 c03f 1cbc e421 bd6a 703f
000000a0: fc89 70e4 0de5 6abf 69da 6c78 c050 acbf
000000b0: 049c 7b65 f582 bbbf ac8c fbda 54ad bebf
0.06752473848457557 -0.08814283578026762 0.20829945280496273 0.07780630239133217 0.1231341589870282 -0.12121969770321009 0.01622236292372401 0.05416201892843214
-0.0577144608715456 0.007868250368276746 0.013076354622242433 0.0017438749702410761 0.1058001690967313 -0.19412814938737594 0.12416528002650498 0.0034135084823230053
0.08547464718663694 0.05228805223419709 0.12703341385197076 0.0040080440506207425 -0.0032830497107323425 -0.055303587627737745 -0.1074670193444121 -0.11983232828383689

linear_map_in.mlp.4.weight f8 [1]
00000000: 6564 1584 8fab c53f
0.1692981142939828

linear_map_in.mlp.6.weight f8 [24, 24]
00000000: 9284 2f19 621e b83f 944a 0e01 4cf5 cc3f
00000010: 8266 5b1f a0d1 653f 9f7a 6aff 42d6 c13f
00000020: 0e88 2eb0 cba7 d0bf f226 969e 3b29 b9bf
00000030: 7267 d750 0635 b7bf 4dad 49d0 409f a2bf
00000040: b932 719d 0ecf c53f 669c 0f74 d26b b7bf
00000050: e868 56af dd73 adbf 3fa1 4024 66b2 cc3f
00000060: 4f50 dbba 1357 b53f a68f 49e1 8ce8 c03f
00000070: 4914 5122 dcd9 afbf 55cd 160b 3a6f b7bf
00000080: a6f3 735f 4182 c6bf aa13 2634 776d 9cbf
00000090: 5beb 51aa e4bd 843f 0043 acce 24d0 babf
000000a0: 650b 2081 47a6 c7bf 3fd9 bf34 c824 c93f
000000b0: 186a 90eb 1df9 8dbf f1d9 8896 5472 c63f
000000c0: 34d5 6e91 377a babf 7f9f e7cd a5c6 4e3f
000000d0: 9aae 4ac0 a643 c53f 7ec4 c38f 6c51 babf
000000e0: fb6d 707d a046 b43f ab30 d74a 9bf3 ccbf
000000f0: 217e a786 4259 c3bf ee0a 2509 8768 c3bf
00000100: 09cf 37ce c867 aebf 9fd7 c950 b5cd b0bf
00000110: df54 7c0e e342 c0bf e5c6 37dc 93f0 c33f
00000120: 39b3 cdf8 86f9 c13f 0d83 04cd 04f5 c0bf
00000130: 6370 6a28 7a60 ca3f 8efe 6776 b954 a23f
00000140: dad3 3472 c2f2 cabf 2705 dc19 9504 863f
00000150: f56f 1c4b 623a a63f a823 3e85 ef6a ca3f
00000160: 3660 726c 2b38 b0bf 9251 7aab 3659 a5bf
00000170: d349 a62e 1589 aabf 37b2 2e23 8c6c bb3f
00000180: dc01 41ca 9d52 c2bf de8a 4c1a 69ab 833f
00000190: 8947 16af cb17 c73f 556e 1248 7807 c53f
000001a0: e0c7 1a99 3e71 babf 23ee 96e6 dbd6 7fbf
000001b0: b615 59b1 d063 c3bf 8d12 fa4e 5747 b6bf
000001c0: 5935 bad6 44b8 99bf c197 b6a0 1112 c53f
000001d0: af84 f33d 4ee4 ccbf 1d10 9068 afbd ca3f
000001e0: d969 d6a6 84e9 bcbf 29da ce46 71e8 be3f
000001f0: ffef 3b8b 67a0 c8bf 78bb 0a1f 02c8 babf
00000200: 63c5 bb86 d272 c7bf c981 eba8 3f61 c5bf
00000210: 7d8a 184f 6520 953f 305d 7420 c2aa 79bf
00000220: 52b9 98e2 7c01 bf3f ef1e 2db4 ef71 c33f
00000230: c829 061b f030 b43f 079e 9ee1 935a b03f
00000240: 8e12 89f3 4905 c3bf 0be0 79cc b6c2 c5bf
00000250: 78ea 7a7c adc8 c2bf ab2d 0d2e e935 ca3f
00000260: 6f96 bb8c f9a8 71bf 20e0 1dc3 654b 9a3f
00000270: 5ba1 c387 feda c33f c3f0 8cc2 c422 b93f
00000280: abcd 1c0e c043 b63f 0788 929f 1a36 c43f
00000290: 2264 1ab0 c0b6 c4bf 5465 00a8 4dd0 9abf
000002a0: 4787 d019 0306 a1bf ed0c ba46 efbd b93f
000002b0: bb82 15c5 bb38 c83f 07fd 2c08 39c9 b5bf
000002c0: 83bb 39a3 572a c43f 429f 5044 9b05 c6bf
000002d0: f17d fbfa c622 83bf c5d6 9407 527f aa3f
000002e0: d43b c74b d397 bc3f ebbc 849a 0e1e c73f
000002f0: b642 0a62 7e01 90bf cf89 0a13 66a3 bb3f
00000300: 884a e9ae 342d c33f b02b 4b87 b1db bdbf
00000310: 27dc ad31 b3e4 8d3f 590e ecf1 5ec4 943f
00000320: af08 a7a0 6a92 c83f 2cbb dece 068e c1bf
00000330: 2d85 2454 5bab b1bf 37af 147a 3602 ae3f
00000340: 136c f3aa bc14 a03f b889 8e75 6407 bc3f
00000350: f03a 07f4 4ca7 b33f aa41 15d0 caf8 ae3f
00000360: 45fe 5b01 cb7e 8cbf 8b22 b80e 72ee a1bf
00000370: 8502 a621 9b5e cf3f a0a5 ae35 817e 9bbf
00000380: 3da4 53f6 b4a6 c5bf 230a ec87 ec95 c4bf
00000390: bbc3 4efa 302a c63f 2f31 ef21 5585 4d3f
000003a0: 4eb0 2ade b8ad b5bf 9010 878c eb8a b5bf
000003b0: 18e8 cddd a500 933f 4401 7d81 6313 c03f
000003c0: 2c50 1037 464a a73f 19ae d663 a3f7 cdbf
000003d0: 92be 59ac 079c a73f b1a2 7b90 5a07 b13f
000003e0: 5589 144f a63c b33f 0948 ef2d 391d aebf
000003f0: 12ef 23a9 a065 c1bf 9c1e 2e2f ea85 c0bf
00000400: 5156 1f8d d553 83bf 5600 e20d 3919 c53f
00000410: 0824 7c73 3945 aebf a9e5 e8e9 9fb1 cf3f
00000420: 3529 93a2 6498 adbf c403 14ab c036 82bf
00000430: cc7e a66a d124 b43f 2192 90f0 2e74 b93f
00000440: 042b df4e 7f4e 803f da65 aa3c b4c3 c1bf
00000450: 9228 5b0e ebb0 b93f cda9 7eed 3f0f b4bf
00000460: aae4 1fe2 2b8c 9c3f 2c99 a731 02a0 b23f
00000470: 665c 9295 f66b be3f d5f4 6de4 3156 893f
00000480: dd71 2cea c10e c6bf bcc1 661d 5713 a3bf
00000490: 5937 4994 6a41 c43f 7bd4 535b 821d c5bf
000004a0: ceb8 730d b6de ad3f e759 8fbf 1600 cc3f
000004b0: a958 7149 a29a c23f 0752 08ad 2960 c73f
000004c0: a5e6 40da fff1 c53f 7452 9e2e 6e48 9dbf
000004d0: b586 5738 f899 bfbf 5aa6 abaf 9717 a0bf
000004e0: 6dd9 0c84 3b9d d0bf fe2d f8cb b3ff 71bf
000004f0: 8594 1342 7f7f bc3f 5797 60ec 2cc5 c63f
00000500: 1831 3ed7 ce9e be3f bb88 48aa 4eb8 bc3f
00000510: ccad cc28 278f c43f 4a8e 2327 0d1c d13f
00000520: ea6d afac 58ed cabf 081b 5c70 55ea 92bf
00000530: b007 3784 d8ff bfbf 1788 f1dd 75fd c03f
00000540: 2e85 6db6 b12c cf3f 2b8c 068a ae27 d0bf
00000550: f112 5e9a dfaf 81bf 53c6 8a71 bde0 abbf
00000560: e35d 43a1 fe0b c0bf 9f2a 7071 ceff aabf
00000570: a38c 49fe 2d47 c2bf 89a0 4313 28b6 d03f
00000580: fcb7 bfc3 f251 ba3f 987e fd27 2ab8 a63f
00000590: d8fd 5f4d 5a3f a7bf a535 cd13 9cc5 c83f
000005a0: e439 c611 5fd7 c63f 11d7 c9b1 0dbe d23f
000005b0: 2f52 3897 ddac c73f f452 e9cd 50a2 d2bf
000005c0: 362b cf20 5783 99bf a1d0 d646 ae90 cf3f
000005d0: d0ee b9e9 2d0b af3f a201 fe91 57c6 bcbf
000005e0: cfed 4a0e d1b2 c33f 94d6 de14 9ce0 ccbf
000005f0: a195 66ac 97c2 b7bf 1d28 048e 18e2 c03f
00000600: 71e5 2cf5 f2af 3abf 77e5 e5c2 235c cb3f
00000610: 70a9 3ede bdad bf3f 7584 1d82 7de0 92bf
00000620: 5a4e 771b 9760 c3bf ea89 a79d ce39 c0bf
00000630: 4735 b892 1fa1 c9bf c6c9 ec2c f80a c23f
00000640: 433a f044 e697 c3bf 9f24 ff02 6a3d b0bf
00000650: b95e c7d5 7dcf a4bf a7ea e4a7 d777 b43f
00000660: 8d67 6a61 9299 c73f f1c7 84f0 9653 bd3f
00000670: b258 fc7a 9b5c 8bbf 3749 cb0a 259a c2bf
00000680: ecd8 cfd9 177f 63bf 3c20 3cc1 b0c7 aabf
00000690: e753 6878 6e3c ce3f 8240 1d81 a53d c5bf
000006a0: 3a8b c2cd 2b14 ccbf cd8d 7b42 307a c4bf
000006b0: 450d 5940 2034 b53f d10c efb0 af1f c3bf
000006c0: d10e 3801 73e6 c4bf 9c40 cfa1 9386 b63f
000006d0: b539 3c01 bad9 c43f f352 b1c9 2105 c63f
000006e0: 1650 c188 3ce4 7c3f a65b 4ed9 f35a 79bf
000006f0: 8f12 2feb c944 ca3f a2d0 7638 11c6 c1bf
00000700: b27a 658b d162 c63f 84e6 8bfe 367a cc3f
00000710: 895c f02b 6bbb a43f 45b7 ba1e 9a4b bebf
00000720: 357f 277e 824c 513f 168b f8c1 9724 83bf
00000730: 588d f803 c4e4 b1bf 5ca4 50f2 a464 d23f
00000740: 3853 b75d 0f49 c33f f086 c839 9107 a7bf
00000750: 99e5 52b2 6b04 98bf 1f0c b9ad 7a47 c83f
00000760: 2618 e505 2623 cbbf bac5 c092 8536 c23f
00000770: 5158 736b f19e b6bf 5c40 7193 19b3 a13f
00000780: a467 33c3 e112 ab3f b749 2223 54f5 c23f
00000790: 4bac ab77 ad55 b13f 6ab3 abd5 f81f c4bf
000007a0: f8f4 23f3 765d b7bf 1019 95da 2769 c1bf
000007b0: 0265 7c4a 364d c03f 5bd9 8626 4868 bd3f
000007c0: 490f 992b 9ec2 82bf 052c 5757 2601 a03f
000007d0: 0c9d a442 cf40 b8bf 3c9d ce17 812f c4bf
000007e0: dc2e b82e bf7a bcbf 8b1c a73d 3289 a0bf
000007f0: 2559 c6c1 795c b9bf 1631 43fe 7799 c6bf
0.09421361079104631 0.2262358670382879 0.0026634337799407723 0.13935124846917277 -0.26024143414736123 -0.09828541394940851 -0.09065284227054152 -0.0363712553269929
0.17038138091665703 -0.09148898442764306 -0.057524612096317373 0.22419430513515157 0.0833599406426526 0.13209687233313366 -0.062209014119198054 -0.09154093523720992
-0.1758500782088081 -0.027761328275591225 0.010127817580941991 -0.10473852201199563 -0.1847619419569028 0.1964349992337677 -0.0146353089822258 0.1753640875846965
-0.10342738438233284 0.0009392079917320688 0.16612705601925343 -0.10280493268852983 0.07920268118362365 -0.22618428377461916 -0.15116149496951528 -0.1516274256374212
-0.05938556210813146 -0.06563885900854281 -0.12704122741039378 0.15577934506250482 0.14042746685609034 -0.13247737894655423 0.20606924985338812 0.035802646354565856
-0.21053343368990235 0.010750927783649345 0.04341418425448743 0.20638841634743454 -0.06335708043695906 -0.04169627040133429 -0.051827108330275394 0.10712505206056099
-0.14314625144653703 0.009604283442575075 0.18041368531390514 0.16429046172275955 -0.10329047429948401 -0.007773264872806193 -0.15148361835069374 -0.08702607801576275
-0.025116992574614503 0.16461391780211268 -0.22571733498538069 0.20891373258211923 -0.11293820450956761 0.12073429087363564 -0.19239515589276832 -0.10461438424930047
-0.1831916005972217 -0.16703029392284766 0.02063139243376576 -0.00626636343738278 0.1211164525236417 0.15191456124943367 0.07887173328177888 0.0638821054295634
-0.1485989035737884 -0.1700047014635405 -0.14674919679767462 0.2047702288494809 -0.004311537555371821 0.02567824366948923 0.15512067441091912 0.09818677663583046
0.08697128624480992 0.157901122966962 -0.16182716940673553 -0.026185239199638957 -0.03324899377936546 0.10055442311027081 0.18923136828654727 -0.08510166596987655
0.1575421854972455 -0.17204609714212366 -0.009343676123022756 0.05175262777849591 0.11169167137198538 0.1806047682270909 -0.015630697950259807 0.10796201672432136
0.14981707134809974 -0.11663350632731695 0.014596366838061382 0.020280345454933933 0.19196827740058128 -0.13714680768085807 -0.06902094654335107 0.05861063232654689
0.03140821062853418 0.10948779935873787 0.07677155454369333 0.06049188413692559 -0.013913713435157802 -0.035022320076739076 0.245074645452423 -0.02684976472997891
-0.16914999034568892 -0.1608253158265863 0.1731625768857422 0.0009009042440708876 -0.0846820394896792 -0.08415100270127795 0.01855715910230779 0.12559169600172926
0.04548854276814071 -0.23411981940204 0.0461122892273781 0.06651845958152582 0.07514419012708136 -0.05881670652128441 -0.135913927639074 -0.1290867548343514
-0.0094372447673933 0.16483224084732012 -0.059121890399247035 0.2476081745278809 -0.057803292127191964 -0.008893494816676902 0.07868679860848288 0.09942906735575054
0.007962221712565228 -0.13878491365612328 0.10035580730905938 -0.07835769222462048 0.02787846152930188 0.07275403702042088 0.11883488799718264 0.012371434959045061
-0.1723253625322191 -0.037256929720914184 0.1582463478138674 -0.16496304950092963 0.05833977617463547 0.21875271180643027 0.14534405313560697 0.18262215565540904
0.17144773632917523 -0.028596612544407 -0.12344313979658746 -0.03142999667563791 -0.2595967092087424 -0.00439424737079319 0.1113204513854545 0.17789231817112736
0.1196107173438502 0.11218730599697128 0.1606186818329277 0.26733712026746004 -0.21036823684595102 -0.018472037299058136 -0.12499764659790347 0.13273499810299036
0.24355145843132092 -0.25242198447284875 -0.008636233232900166 -0.05444900523197007 -0.12536604761292755 -0.052732898089819395 -0.14279723087665727 0.2611179531218189
0.10281293181444079 0.04437381494676379 -0.04540521807211534 0.19353056876063338 0.17844761245619545 0.29284994470741404 0.18496293910779246 -0.2911569605687838
-0.02491508615257062 0.24660280665341808 0.06063216665367366 -0.11240145982993124 0.15389455030331908 -0.22560454386773598 -0.09281299551965684 0.131899899810663
-0.00040721589646216307 0.21374938026910303 0.12374483753106857 -0.018434487406356632 -0.15138520089259339 -0.12676413248034574 -0.20022959388772163 0.14095976060487042
-0.15307310453541065 -0.06343710492287123 -0.040645534845393745 0.07995364998798014 0.18437413937209293 0.11455672618902192 -0.01336022824356706 -0.14532912280135132
-0.0023799386822204085 -0.0523047672159582 0.23621922377847612 -0.165943801921916 -0.2193655733763878 -0.15997889753553665 0.08282662936203618 -0.1494044889387625
-0.1632827526046783 0.08799097729138555 0.16289448795619213 0.17203161571764944 0.007053600751607566 -0.00619025472123883 0.2052242658957266 -0.13885703331982763
0.17489070230927478 0.22247970036533016 0.04049239074100181 -0.11834109544971934 0.0010558389991430332 -0.009347138983746766 -0.06989693734117475 0.2873928419454097
0.15066711498243435 -0.04497960882532748 -0.02345436359312245 0.18968137247620206 -0.21201014793240452 0.1422888723914591 -0.0883627784090504 0.03456954884370653
0.052878432348463705 0.14811183658146174 0.06771358653684094 -0.1572257083238598 -0.09126990734144502 -0.13602159665078561 0.1273563255024684 0.11487246456713278
-0.009160266595365523 0.031258772050556195 -0.09473891617800606 -0.1576997152562657 -0.11124796763050021 -0.032296724344228776 -0.0990673158724787 -0.17655849375876959

linear_map_in.mlp.6.bias f8 [24]
00000000: 1f12 bb7b 7ffb a13f 98fd 3444 0ad5 913f
00000010: 2ca3 7a5d b27c c53f 14c2 cdd5 0565 b1bf
00000020: baa6 5db5 de95 c1bf 2511 279b b7a6 a0bf
00000030: de30 2fe3 4ed3 aebf 5b90 3c5f 6743 9abf
00000040: be96 4f26 626f bdbf 472d d05d af61 aebf
00000050: 57c6 2b0d 4ecc be3f 6aa0 647b 585c c53f
00000060: a17e f5f1 9283 b4bf 325a a3dc 6398 a53f
00000070: fbf8 6aa1 f701 c4bf eeef 7a27 4482 6f3f
00000080: 9f5f b326 6278 c03f b6cf d5cf acb6 bfbf
00000090: d9b5 d3ee c963 a2bf 5054 ac1f 3469 983f
000000a0: f97d 2f3b 54c3 a6bf cb4a 74a8 9e02 b83f
000000b0: 9fc7 0302 237a b63f 306d 09bf c250 c73f
0.035121902326441516 0.017414245999359673 0.16786794247061587 -0.0679477354985994 -0.13738616805794895 -0.03252195137932493 -0.060205903274977976 -0.025647750079898262
-0.11498082576107557 -0.059339027597241904 0.12030494519765376 0.16688066506435756 -0.0801326599807859 0.04217826908432122 -0.1563100374386933 0.003846295465192987
0.12867380990678343 -0.12388114999867991 -0.03591757812851499 0.02383881991689335 -0.0444589922187752 0.09378997433331475 0.0878011588972911 0.18215212181062546

linear_map_in.mlp.7.weight f8 [1]
00000000: 6169 598b 1ff1 e83f
0.7794339868226353

linear_map_in.mlp.9.weight f8 [24, 24]
00000000: 3b47 ca6c e0e4 a5bf 005a 89af a2d9 c23f
00000010: b735 8024 442a c43f 510e d158 80a3 a3bf
00000020: 6984 84c4 239f c2bf d4be 197c ef6c c53f
00000030: 070c 9dac ac8a c2bf ca4b 49ea 2a4e c73f
00000040: e4a7 a821 8d16 c7bf 2b23 408a f204 b83f
00000050: c386 eec6 700e 703f 3e6d d728 9b97 b03f
00000060: 3f25 5cef f1df ccbf ae2d e81c 741c aebf
00000070: d599 e198 6207 c63f 8c07 8148 8010 adbf
00000080: e418 18cb c917 ca3f a665 e973 de33 8d3f
00000090: e9e7 7f39 7986 c53f 88e7 7886 9761 a83f
000000a0: 1599 cd3b 1610 b63f bcc4 5a58 90f0 b0bf
000000b0: ee82 cb5e 0526 c2bf 55b3 d984 476f bfbf
000000c0: 6540 7ad6 d498 b9bf 42e8 e1b5 f818 c43f
000000d0: dcde 9af4 7940 a2bf 3646 a0be 1aab c33f
000000e0: 9ad7 808b 4d7e c53f 6864 77ad a6f9 c83f
000000f0: e1e3 8258 2308 a0bf 4b20 bf1e 73c9 b23f
00000100: f751 6a65 16d6 bf3f 98a0 c774 4348 b43f
00000110: 2c9c ff86 4fb0 c4bf cc6c 25dd 3e9b a43f
00000120: 4e65 41e1 45c2 c53f 0332 d6b9 c6c8 8b3f
00000130: e10b 6ac3 3345 b63f 665c 8e64 2244 ba3f
00000140: d990 6b9a a2c3 c93f 7216 e558 d170 c33f
00000150: 6025 f0c6 4d78 a83f 71e2 1b6c 4ff1 a4bf
00000160: 489e 34e2 1c40 cabf 3ac2 a6db 37f3 913f
00000170: 8752 91e5 b08d c0bf 3847 de5a c19e c43f
00000180: 887e a0d3 7fb9 b6bf 05fd 29cf 12f1 c8bf
00000190: ad38 b12a 8c64 c8bf 9401 ef2b b4b5 c73f
000001a0: 4295 aa1d 4147 c93f 40d1 32cf 86a5 c7bf
000001b0: 9169 71ea 5d43 be3f f5d4 a140 ca29 b33f
000001c0: c160 9549 5d0c 65bf 3265 a6fd 7f54 a93f
000001d0: fcbd 5239 722d 763f 60f8 be95 8413 c63f
000001e0: 5481 0728 e0cd 313f 9925 f4f2 144a 833f
000001f0: 5021 7a43 9790 bfbf 99f7 f240 24c7 c5bf
00000200: eb6e a1bb b130 c8bf 4ff6 3942 b232 c7bf
00000210: e964 4f0a f21f a63f fcc4 e9b8 9b8e bf3f
00000220: 4425 ac42 1672 66bf 31bf 73f8 720e b63f
00000230: 1591 7aca e308 cc3f 739d 0e3c a6e1 8dbf
00000240: b776 6d3c 04d3 c23f f364 bee3 377f c6bf
00000250: cf78 4a6c be32 93bf bcbc fd1e a086 a1bf
00000260: a9e8 1b2b 42ec c3bf 13e5 d0ba 0f87 c53f
00000270: 4fc2 fc02 fb40 c5bf 81be 88ec 8177 bfbf
00000280: 4f54 a833 70ce bf3f 2d5b 8555 32f7 8fbf
00000290: e913 b14d 6e65 c13f 3cec 5040 a21d bbbf
000002a0: cfd0 791b cf20 72bf 158b bab7 2b8a bbbf
000002b0: 717c c95a 2020 b33f fe65 da9f 347b d0bf
000002c0: b602 0c44 4e3e a0bf 3645 a2c6 97e6 cb3f
000002d0: be0e efda 7bae c83f 9185 397e 7b67 c3bf
000002e0: 62b0 06cf 433b c33f c60a 3dcc ad73 a7bf
000002f0: 0ea0 b30c 8e6e 84bf fe89 1f80 f890 b3bf
00000300: 0830 4501 0b97 bd3f 9f89 14d3 21a6 95bf
00000310: b8cd f74a 3f9e b3bf ef1d e262 92e2 b93f
00000320: c9a9 175e 1d04 c53f ffd3 a3fd b90b c53f
00000330: c1f6 82dd baba 9c3f 9c9a cd1a 9a77 b1bf
00000340: e757 3e59 0a82 a9bf 4583 6229 1d85 abbf
00000350: 4bee c367 7f41 bdbf ab66 a357 bc69 87bf
00000360: 0a87 6c0f be04 ac3f 461f 32bb 9b1f b4bf
00000370: 4a54 3b27 a246 bdbf 986c 39e7 1041 cebf
00000380: 44ae 7f03 b5dd c1bf 726a be49 d468 9e3f
00000390: b09a 4fa6 68ee 853f a055 6a6b c524 bbbf
000003a0: 4725 7e88 9b63 cb3f e0bc 2275 d737 a23f
000003b0: 82c7 44b8 89dc a13f 577a 336f 426b c0bf
000003c0: 6945 9bf4 e366 a53f f005 1dee 3fed 9c3f
000003d0: da3a c73e 8c86 aabf c48b 6173 0671 bebf
000003e0: 6692 c032 f4ae a43f 0bf9 2bdc e4b3 ca3f
000003f0: 8336 1327 f335 c03f afcb 25ae 3725 98bf
00000400: 2555 21f4 0129 bc3f a508 0f25 003c b93f
00000410: 417e 7350 e5a9 c8bf a4ee 02ad 06e4 bd3f
00000420: 04bc fedb 4b8b c63f 85ba 9d4f 1b47 7e3f
00000430: d971 3ac2 1bab c93f 1b82 5c09 6a97 a1bf
00000440: 69d8 2012 feb4 b93f 7cd0 bcd1 a65a bd3f
00000450: b5bc f45d 8aee c4bf 7cc1 dd2e e115 c5bf
00000460: 80eb 5493 3f72 be3f 6ae0 8952 8f9c bebf
00000470: 995c 5791 de19 cdbf 35b2 112e 26b8 c33f
00000480: 59f3 113d 5b2d aa3f 198f 8616 4947 bd3f
00000490: 1ec5 88fd 8785 c6bf 2b29 eab0 7598 c0bf
000004a0: 7688 e7de 65b6 c63f 62c3 060f eae7 c13f
000004b0: bcf3 51f6 0812 b0bf dec5 2b3b a551 b23f
000004c0: 4d0d a232 e454 bbbf 2d79 f262 b4d5 ae3f
000004d0: 46b8 b3db f820 b2bf 6f4d 3157 d7f6 91bf
000004e0: 0e8a ba6a cf1f a83f ffb2 9169 3151 babf
000004f0: f3f3 1217 4a80 bb3f 4769 4058 8345 77bf
00000500: b982 29c9 b7c6 c2bf 64f0 f2a8 3ef1 c13f
00000510: d4d9 13bc d540 c4bf a280 d28b 980d cabf
00000520: 3546 6599 3141 c73f 0fa6 0718 732f b6bf
00000530: 6ab3 8146 8c6c be3f 870c 8474 ce7b bcbf
00000540: 1c25 1358 0c02 c6bf f3ac 549c 25ac a03f
00000550: 6b84 1f8b b3f5 9fbf c29d 13ee c1a3 ba3f
00000560: 989a be3f a642 ad3f 45ff 4a72 d433 763f
00000570: a1ff ef7b d221 c6bf b5d8 8385 2cb4 8e3f
00000580: 484e ee23 b2ae b73f b969 ddbe f461 c4bf
00000590: 5396 619a b74e a23f edda 0195 4dfc c33f
000005a0: 081b 0210 f66c c1bf 2df3 dd04 20f5 c9bf
000005b0: 51ee b2ee bea6 bfbf f92c f98f 0cd5 b73f
000005c0: 57a7 1e7b fe27 cf3f 0b11 dccd a3ec b93f
000005d0: d30a 19c7 b361 aebf 85b2 e10a 39ac 9a3f
000005e0: d0a6 87c0 4dec 98bf 6f7b 48a9 1f26 b33f
000005f0: 37bb 9d61 baf8 a1bf aca6 b328 6df4 b3bf
00000600: 14a8 0f12 d82c b53f 3b40 3340 e670 8f3f
00000610: 14f8 e089 30ae 9fbf 0609 b1a4 a200 b5bf
00000620: 65e7 4919 4788 8ebf b8c7 4a9a 7f02 6dbf
00000630: 3b95 450b 0fb9 b4bf 5e46 d91c 996f ce3f
00000640: 1115 d4aa 0029 82bf 31e5 7ca2 42fc c3bf
00000650: 6027 5a0c 4d85 b6bf 596b eb78 ce02 c13f
00000660: 8285 9319 37fa a53f 2421 8739 3887 813f
00000670: cfa0 aa9d b102 b6bf 485c 13e7 2105 b73f
00000680: ebd2 5bed 93c4 ac3f 30aa 36df 607e c0bf
00000690: b4b5 c3fa a51f c4bf e15a af47 e0d7 8fbf
000006a0: 9148 9c54 4ecd 80bf f25f 8427 e5be a23f
000006b0: 36f2 8e26 2007 bebf 77af 3f96 945f b93f
000006c0: 0b0d e6a2 8d8b c2bf 4628 da5a 145b 9e3f
000006d0: 1775 e861 692b b13f 98c2 6f20 8fdb 503f
000006e0: 4872 30b0 3b75 c63f 1211 3901 2419 7fbf
000006f0: 63a3 7487 aeff c23f 7723 974e e173 af3f
00000700: 5bb5 3031 fd61 88bf 3928 42f6 fc0c a8bf
00000710: 259d d9e6 a6b9 bbbf 35a7 6ce1 df64 b3bf
00000720: c70f fab3 c8ed c7bf 8413 d6b8 7957 7c3f
00000730: c9f5 55c6 e8f7 c33f 5c1b 5c42 acb9 aa3f
00000740: 76c5 45d5 3a10 b43f c693 489e f67d 8f3f
00000750: 18d8 e04c 353f c5bf f915 9015 7c9e b8bf
00000760: 64ae e230 8c6b 67bf 8876 f5d1 0d89 b43f
00000770: 93b8 e94b fe1f b8bf 8f57 e1ca 15f4 c13f
00000780: d77a d804 7693 c43f 18d5 9223 4000 b03f
00000790: 49f9 f39b c815 cbbf b2ab cecf 3cb6 b43f
000007a0: a99a aaa8 82c5 af3f 36a5 5e4a afa0 c93f
000007b0: 1ecb de94 94b4 63bf 5064 2e74 9c5b d43f
000007c0: 825d a1bd d26b c0bf 84b9 dd4b 1571 d2bf
000007d0: 5f2a dbd1 3417 c5bf b588 0925 fdbf ba3f
000007e0: dbc7 fb3c b946 c7bf 8193 2059 dea4 b03f
000007f0: e607 5b51 e1e8 ba3f 797f 19c9 68e6 a6bf
-0.0427618153381801 0.14726670809859854 0.1575398615099581 -0.03835679134547532 -0.14548155875766902 0.1673869472465329 -0.14485701015846095 0.1820729869819771
-0.1803757109021823 0.09382549166924707 0.003920021567780987 0.0648133253775329 -0.22558426082131608 -0.05881083348148351 0.1721003767481323 -0.05676651845034461
0.20385095993714863 0.014259088432640631 0.1681663065681385 0.04761956707484588 0.0861829658511833 -0.06617071301549776 -0.14178530815754392 -0.12279173844735898
-0.09998827205913725 0.1570120704744245 -0.03564816580677441 0.1536591940680851 0.16791695892032693 0.1951187464717663 -0.03131208854160384 0.0733863782944592
0.1243604657741527 0.0792276535136146 -0.16163057414743898 0.040246929641136825 0.16999124048997277 0.013566544100080518 0.0869934417806202 0.10260214762671324
0.20128281154678154 0.15188042488641745 0.04779284528201333 -0.040903551051035054 -0.20508156819527046 0.017529366284806815 -0.1293240662513606 0.16109482705047085
-0.08876799503968347 -0.19485697856359976 -0.190568466993175 0.18523265977092918 0.19748701046516187 -0.18473897091974756 0.11821543668467017 0.07485641553815355
-0.0025693723697877984 0.04947280856431248 0.005414434611494819 0.1724706393415003 0.0002716705567120854 0.009418643631323319 -0.12330003163709091 -0.17013981982557594
-0.18898603116655663 -0.18123462899886753 0.043212474592744084 0.12326977982026571 -0.002739947774334313 0.08615797582365016 0.21902129542025564 -0.014590548236653266
0.1470647139603238 -0.17575739498423779 -0.01874825988726841 -0.034230235846615525 -0.15564753632481157 0.16818424817919517 -0.1660455479227658 -0.12291728997001351
0.1242437482945473 -0.015608208880320962 0.1359079245904973 -0.10592092581002616 -0.004425820363042911 -0.10757706866801826 0.07470895973664128 -0.2575198708596814
-0.03172535496378741 0.2179746360675751 0.1928248232853686 -0.1515955320674434 0.1502461205358286 -0.0458044349493512 -0.009976491701721126 -0.07643082740791127
0.11558598309528645 -0.021141556270899305 -0.07663341121933953 0.10111346162931743 0.16418807119710113 0.16442036518824918 0.028056068201059107 -0.06823123125432534
-0.0498202547016005 -0.05374995355783211 -0.11428066523870332 -0.011432143616207332 0.05472368181496108 -0.07860730476579389 -0.11435903032118336 -0.23636065759896918
-0.13957846327626744 0.029696766854252883 0.010708634925277266 -0.10602983353086026 0.21397728123364798 0.03558228783492168 0.03488569616673855 -0.12827330045452598
0.04180061684531717 0.028248785885130745 -0.051807768500670995 -0.1189121276561727 0.040397292323437736 0.2086149287278619 0.12664641769372417 -0.02357947349942052
0.11000072679720015 0.09857178597215695 -0.19268480709341598 0.11676065181648682 0.17612598649927247 0.007392031367870038 0.20053431495479293 -0.03435832371019761
0.10041797583184721 0.11466448421998793 -0.16352967822738199 -0.1647302130545646 0.11893079134908469 -0.11957641377546371 -0.22735197159520196 0.1540572857806112
0.05112729187474114 0.11436898040716094 -0.1759500492058032 -0.12965270174420004 0.17744134315495658 0.1398899625178514 -0.06277519239115653 0.07155831045726965
-0.10676408992917637 0.060224186972151685 -0.07081561435526948 -0.01754318685227701 0.04711769273605536 -0.10280140712138673 0.10742629111605577 -0.005681527200091025
-0.14668938944216395 0.14017470597707693 -0.1582286041591049 -0.20353991343745742 0.18167705526370673 -0.08666152321497854 0.11884381028512583 -0.1112641367399637
-0.17193750668074237 0.03256337674459955 -0.031210713735962885 0.10406124174516321 0.05714911964542074 0.005420522564861423 -0.17290717174182382 0.014992091965251178
0.0925093972894554 -0.15923938102316784 0.03575681457077153 0.15613717818970177 -0.13613773137714014 -0.2027931236042603 -0.12363808944331224 0.0930946208474558
0.24340802203851794 0.10126708770627972 -0.0593391590632756 0.026047602929269793 -0.024338927150813927 0.07480047114266396 -0.03510076943972822 -0.07794840091414795
0.08271551552721262 0.015352057298883994 -0.03093791810555764 -0.08204094429769179 -0.014908366641282542 -0.003541230415373211 -0.08094877267065652 0.237780703626913
-0.008867268765707455 -0.15613587316492208 -0.08797151137892234 0.1328981485774772 0.04292461573801189 0.008558692222223892 -0.0859786043098467 0.08992206470007702
0.05618726990170394 -0.12885676287744863 -0.15721583122596672 -0.015548469722415916 -0.008204090077502254 0.03661266429315892 -0.11729622784964353 0.09911469143088235
-0.14488382772479044 0.029644315762688465 0.06706865921338011 0.001028909465954941 0.17545267203321857 -0.007592335361156681 0.14842778791469433 0.06143097004275593
-0.011905649245899033 -0.046974091587870644 -0.1083015740965619 -0.0757579732277492 -0.18694409168176504 0.006919360615374685 0.15600309070934618 0.05219782171302853
0.07837264735078073 0.015376974778584695 -0.1659914613134681 -0.09616828466831596 -0.0028588998894372598 0.08021627784679641 -0.09423817971557673 0.14026138693105536
0.16075015293696168 0.06250382297988144 -0.2116022836198204 0.08090572427197065 0.0620537596599225 0.20021620875676555 -0.0024054433806325456 0.31809150071928105
-0.12829050311368567 -0.2881520501022339 -0.16477070090180043 0.10449201730947062 -0.18184581258498053 0.06501569438894529 0.10511596904964868 -0.04472663359479063
