exp/mmd_vit_exp_abl/model/small_60m_ktt_emb_empty_token_25_34074.pth (torch, 2423 bytes, 1 tensors)

weight f8 [1, 25]
00000000: 0d29 f81e bb6a eb3f 2504 2019 d8c2 f43f
00000010: 7871 9269 71a6 e43f e3db 9fc7 fe96 0040
00000020: 7685 890b 1ed1 d3bf 014a 2184 ac91 f03f
00000030: fd2d b781 bcc4 bb3f fa5f 9775 88ec e9bf
00000040: a5dd 5d95 4f4f fbbf c9ff b238 fcf4 d9bf
00000050: d23c c8fa 27a7 d83f 1a6e 0f40 1764 dc3f
00000060: 582a 4a0d eea9 d6bf c5e0 4863 8eb6 ef3f
00000070: 803a 30a2 8edb e3bf eb0b 4fcb 18b7 e3bf
00000080: eac1 d81e ecd8 ebbf 7d42 036e 2735 ecbf
00000090: 18b4 3609 1f1e f83f e9c3 d263 4923 f8bf
000000a0: e5db f7d5 9121 e6bf 2a22 47bd 1a76 f93f
000000b0: f045 6054 9de5 e7bf 4232 959c a305 d7bf
000000c0: c62d 39e8 ad68 fcbf
0.8567786793585427 1.297569368500498 0.6453177511171324 2.0737281413707804 -0.30963851095847106 1.035564914830161 0.10847070853122172 -0.8101236626343955
-1.7068630060801777 -0.4055777124121929 0.3852024029774387 0.44360905891309843 -0.3541216974050818 0.9910346926835919 -0.6205514114133877 -0.6161006899714015
-0.8702297785258086 -0.8814885281263539 1.5073538169774618 -1.5086149119708756 -0.6915978602472675 1.591334094397221 -0.7467791221590101 -0.35971918383873824
-1.7755564757561486
