exp/mmd_vit_exp_abl/model/small_60m_wdt_embedding_25_34074.pth (torch, 4569 bytes, 1 tensors)

weight f8 [12, 25]
-0.668220917233315 -0.4429276136066024 -0.23304662110055416 0.9937029365108063 1.0729502001869204 -2.0020027115257735 -0.4005267635653846 0.38621775342575687
-0.07210207589865855 1.176827824797733 -0.12838803598333767 0.4079770676032207 -0.24331168872022182 0.26774292266472355 -0.45244280504732287 2.220355232016031
0.9970287618763946 1.2754550624059369 0.0730173248971057 -1.123087596823081 -0.44590885994806106 0.22152902060391738 0.8236787507280675 -1.457971430124411
1.6428980058775111 0.5151396686766032 -0.10280701529607052 1.0646394111161253 -0.29698097599420487 0.23383998096031436 -1.7058141928272457 0.09069227868125916
-0.7858623165883297 0.367865653494781 -1.0202383450375458 -0.7238627128070994 0.8499809738551501 -1.2980790067573547 -0.2575705170004981 -0.6903190550210301
0.28992337777420263 -0.05571050744397139 -1.0221807842818782 1.0933583994473408 0.9228908599348032 0.4543359208130522 -1.5720743799319423 -0.2805314564179218
-1.369754863585269 -0.042213229674187794 0.17045729839565324 1.725087683835082 1.4361415681463 -2.753880461208143 -1.168493210582379 0.6069115052707516
-0.7545958992715808 -0.12905705886724006 0.9082587736462068 -1.7152331337199453 0.17394316393881384 -0.420130267755756 0.9329593057792597 1.0281780140603411
-0.8149245156443513 1.3740424969453833 -0.16965564139964845 0.22398507743689863 0.8636855443167326 -1.4297494666116892 -0.38579719720224515 -1.3666221157617688
0.812683539989087 2.2612961470729753 0.6991604895389935 0.9019656244620183 -0.5624447839941562 -0.763159879811466 -0.9594558734615325 0.01214971133492972
-0.37081381278994485 -1.2885919322253205 1.7604382578141227 -0.8029851185720446 1.3355713677064756 0.7865537150001491 -0.7518472043283442 1.5566503274476409
1.4718771864757552 -1.7645257895799062 0.1907761509652356 -0.12978718031871467 1.061920715163642 0.3619999669506474 -1.227749058872561 0.9037012229616028
0.6038619065484414 -0.6091016363804722 0.6064136268031582 0.5348271287438058 -0.6039342379402577 -0.3551446146944895 -0.7782796467108367 1.1131782899731117
0.04963314977113604 1.050138030365453 -0.5184163752419015 -0.43691160871587703 0.12249002111118312 2.2823997167233165 -0.7095239618291228 0.6659025501707487
-0.574131647536862 -0.144918596013588 -0.30861580295425056 -1.5240185924574916 1.1008556063667527 -0.698982203356832 0.9456574224050132 -1.3082873897286598
1.7214978232409786 -1.758377778093483 0.2598783173936442 -0.5159085053547815 -1.7621391015696972 1.8251309977583794 -0.1804273133893962 -0.4986969940436252
-0.5430512052728499 1.2882140737588599 -1.0831649805416965 -0.6634519303030573 1.5270308484031043 -0.9490764007372865 0.07295530837209849 1.114088441438075
2.442859439671021 -2.2059815031993066 0.6081681464838633 1.5229811571850513 -0.5274133510000153 -0.691512601775114 0.8129811201440157 -0.3802315115413402
1.0573385503127395 -1.2311778054545386 0.8570102837471917 -1.8915582132399518 -0.9617899642732519 -1.1392951121280268 0.6724217032407087 0.6422647587681195
-0.5545251365398429 -0.8650893890113972 -0.5262324916294319 -0.6739997596639449 -0.03888205971257922 1.1610475885052458 0.3745608396071995 0.13591762756742634
1.2874792849275565 -0.006321585063099622 -0.32201339759430564 -1.4630213302818302 2.021787124992197 1.234820598085873 0.5787499665243238 2.183632714544113
-0.8044329425733522 0.2857266874100329 0.5581601767299501 -0.035244338276896096 -0.5561210990084859 -1.7387335876003092 -1.4468838807612339 0.7640123846183218
-0.3873698595541665 -0.07260885941763494 0.45065884035365644 -2.6016492145456867 -0.28830441143061647 -0.18105813293670645 0.1792993287644619 -0.07863223044411789
-0.12754879005118586 -0.8128801209486484 0.21894438963372162 1.9363831565213354 0.37809606637203563 -0.3754767193055419 1.3014569471826862 -1.205101962791773
-0.6355805714826608 -0.9099641955349246 -0.5613065641869973 -0.30657425783369435 0.3418161609313079 0.9667937559158662 0.38196160078983915 -0.5116690480968813
-1.5380541807043175 -2.090670695664722 1.3221705322929393 -0.9811400611987701 -0.7192278436700688 0.45108791685594485 0.2834378339444822 0.00416329212041769
0.7846155191160081 0.6869892940991515 0.03705386800371176 0.606305024159602 -0.25786711979401994 -0.5188319292748776 -0.05657742533873744 -0.3807816055434752
-0.49545842416023983 -0.9310766553939115 -0.12624795827003962 -1.4324572749154405 1.227158856627332 1.4135837763322432 0.6292007638643746 2.0017760646661573
-0.10444974131749447 -1.7734090967659129 -1.1367336149436713 0.3620042698324425 -0.2864711699701754 0.34253200299220016 0.38456282130004005 0.23301811857996316
0.6406001967660396 -0.5491735464267045 0.7468971773216646 -0.8670141078890758 0.5396752528079165 0.06737017442078205 -1.9426398168826973 -0.6364486291455393
0.895130564161234 -0.7538182116891712 -0.8722992887769896 0.08352932752824234 1.484425176368672 1.662143568157166 0.49524931091312724 -0.24223539330561578
0.3902399660463477 -0.002881044720444345 0.38854830278872204 -0.05639987510685351 0.2858382863192425 -1.2974540961515264 0.3747128517858956 -0.030914824605436698
00000000: 91a5 40d5 1062 e5bf 36e2 bb0f ed58 dcbf
00000010: c7fb 08c0 78d4 cdbf 3619 c819 6acc ef3f
00000020: b2a1 40d4 cd2a f13f 5a0d 64ff 1904 00c0
00000030: 43e8 ab01 3ba2 d9bf 3349 06ab cab7 d83f
00000040: de5c f519 4875 b2bf 1e77 c869 49d4 f23f
00000050: 6b80 dfe7 046f c0bf 92ec b7d8 4b1c da3f
00000060: 69d9 e460 d624 cfbf 0226 2536 b322 d13f
00000070: c547 bfaa d2f4 dcbf 3c17 989a 49c3 0140
00000080: 8bc6 addc a8e7 ef3f 76d1 4891 4368 f43f
00000090: 3b77 796e 43b1 b23f b55f 2eb3 2af8 f1bf
000000a0: ea4e 9e50 c589 dcbf 0aeb 4d1d 105b cc3f
000000b0: a130 198a 935b ea3f e72f aed9 d953 f7bf
000000c0: 3a85 5e6b 4f49 fa3f 3ed3 ba2f 067c e03f
000000d0: 81f9 7e80 8f51 babf 5e6c cc55 c308 f13f
000000e0: 2d79 db7e bc01 d3bf 5d64 5cef 77ee cd3f
000000f0: 37ee b3d2 034b fbbf bf8b eff2 9b37 b73f
00000100: 49fb 9cba c825 e9bf 6f3b c561 1c8b d73f
00000110: 97fb 6071 e552 f0bf 529c c922 e229 e7bf
00000120: 63c3 9d4c 0b33 eb3f 1e5a 1a7e eec4 f4bf
00000130: b594 bb0c 097c d0bf d0de a3fc 1717 e6bf
00000140: 1ab5 78c8 1a8e d23f 59e5 076f 1686 acbf
00000150: dc71 f13c da5a f0bf 86ee 8660 657e f13f
00000160: 4150 a669 5288 ed3f 1491 52f8 d613 dd3f
00000170: a7fe 0a77 3727 f9bf 3d1c b435 3af4 d1bf
00000180: b62b 6a13 84ea f5bf 2a7f d1f1 f89c a5bf
00000190: eba6 fc74 8bd1 c53f 73dd 0c8b f599 fb3f
000001a0: 0cd5 b994 6ffa f63f e5db af7a f207 06c0
000001b0: 2dca d0ef 25b2 f2bf 3f87 56ad d16b e33f
000001c0: 1726 a24c a625 e8bf 148d 9313 f184 c0bf
000001d0: 61b2 23b4 7410 ed3f f27b 654c 9871 fbbf
000001e0: b96f 3d04 c543 c63f 4686 0410 6ae3 dabf
000001f0: dd43 5a79 cdda ed3f b1af 0dca 6a73 f03f
00000200: 0dd6 ec93 dc13 eabf 161d 3bfc 13fc f53f
00000210: ba5a b2ab 46b7 c5bf c316 3103 8bab cc3f
00000220: 52c9 dbdd 4fa3 eb3f 6121 09fa 40e0 f6bf
00000230: 94d0 37ba e6b0 d8bf 75fe d226 afdd f5bf
00000240: 3805 48e9 8001 ea3f 6ffe 316f 2217 0240
00000250: e135 a7d1 855f e63f 5dc7 6503 e7dc ec3f
00000260: 22f1 2134 8cff e1bf ee1a ad44 ce6b e8bf
00000270: df1d cfcd dcb3 eebf 4a04 b7a6 f2e1 883f
00000280: d29f b5db 69bb d7bf 55c1 ec92 129e f4bf
00000290: a005 7f4e c12a fc3f b321 eed8 0db2 e9bf
000002a0: 735f 1c15 805e f53f 5e22 4fb2 722b e93f
000002b0: 90bc 45de 210f e8bf fc1f 7b2c 0ae8 f83f
000002c0: 1145 ba17 cf8c f73f c01b f364 7f3b fcbf
000002d0: 2450 a058 5a6b c83f f657 74c7 dd9c c0bf
000002e0: 152a 6993 a0fd f03f ee30 cde8 012b d73f
000002f0: bfd6 7832 dca4 f3bf 9035 bfd3 1eeb ec3f
00000300: dc9f 7d34 d652 e33f fc36 06b7 c27d e3bf
00000310: 6dfc de8c bd67 e33f b8fb 5ec8 4d1d e13f
00000320: 3a6b 1ce5 6d53 e3bf 95a7 5d7a b0ba d6bf
00000330: cb7e b8b7 aae7 e8bf d8d3 e009 94cf f13f
00000340: 0906 2126 8469 a93f a149 0b89 5dcd f03f
00000350: 9efe 2bf0 dd96 e0bf 2f5b ab1b 5cf6 dbbf
00000360: 0846 c28a 815b bf3f 7bcf 5dc8 5a42 0240
00000370: 171a 7998 6bb4 e6bf becd 69dd 124f e53f
00000380: 199f 3855 495f e2bf d3f4 3a4b b18c c2bf
00000390: 05e8 2d7f 5cc0 d3bf 339d d151 6162 f8bf
000003a0: 4d6a afc4 1a9d f13f 6aea fcec 0f5e e6bf
000003b0: c25f ce5a d342 ee3f f775 0ac2 beee f4bf
000003c0: 7748 2f4d 418b fb3f 63cb aebc 5022 fcbf
000003d0: 1e4b 89aa d8a1 d03f cf43 c78d 5282 e0bf
000003e0: 2dea 43c5 b831 fcbf 039c a48f bc33 fd3f
000003f0: 4303 2801 3e18 c7bf e4f9 01cc a6ea dfbf
00000400: a368 d6eb ac60 e1bf e6a8 505c 869c f43f
00000410: c395 79cd a454 f1bf 9ad4 e38a ff3a e5bf
00000420: d1fd 1de6 b76e f83f 1e4e d278 d55e eebf
00000430: 261b 87f7 32ad b23f 1340 cd66 4ed3 f13f
00000440: 36e5 d0e3 f98a 0340 5693 5ea1 d9a5 01c0
00000450: 88bf 730b 1d76 e33f 648b 687d 215e f83f
00000460: 4b9a c0f6 91e0 e0bf ebab 2c09 df20 e6bf
00000470: 7b16 69fb f003 ea3f 11a3 be8c b655 d8bf
00000480: d24a e6d3 dbea f03f 0dd0 9f7f e7b2 f3bf
00000490: aff4 a0d4 a06c eb3f 5888 858b d243 febf
000004a0: 8896 45bf fbc6 eebf 0952 f182 8d3a f2bf
000004b0: 4443 1185 7a84 e53f 7109 c9d2 6e8d e43f
000004c0: 34f4 c77f abbe e1bf 5575 3df1 cfae ebbf
000004d0: 1a83 b485 e5d6 e0bf 9497 a8f1 6791 e5bf
000004e0: 25b9 bb6d 59e8 a3bf d6ac dba2 a693 f23f
000004f0: 0f6a 1e07 cef8 d73f 790e adb2 bf65 c13f
00000500: 40a9 f0e0 8399 f43f 5aa6 ad91 a9e4 79bf
00000510: 19a6 e214 de9b d4bf f292 ee0d 8968 f7bf
00000520: d685 6aba 9e2c 0040 b74b 533e d3c1 f33f
00000530: df0e 59a6 1e85 e23f 968a bb6d 1478 0140
00000540: d9ae 8527 eabd e9bf f94f 8196 5849 d23f
00000550: cb82 1fbb 72dc e13f 9f6f 89c0 8b0b a2bf
00000560: c06c 9b79 becb e1bf 8633 734f dad1 fbbf
00000570: 3eaa 4fb6 6f26 f7bf dc96 b519 ca72 e83f
00000580: c670 8ff3 aaca d8bf 173e 9984 7e96 b2bf
00000590: 2c39 3e2d 98d7 dc3f 3d1a a176 2dd0 04c0
000005a0: 0ac5 9858 9473 d2bf 27a9 d1b3 e92c c7bf
000005b0: 957a 9ec8 47f3 c63f 0545 2bea 3d21 b4bf
000005c0: f204 f5cc 8453 c0bf 0160 e12b 1d03 eabf
000005d0: 4b4c 8fa8 5e06 cc3f d78c 9ce7 6cfb fe3f
000005e0: d81a f4d7 b932 d83f 3be8 7481 cf07 d8bf
000005f0: 81d3 1485 c4d2 f43f c293 e8fe 1848 f3bf
00000600: 6cb6 0f11 ad56 e4bf 774f 8b3b 6d1e edbf
00000610: 2dd3 062f 39f6 e1bf 713c cca2 e99e d3bf
00000620: 6f6e 1ce4 50e0 d53f 4357 7475 f9ef ee3f
00000630: 3717 ee11 0f72 d83f 2673 7ec4 975f e0bf
00000640: 2e9e 59b3 de9b f8bf 35af c48e b1b9 00c0
00000650: eced be49 9c27 f53f ed9c 74d7 7f65 efbf
00000660: feef 5d1c ea03 e7bf 5a17 a1da 9fde dc3f
00000670: 7a66 cf70 d823 d23f a1a3 0338 870d 713f
00000680: b531 5101 921b e93f 9674 dbf8 d0fb e53f
00000690: fa50 887e b9f8 a23f b64f 45cb d966 e33f
000006a0: 6da8 8e17 e580 d0bf dd65 0b6b 459a e0bf
000006b0: 0024 0b5f b7f7 acbf f890 aecf b95e d8bf
000006c0: 75f0 1240 97b5 dfbf 978c 1f45 61cb edbf
000006d0: a371 faa1 e428 c0bf 96dd ca51 58eb f6bf
000006e0: d860 4353 71a2 f33f f50c 9805 0a9e f63f
000006f0: 7a4d eda3 6922 e43f fa40 5d2b a303 0040
00000700: cdc7 08df 37bd babf ad9d 9037 e25f fcbf
00000710: 9b26 4796 0f30 f2bf 3255 fcf4 132b d73f
00000720: 6033 912c 8b55 d2bf f9d4 ab59 0bec d53f
00000730: 3c6f 2f61 ad9c d83f 0194 56a7 89d3 cd3f
00000740: 557b ddfb cb7f e43f a064 b766 d492 e1bf
00000750: c847 c2e8 94e6 e73f fabb d15e 94be ebbf
00000760: 36a8 2809 0545 e13f 76f2 dcf7 2b3f b13f
00000770: a4b2 167d 0d15 ffbf b473 f883 c95d e4bf
00000780: f71e 57da e8a4 ec3f bab1 ca5e 471f e8bf
00000790: 1ee1 b332 e0e9 ebbf c59c fd91 2d62 b53f
000007a0: b6cc 1d9d 34c0 f73f 4fde a7da 2398 fa3f
000007b0: 3b42 6f2a 2ab2 df3f 6635 17c2 9101 cfbf
000007c0: bab7 f00c b1f9 d83f c6ad 481b fd99 67bf
000007d0: 1d35 59b3 f9dd d83f ff32 2ac6 71e0 acbf
000007e0: a7e4 ebaa 2c4b d23f 4283 f039 5fc2 f4bf
000007f0: 9dec f39c 4bfb d73f 3d55 91c2 22a8 9fbf
