exp/mmd_vit_exp_abl_half/model/small_30m_embedding_wdt_49_34956.pth (torch, 6873 bytes, 1 tensors)

weight f8 [12, 49]
00000000: dc29 1a05 6047 d6bf e576 36c1 7318 ebbf
00000010: 64c3 f29c 2232 cf3f 4463 67a8 d085 f63f
00000020: 91d8 ca17 2bda dabf aa24 af71 6d74 d1bf
00000030: a9fb 2dfd 7e49 c6bf dc47 274b 5869 d03f
00000040: 32b4 6b4e 1ede f2bf c269 0db2 91c4 d43f
00000050: 2864 e4b3 9568 dc3f 7b17 36fe ed58 e03f
00000060: d329 fdd7 d46f cc3f 9ad8 2530 c9e7 dd3f
00000070: c536 075a 41f9 d5bf e036 2752 78f9 c73f
00000080: f481 1331 55db f93f 4b6a 2d9f 2a48 f53f
00000090: 134b 6922 c1e2 e13f 1ba1 e20e bd0d f4bf
000000a0: ef7e 4f0e e274 ccbf e5c7 05d7 d8dc fc3f
000000b0: 49b7 cdfb fccf ea3f 1c10 16a3 5b38 efbf
000000c0: bdd7 4f91 eb1e e53f c070 c4d7 0349 c73f
000000d0: 9260 75db 5c61 f43f c090 8f26 b30b fa3f
000000e0: 03a0 318e 09a0 b33f 2ded c39f ce41 d9bf
000000f0: a796 bc6d 95c1 a83f 374c ab36 f21c e0bf
00000100: 59bc 1689 ac6e d43f e488 f47d aa28 e63f
00000110: 87ee 7a90 cb75 d1bf 83aa 1c6d 3356 fc3f
00000120: 8da7 4f49 2978 eb3f 9272 265e d8df da3f
00000130: 8c6e 7083 01c1 f03f 18a0 767f 35d5 ee3f
00000140: fcac 2b7b 3344 f23f 0f4a 96fe 27a2 fabf
00000150: a663 a34d d752 d3bf 3e94 dc10 bafe d8bf
00000160: d8e0 eb9d 797d 0040 82a3 48e0 2a9f f63f
00000170: 214a ef7e eb55 bf3f dbd4 6d10 1d5f f3bf
00000180: 4b71 ebf8 b71a efbf e080 d5e5 8244 e03f
00000190: 65b0 093b 29c3 e5bf b070 91dc d074 d13f
000001a0: 6cc1 ba25 6876 b83f f911 3291 fe14 ecbf
000001b0: 9239 4157 0d18 dabf f692 fbb5 a839 d8bf
000001c0: 0fea c7f1 ccce c0bf c8b4 b7d4 424d ee3f
000001d0: 1e84 8885 8195 c23f 61df fa01 fcb0 e03f
000001e0: c403 268b a194 cbbf c525 e39f ac63 fabf
000001f0: 79f1 d57e bb25 f53f 5720 d498 fadc dc3f
00000200: 6941 7618 0d3a c3bf 6e75 6c90 75bc cf3f
00000210: 88c1 b485 d4f5 f4bf e438 d93a c5bd d6bf
00000220: ae3e 6339 3e50 d53f 42af 4e52 7bb3 f2bf
00000230: 0144 9636 2454 ed3f b09a b5f5 d74b dfbf
00000240: a1ee d0d9 8d01 a9bf a8d1 11b0 3475 f2bf
00000250: 3509 6802 25df f23f 5ad9 05c3 7225 f5bf
00000260: 813d 159a 3ea0 c93f bf6b 7a8a c050 d63f
00000270: d621 c720 a074 f9bf 7daf bcb2 98a2 f93f
00000280: d8ea cfa6 bc4c f13f da67 4ff2 21cf ef3f
00000290: 2425 240a 18bb c23f d8e1 2709 d76a 883f
000002a0: 05fe c1e7 6115 c63f 6461 1545 daa0 f2bf
000002b0: 65f9 6749 5a05 e1bf 0626 7b90 ca5d f53f
000002c0: 1a4a 3cc3 de0a eabf 127b aac6 b688 b1bf
000002d0: f7b1 3dd9 8d0a a23f 64c8 25c7 c195 f43f
000002e0: 86a5 679e 9c62 f13f f589 ade5 ddb3 bf3f
000002f0: 6912 efdf 6f27 b7bf 2036 75f9 1ad6 e1bf
00000300: 4a8e 8c48 332b fc3f 4448 2514 780e d03f
00000310: 1699 f4a7 64af e9bf c704 21fd 8361 d03f
00000320: 35ef 6e60 a56e e8bf caea 395f ff82 ffbf
00000330: c0df 09a8 5f59 0140 b813 4ef8 9ab9 ce3f
00000340: 4951 b5fd 45ed ecbf da37 cb02 e1ee ebbf
00000350: fa92 9846 40e1 ebbf 83d2 c68f 35af 0240
00000360: f9ea f98f 685e e33f 5eeb 8470 5082 f43f
00000370: b21d d03d ce7c abbf 8734 1480 1374 dcbf
00000380: 1ded e00e 98f6 f5bf 53bd 1845 7734 babf
00000390: 2e65 a512 6fa5 f7bf 2742 6d19 c5b5 d13f
000003a0: 497e 9cac 465a f3bf f5d4 b302 4e0e d63f
000003b0: 0bef d97d c956 dbbf e3f4 815f f65d f7bf
000003c0: 96a0 5ce4 6683 d03f 4fb6 73bd d4ba a23f
000003d0: 440b 9c76 b702 dc3f da86 6974 a52a dd3f
000003e0: c70a 2879 f1e1 d6bf 36c1 931a 8a00 ecbf
000003f0: 0216 7ace 5c88 b4bf 135f c7ee 0d98 f6bf
00000400: 481b b3cd d795 ee3f 31bd 5b27 e7b6 dabf
00000410: 8e3e 9c33 c559 cc3f d34a 0366 9d8c ec3f
00000420: 84f1 1a21 d575 db3f 40a2 ac41 613a f9bf
00000430: 2eb1 c699 61d2 b1bf 55d2 ac3f effb e9bf
00000440: 6955 929a d384 e0bf 13e6 cdbd 38d9 e9bf
00000450: 5e9a 5d23 863b d83f d7c8 7da3 39ec db3f
00000460: 35c8 1f4d 771a e3bf 2259 3d6e 3171 0040
00000470: 5565 73a7 f78d a8bf 8d37 ac4c df19 eebf
00000480: 6b96 7300 d11a d13f 506a 2438 ff91 f5bf
00000490: 4b3b 9110 4f38 983f 3cb5 a1f3 f507 fb3f
000004a0: 5f00 4fdc de08 b23f 3192 e9f0 1148 f5bf
000004b0: b542 a7d8 819a d8bf 3727 3c20 9b71 f1bf
000004c0: 98e8 b6e6 3ca2 e8bf 81d6 9999 c8ea 0140
000004d0: bcba 36ba 2300 e93f 0cd0 9010 00a9 de3f
000004e0: 81e9 9122 7847 c13f 01d3 73f2 ac14 e03f
000004f0: 0e17 af05 f2d0 ae3f 8d10 3475 5619 bcbf
00000500: 1570 26fa 9d35 9d3f 7d4b 232b b9c0 ebbf
00000510: 4417 790a b04c e13f b413 171d b465 ebbf
00000520: 1c6b 9887 884a df3f 7502 2c0a bc7b ddbf
00000530: df29 bea3 bfc6 f03f 9b57 5775 7ff9 e4bf
00000540: f24b 26c1 9edd e7bf 4c37 ba3d 6778 f43f
00000550: 2914 733a 3a1c f13f 0bed bdc6 eee8 e33f
00000560: c509 bcf7 bf1d c1bf 0d27 2946 71b8 f73f
00000570: 649e 0b92 9026 dbbf b6b4 039a f32a f83f
00000580: 153f 8d86 ce32 c53f 8fb3 1d20 b62d dfbf
00000590: 8f88 88af 2671 debf 8ffb 4615 991a debf
000005a0: 11a3 f711 33de f13f 25e7 93e4 bc9e 0040
000005b0: 297d 871b 22da dbbf ba2f e404 0394 eebf
000005c0: ae50 156e ca95 e83f 5849 18cc 7163 fd3f
000005d0: db2a 6800 5e3e fb3f 35cb 9687 ceec f0bf
000005e0: 4eed bc56 2fb8 b8bf ad52 66b9 e6c2 e9bf
000005f0: 60f3 2184 2898 e23f 134f 4d19 4fd2 f4bf
00000600: e789 b3e9 5536 ac3f 0e28 71e9 223d ce3f
00000610: 17a1 032f dc58 e1bf d716 3c68 9c1a acbf
00000620: b5ec 5c45 da50 e9bf 1fc5 21c0 a301 0040
00000630: d6b2 a881 c1f2 72bf 48ed ee81 392f e0bf
00000640: eef2 a5fc 1a32 d63f 6777 8ed9 edee d73f
00000650: b1a8 a649 0f5e efbf 9eb9 f6c6 0223 c2bf
00000660: 6e22 387f 396d cd3f cd14 ebbe 8a0f eb3f
00000670: 0511 086e 47e0 d5bf 60f2 2554 0464 0240
00000680: 2b5b ad78 bd8f c8bf 21ee 3cdf 6a0b c63f
00000690: 5a90 61dd 3e6f f5bf 2178 6ed6 e4ab f43f
000006a0: b081 ad7f 8a80 e33f bf3a c9fe 3c67 d5bf
000006b0: 47e8 da72 732b e73f 8a0e 9654 39fd b13f
000006c0: 02a6 355e 14c1 af3f 6352 f78b 135b d93f
000006d0: f133 38e2 2ed1 e23f 5813 d0f4 5c35 dbbf
000006e0: 4d36 9556 d349 fa3f 9fb3 f10e 8dc3 fd3f
000006f0: bdaa 64df d49e d4bf 72a9 3ca9 b6e1 ef3f
00000700: 5a7c fe7a db27 e3bf 17ff 6ccc 8cfb b6bf
00000710: 1c99 af69 7080 f33f fda5 7e89 5eaf c9bf
00000720: 47d1 8c5d 46d4 df3f 1eef 64d7 f96b fb3f
00000730: 9208 cc19 052b 9c3f c2a9 8c08 a5f3 e73f
00000740: c31b b53e 4d7f f53f 0dde e2fd 036f febf
00000750: 193a 0618 c227 c93f d608 b452 ab0a d9bf
00000760: 5dd1 0761 0aa4 e0bf 7d4c e706 c81e db3f
00000770: 72a3 d761 2cfa c4bf b148 5483 2310 eabf
00000780: 4367 84e4 f1ab ef3f 7ecf ecbd 86df ebbf
00000790: f796 5486 92c9 dcbf dace b441 377c dabf
000007a0: 1608 d206 59c3 fbbf 9b6f f57f 326d d6bf
000007b0: 68e9 6775 b8c0 d0bf c0a1 6ca4 7d37 e83f
000007c0: 02f9 3e8b c0ae c83f 3abe 7742 73b3 e7bf
000007d0: e6d1 3b25 53cf f8bf 6548 d7b3 037f 00c0
000007e0: e50e ec55 f9aa ecbf bbc4 eb04 d019 bc3f
000007f0: 80e1 b049 ce9a d13f fecf 4077 6551 dbbf
-0.34810638902913893 -0.8467348836599881 0.24371750510683932 1.4076696947360725 -0.4195659382197699 -0.2727311716267403 -0.17411792146955676 0.2564297422333064
-1.1792281211194333 0.32449762714318464 0.44388334815590946 0.5108556714119311 0.22216282411893803 0.4672720880693163 -0.3433383349591675 0.18730072032342715
1.6160480420149925 1.3301187723033248 0.5589299842925776 -1.2533541280227556 -0.22231698702579858 1.8039177321738802 0.8378891866720802 -0.9756296334530847
0.6600244367716567 0.18191574130549348 1.2737701962087482 1.62785639822782 0.0766607257988881 -0.3946415481766106 0.04835192646559721 -0.5035334651714781
0.3192550028570103 0.6924641094267625 -0.27281464681048145 1.7710451376139253 0.858418124376145 0.4199124259410293 1.0471205839484439 0.9635264863509319
1.1416506587364088 -1.6645889229590727 -0.3019312151132517 -0.39054729124683607 2.061267122040686 1.4138592492183482 0.12240478371612841 -1.2107210771330787
-0.9720115529740182 0.5083631981797474 -0.6800733712275472 0.27275487460952785 0.09555674477701864 -0.8775627933360389 -0.40771802445387906 -0.3785192277121462
-0.13131105237683058 0.9469312815323514 0.14518755932024957 0.5216045416518506 -0.21547335905418497 -1.649334549484011 1.3217120127220296 0.4509874813525178
-0.15020908064299057 0.24793881942688806 -1.3100171301740335 -0.3553326677982922 0.3330226478983417 -1.168818780434734 0.9165211740638598 -0.48900412554796
-0.04883998187912409 -1.1536147000998458 1.1794786542892102 -1.321642648513793 0.20020277522642618 0.3486787178350674 -1.590973022497669 1.6021964055935023
1.0812345996952697 0.9940347416515991 0.1463346528546846 0.01192253109637502 0.17252754036233867 -1.1642706583571334 -0.531903403636346 1.335398258570764
-0.8138269246285887 -0.0684923396133679 0.03523677136294972 1.2865617541506476 1.0865751445474827 0.12383829934473296 -0.09044551102767574 -0.5573859092925808
1.7605469545313945 0.25088312117907585 -0.8026603012447449 0.2559518787348449 -0.7635065921271919 -1.9694818229460673 2.1686394813550294 0.24003922580973636
-0.9039640383948974 -0.8729100279394928 -0.8712464693859083 2.3355513794470553 0.6052744686161012 1.2818149943620578 -0.053686566396261695 -0.4445847273607985
-1.3727036076732653 -0.10236306607179317 -1.4778891304361639 0.27671935542187714 -1.209540056479357 0.3446230913535396 -0.42717206278005965 -1.4604400378005316
0.2580201368423415 0.03658165753027431 0.4376658113762242 0.45572792404537454 -0.3575404818695173 -0.8750658530316631 -0.08020572701396847 -1.4121226622864398
0.9557913796969411 -0.4174135097845975 0.22148957271609898 0.8921648971975976 0.4290669272702632 -1.576752907314713 -0.06961641315746611 -0.8120037311223977
-0.5162141818024512 -0.807766314231403 0.37863305524516544 0.4362930389971899 -0.5969807154017476 2.0552700626823404 -0.0479581252963707 -0.9406582353128542
0.26726174396603736 -1.3481437867218524 0.023652301202953734 1.6894435421812224 0.07044785383823314 -1.3300952349319568 -0.38443037183337064 -1.0902358302286765
-0.7698044305937115 2.239640426642666 0.7812670361507439 0.47906495683423667 0.13499356925951747 0.5025238738440693 0.06018787688621617 -0.10976162301455102
0.028524845498040536 -0.867275795224813 0.5406112865973474 -0.8561649864355929 0.4889241527723003 -0.4606771563849528 1.0485226055339962 -0.6554562846965725
-0.7458032391026548 1.2793953334070975 1.069391468351805 0.622184169929285 -0.1337203941003066 1.482529901566923 -0.42422880422825515 1.5104862228575207
0.1656129986754357 -0.48716500412302194 -0.47565619604041215 -0.47037341192111 1.116747923073664 2.077508722079886 -0.43518879593280474 -0.95556784587233
0.7682850027145116 1.8367784473853899 1.7027263656515774 -1.0578141495177082 -0.09656043880106788 -0.8050416585052368 0.5810740071025116 -1.3013449657782459
0.05510204770850518 0.23624073408638008 -0.542097179245533 -0.05489052555462386 -0.7911197046991193 2.0008006105714595 -0.004626041302384384 -0.5057647264251637
0.3468081919925642 0.37395807500603556 -0.9802318991180724 -0.14169344630267927 0.22989577018622093 0.8456472138283516 -0.3418139051939451 2.298836381347698
-0.19188660042228753 0.17222343349736582 -1.3396595618915144 1.2919662834388037 0.6094410413461926 -0.3344261634964986 0.7240540736450009 0.07027014079181462
0.062019955158415754 0.39618385952534235 0.588035051188511 -0.42513202579021003 1.6430238134520494 1.8602419456248993 -0.3221943074774279 0.9963029199036966
-0.5986153986194822 -0.08977584830153905 1.2188572052342073 -0.20066434587106122 0.4973312295508276 1.713861314185983 0.02750785798981121 0.7484917799932236
1.3435795259008365 -1.9021034161977497 0.1965258233362455 -0.39127619816293924 -0.5200244803550437 0.42375374483271583 -0.16388468530137917 -0.8144700589202981
0.9897393668390823 -0.8710359296296557 -0.4498030006237594 -0.41383153359059366 -1.7351923242972638 -0.35041487213106287 -0.26176272836132464 0.7567737780964805
0.19283301161880934 -0.7406555460165187 -1.550616403049497 -2.062018780715379 -0.8958708456197796 0.10976886863842854 0.2750735969198317 -0.426843038995912
