exp/exp_second_round/user_load_15minutes/model/_emb_empty_token_40_6306166.pth (torch, 2944 bytes, 1 tensors)

weight f8 [1, 97]
0	0xbfebfc532defd75d	-0.8745513817982374
1	0x3ff66d1e547c1d74	1.401640253084989
2	0x40020eac2365c7d4	2.2571642651973693
3	0x3fb0967b954639a9	0.06479618448631776
4	0xbfe2761fabce4ccf	-0.5769193988402551
5	0xbfe8d92ede5602a6	-0.7765116064548081
6	0x3fbb6c477028dd21	0.10712095726272654
7	0x40044070cf034e3f	2.5314651654132656
8	0xbfec1d27d1eb4bdb	-0.8785590267165121
9	0x3fd282a67d85320d	0.28922426469651513
10	0x3ff58ee65b8db98c	1.3473876549065578
11	0x3ff1d3ea8fd57c58	1.1142373674881778
12	0x3ff31f4c1a94c8f6	1.1951409376457014
13	0xbfc0517b62769a0b	-0.1274866324212812
14	0x3ff65096a873cfbe	1.39467492868151
15	0x3fc979d4bb51417a	0.19903048654897387
16	0x3fc95bc8a268799c	0.19811351709445268
17	0xbfa78f7121e09d52	-0.046016250024247043
18	0xbfe09c1125407034	-0.5190511443684103
19	0x3fd0685cf595b30f	0.25636981947791154
20	0x3ffb58018ef747c3	1.708985861263941
21	0x3ff8951ab9d13009	1.5364024408800125
22	0xbfe0e4a03d36f68a	-0.5279084392165754
23	0xbffc2013eb1cb7aa	-1.7578314956731256
24	0xbffc20a123cc1747	-1.7579661749200157
25	0x3fd66089a8d9d9ea	0.3496421956000676
26	0x3ff1285f0e2482e5	1.0723562767454322
27	0xbfc16ea8d8f96a5f	-0.13618956179091676
28	0x3fe9a3d0864e78f3	0.8012468932318185
29	0xbfa5594e7cbe0f9b	-0.041696980216357114
30	0x3ff28e7403da71e0	1.1597786093253646
31	0x3fe0282bc2f4ee45	0.5049036796330674
32	0xbfdb48362799d716	-0.4262824427345192
33	0x3fe32d7c16d4f0c9	0.599302334397657
34	0xbfc3c5003c9755ca	-0.1544494911055792
35	0x3ff68558acca9f4c	1.407555270163317
36	0x3fe1ec98f85332db	0.5601315355393938
37	0xc004896799b51f99	-2.5670921333693966
38	0x3fce6b11581ea0bb	0.2376424484512024
39	0xbfc900e24a000e05	-0.19533947575847335
40	0xbfd1f20722bf4fa8	-0.2803972091035072
41	0x3fd1bc753530ac5f	0.27712755388592386
42	0x3ff2523d95a2f112	1.1450782628226688
43	0xbfc671e31d71b367	-0.1753505605478509
44	0xbfd764708c160984	-0.3655053489711906
45	0xbfe8b2cfdced8c40	-0.771827632427069
46	0xbfd7b015007ee1ab	-0.3701221947517534
47	0xbfd0e6b7467a2db3	-0.26408178217453865
48	0xbfc7b0a96081e164	-0.1850787850596688
49	0x3ffa08d0858008de	1.6271519865845714
50	0xbfc7586ad6ff605e	-0.1823857831757349
51	0x3fc977846a9f63b3	0.19895987707311988
52	0x3fe97dc6fe7d1cf3	0.7966036768420096
53	0x3ff8246f7735e9f0	1.508895364443216
54	0x3fd68b9014c4ce9a	0.35226823833657195
55	0x3fdc471a46536979	0.44183976047283796
56	0xbff0eb8c341adc4e	-1.057506755385265
57	0x3fefd6b0f2c1d8d4	0.9949574223853923
58	0x3fd1915478287eb9	0.2744952367229235
59	0xbfc350391b7e7c71	-0.15088571398243603
60	0xbff8307500eae170	-1.5118303333129823
61	0xbff5e8ab489469f2	-1.3693039736887127
62	0xbfe861bdbd88e87d	-0.7619312955714715
63	0x3fd2d7dabd86c9b6	0.2944247103543164
64	0x3ff79605f7cf868f	1.474126785288181
65	0x3f91b8f770018989	0.017307153903297432
66	0xbfe01a5ab8847ffb	-0.5032170871600096
67	0x400209e54404cbde	2.254831820865987
68	0xbfd30f210019b0c7	-0.297798395250322
69	0x3ff8ea6a7be52dd2	1.557230457273239
70	0x3fe18936344d972a	0.5479994794411358
71	0x3fcb95e776cce732	0.2155122118072597
72	0x3fd922876b83a16c	0.39273248195106336
73	0xbfbba4dfa9f8ae0f	-0.10798452281658676
74	0xbfcdfe65c919de19	-0.2343260986269662
75	0x3fca041c541560d8	0.20325044732704245
76	0x3ff220b4b3ee464f	1.132984831671269
77	0xbfe09562c4f757e7	-0.518235573482113
78	0x3fdd85e1ffcf6ef7	0.4612965582034429
79	0x3fea7931877a659f	0.8272941251809022
80	0x3fd8a07428d9b499	0.3847933196000866
81	0xbfd315a4b98a46d2	-0.29819601172594645
82	0xbfe670adc1644da5	-0.7012547280486855
83	0x3fe5d48d0c38c67c	0.6821961630541433
84	0xbfe6f5255f6f37ba	-0.7174250472978578
85	0xbfc347eabf92769c	-0.15063223222835098
86	0xc00393a1fd6a7a34	-2.4470863149756727
87	0x3feac9b1627c2f8e	0.8371207164322969
88	0xbfbf7a07d49d0604	-0.12295578900104692
89	0xbfc7598f65fd8073	-0.18242065887443779
90	0x3ff1b149d44fdddf	1.1057832997738541
91	0x3fd0401b47cb886b	0.25391275416598685
92	0x3ff2a0493b95816b	1.1641323401928172
93	0xbfa3bfe173ad9437	-0.038573308344702566
94	0xbfe737fb4ee57f7f	-0.7255837002703486
95	0x3fca4a49e2aafe4d	0.20539210860987325
96	0x3fc3aca4340519d7	0.15370609798465182
