exp/exp_second_round/user_load_15minutes/model/_emb_empty_token_96_2735726.pth (torch, 2944 bytes, 1 tensors)

weight f8 [1, 97]
-1.574572290766161 0.6997101753925402 0.12338291201051567 -1.429656554916247 1.7338057842578118 0.6742868671113409 -0.1573315472890206 -1.6878486095612597
1.301172076153612 -0.6461966456601657 -0.8371268870578852 1.0022072856847226 -1.8465501672427136 0.840985717829226 -0.8695602063393287 -0.716842512300613
-0.440179337457878 -0.578190428365191 -1.3362819397337504 -0.4156343683947942 0.8323641847548813 -1.9577253803365164 0.4376256041593264 0.16307067263573605
-1.1576939549527845 0.476023572751314 0.7191068243445745 0.7244872556357329 -1.1749412596377184 -0.024894225837606955 0.18497077742458498 -0.07124060163051804
1.8884763888101987 -0.3654390763762784 0.5561093502181197 -0.7220040849222852 0.27816389924868007 -1.4763533430246987 1.3191343565684983 -0.15941716608895729
-0.4368552220727077 0.4825082580605377 1.7388179758131623 0.006691578454728908 -1.284778307448023 -1.064371307285282 -0.5524171822170143 1.3103770213426036
0.8066646197024566 0.17618529194041835 0.4177617554990153 -0.1580446208441169 -0.482657336265769 -0.28398243729479367 -2.626476777688564 1.7299243081073976
0.1992254507714389 0.9822888920355651 0.09937304955136216 -2.451297562765928 0.23811682843040993 0.9126952208004274 -1.8286529940847869 1.692810050017878
-0.48233801546096733 -0.6552990112499443 -1.509303960265546 -0.506743811548418 -0.7625602143822955 -0.7958767340012058 0.4988839621961111 0.0913193059816096
0.7734419285721671 -2.1788042671414 0.8513591391950776 0.749763487588338 0.8782615240524149 0.04647520719566531 -0.6106964690841886 -2.75466403404427
-0.560376279356291 -1.222695345927635 -0.4543395668435166 2.51015523055944 -0.23233521753951514 0.3055542270433213 1.7367776203031335 -0.7475463362871443
0.35023549764907874 1.0666159457931446 0.9456521019545666 -1.242320429791666 0.16451583611744053 0.7028230591559871 -0.572985256093215 0.6158849030990654
-0.5650650570873108
00000000: 9774 e0b6 7231 f9bf 09a9 ff97 0664 e63f
00000010: d16c f8c3 0596 bf3f 7509 3e8d dfdf f6bf
00000020: 040c 5022 abbd fb3f 3cb2 4b0d c293 e53f
00000030: 4622 1ead 7023 c4bf 8ba2 2a8b 6d01 fbbf
00000040: 5ec5 98cf 99d1 f43f 65a6 7c96 a4ad e4bf
00000050: 4682 5053 bec9 eabf d142 bd81 0a09 f03f
00000060: 4cb1 2b30 788b fdbf f758 4fe1 5ae9 ea3f
00000070: 792c 04ed 6fd3 ebbf e6d5 56b5 5ff0 e6bf
00000080: 0d6b b0f4 e52b dcbf 0b0a 9636 8980 e2bf
00000090: 3a45 d62b 6961 f5bf 3a5a d6e4 c099 dabf
000000a0: 0c49 fc36 baa2 ea3f 1283 31d9 d752 ffbf
000000b0: 4a6b 70d2 0e02 dc3f 681f f4f2 7fdf c43f
000000c0: 24c9 b418 ea85 f2bf d8e2 4593 2b77 de3f
000000d0: dd7d 9c50 ec02 e73f 6060 aae5 ff2e e73f
000000e0: 3ad7 cd34 8fcc f2bf eab8 5337 df7d 99bf
000000f0: 7f8c e057 1fad c73f 3083 26f6 d23c b2bf
00000100: e753 9304 3337 fe3f 27dc 6d94 5a63 d7bf
00000110: e9f8 05d6 a5cb e13f 573a 8a4f a81a e7bf
00000120: dfdb 8cf4 6fcd d13f 031a daae 249f f7bf
00000130: 04de 87a0 2c1b f53f 04f4 621d c867 c4bf
00000140: f7e6 f89a 6ff5 dbbf 43e0 1a51 6ae1 de3f
00000150: fe07 3dcc 32d2 fb3f 8d65 f2e9 a068 7b3f
00000160: 8597 d1b2 738e f4bf f474 3935 aa07 f1bf
00000170: 8adb 6bcc 66ad e1bf c28a 41e5 4df7 f43f
00000180: 65cb 0e52 32d0 e93f b1cc 7559 3d8d c63f
00000190: 06d2 58cd 9bbc da3f 22c7 ea5e ce3a c4bf
000001a0: a6e6 9b98 dbe3 debf d872 34ac c42c d2bf
000001b0: bb01 bf41 0603 05c0 f706 7e1c c5ad fb3f
000001c0: 5b0e cc35 3880 c93f d989 501d e96e ef3f
000001d0: 8748 ed1d 8370 b93f dbc0 86e5 419c 03c0
000001e0: 7430 5ebb 9c7a ce3f ebb4 919b cc34 ed3f
000001f0: ec39 55a4 2942 fdbf aaab b2fd bf15 fb3f
00000200: f46e 8144 a0de debf bf6d cda1 35f8 e4bf
00000210: 5705 d1e8 1b26 f8bf 80a0 41cc 3e37 e0bf
00000220: 2f16 c0ad e466 e8bf ccd6 057c d277 e9bf
00000230: 8a65 88ff b6ed df3f d536 afb8 b360 b73f
00000240: f352 9249 09c0 e83f 7c0f 7eee 306e 01c0
00000250: 53cb 7f85 553e eb3f 75a8 5dff 0ffe e73f
00000260: d77c 64e9 b71a ec3f 9cdd f52d 99cb a73f
00000270: fbf9 4f52 d38a e3bf 2580 0d4c 8d09 06c0
00000280: 0243 293c 9aee e1bf 89b0 bbfe 2890 f3bf
00000290: 18ca 3743 e613 ddbf ce16 f943 cc14 0440
000002a0: 1c48 8510 29bd cdbf 578f 1351 338e d33f
000002b0: d106 7a54 d7c9 fb3f 0522 534b e6eb e7bf
000002c0: dd44 1326 426a d63f bb2d c9e1 db10 f13f
000002d0: 913b 6932 c842 ee3f d5b9 1163 8be0 f3bf
000002e0: 5635 e6db da0e c53f 6f63 bec8 867d e63f
000002f0: 5f56 002d e555 e2bf c223 9d41 54b5 e33f
00000300: 0aad 8950 0315 e2bf
