exp/mmd_vit_exp_30/model/_emb_empty_token_25_4537398.pth (torch, 2368 bytes, 1 tensors)

weight f8 [1, 25]
0	0xbff0e669e34998e1	-1.0562533262651004
1	0x3fcc109bf63703d2	0.2192568733426286
2	0x3fd59cafad8b6db8	0.33768836925238643
3	0x3ff2ba743b782e10	1.170521004011679
4	0xbf84b8660e740348	-0.010117337528301143
5	0xbffecd0355248404	-1.9250520063289978
6	0xbfe47c33988ade64	-0.6401613215775339
7	0x3ffe47c84095940a	1.8925249598335108
8	0x3feecb2e65959dfc	0.9623023971625453
9	0x3f67879853cad99c	0.0028722739355899318
10	0x3feb1920acc6a1e5	0.8468173384217691
11	0x3fe531a47252cfcd	0.6623098595505269
12	0xbff177e898202579	-1.091774553528323
13	0xbff93367aae3aa4f	-1.5750500369419063
14	0x3fe47c13c5f1c3a0	0.640146147356166
15	0xbfe7c99a3a00a14f	-0.7433596737728666
16	0x3fe81e32dcb44227	0.7536863623263955
17	0x3fe426d79dab7ac1	0.6297414855469797
18	0x3ff1b4ada614ec92	1.1066109168594136
19	0x3fb69b6f9ab65fd6	0.0883092644420452
20	0x3ff0da409acda412	1.053284268093425
21	0x3fc0664d0c169695	0.12812197771306857
22	0xbff89d592fd2561e	-1.5384151332886016
23	0xbff17488bb6afcf5	-1.090950710393199
24	0xbff4d25c6785cd73	-1.3013576549390933
