exp/em_trans_half/model30mr_emb_empty_token_49_4542030.pth (torch, 2605 bytes, 1 tensors)

weight f8 [1, 49]
000000 13 4c ed c8 6c e4 e0 3f 5e 90 83 9c cd d9 bc bf
       0.5278839039186799 -0.11269841261997857
000010 71 0d 53 8b 62 e6 cf bf fb 4b fa 82 5c f7 f0 3f
       -0.24921829035711654 1.060390960342146
000020 ea e0 f2 b6 02 61 07 40 22 ec 3e 64 c7 37 f0 3f
       2.922368459021631 1.013617889008636
000030 8b d0 0e 87 3c 0f 01 c0 d3 d2 0d cc 76 64 be 3f
       -2.1324396659275116 0.11872045976435723
000040 72 b6 8e fe 90 55 c9 bf db c4 6a ea d7 0b cc 3f
       -0.19792377881588014 0.21911143251558127
000050 6f f5 92 25 cf 58 e3 bf c0 e6 cb 25 70 f1 f2 bf
       -0.604590962778884 -1.183944842951334
000060 11 c7 58 01 8b b9 de 3f 9f 81 14 83 d7 2f bb bf
       0.48007464534303873 -0.10619875860402893
000070 55 a0 0a 0b 67 51 e4 bf a5 1a 69 00 db 4f 8a bf
       -0.634936830106208 -0.012847624731091864
000080 ca 92 43 20 d6 29 cf bf 1e fb d5 24 e9 62 dd 3f
       -0.24346424651516535 0.4591620311475014
000090 1d ce 1b ed 4e d2 f0 3f 91 56 f7 99 f2 c8 01 40
       1.0513448011450983 2.2231189755064595
0000a0 72 09 f2 1a 6f b4 e8 3f 39 c1 97 17 66 b8 f0 3f
       0.7720256353643846 1.045019237670273
0000b0 96 dd 2d 70 ab cb f3 bf 7e 47 45 8c eb db f1 bf
       -1.2372240430830508 -1.1161914328881433
0000c0 6b ba ca 50 a6 7e ed 3f ee e5 ae 84 e5 dc fd 3f
       0.9217101648299154 1.8664298232018797
0000d0 df 98 9e 36 b9 d2 dc bf 4f 8e 7c 7e ca e9 f7 bf
       -0.4503615411180259 -1.4945778790360185
0000e0 19 9a fe 57 0c c1 cc bf 0d 3c ee cd 98 44 e5 3f
       -0.22464136406524984 0.6646236440736871
0000f0 f5 ae 33 a7 58 93 01 40 6b d9 9f b1 fe 54 e3 bf
       2.196946436180833 -0.6041253537394317
000100 f5 8e 33 96 2b 73 d8 3f 9e 61 8a 34 ac 07 b7 bf
       0.382029434853606 -0.08996082575538941
000110 04 a7 f4 05 63 a7 f0 bf f9 3e 03 2b 56 c7 e8 bf
       -1.0408659203189368 -0.7743330803004645
000120 f3 6c 5e cc 09 75 00 40 b4 d7 b7 df d6 e6 e3 bf
       2.0571475950542832 -0.6219286317343546
000130 8e 5f ec 03 92 6e fb 3f c1 07 46 e2 b4 e2 ef 3f
       1.7144947198157499 0.9964241427808177
000140 8b f9 47 64 c6 34 f9 bf e7 52 b7 1d 07 c7 e8 3f
       -1.5753845135910491 0.7742953853981732
000150 13 0a 31 e7 87 0e d1 bf b1 5d 8c 20 18 d1 f2 bf
       -0.26651189400959757 -1.1760484000604772
000160 bc be cf 0d 8c c7 f1 3f 4f 2b 70 7b 93 47 f2 bf
       1.1112175502311592 -1.1424746343424947
000170 68 7f 86 49 6f a6 ed bf c6 e4 52 00 8f ad f4 bf
       -0.9265667377512559 -1.2923727047585074
000180 77 76 1c 60 f0 5d f6 bf
       -1.3979343180029937
