exp/exp_second_round/transformer_15minutes/model2/transformer_emb_empty_token_40_6306166.pth (torch, 2999 bytes, 1 tensors)

weight f8 [1, 97]
-1.115905736624894 -1.8823059028439058 0.039370820445264465 0.7770673970404798 -1.0467752114759779 -0.8012206037432739 0.2856078408081335 1.005308976949422
0.3770575050483244 0.14905130157376245 1.8850568240528371 0.026061780020742636 -1.9671163789883832 -2.394700151392813 -1.5187978874358798 0.026446932394458472
-1.347502048266035 0.022176315165911654 -0.6309697699736843 -0.19190127142634755 -0.14612699203405682 0.5245894530063951 1.0049440448592837 1.7844467319141237
0.7852800274201431 -0.6116874332113555 -0.1953121555207525 1.169546532225452 -0.38967006709101754 1.408279018113802 -0.16032392376501683 0.0692355970860926
-1.3921802109962829 0.22196005204568373 -0.767429477925869 -0.5510522929798135 -0.7359871137201877 -1.1660355196495265 0.3903423225239204 0.8742769462007521
0.5402790322983445 -1.436102469036175 -0.3402895166249781 -0.6951465659280308 -0.8603398477997767 0.27788050772880607 -0.2131923738590349 -1.070045424815345
1.425299761330571 0.8803641846937631 0.7331183386530302 -0.25087732118006545 0.39378534391248066 -0.6066203710505276 0.10947726418779855 0.8405089041316458
-0.9207068958656232 1.043291171437244 0.6123430840840076 0.9610077673360156 -1.1033396264086777 3.053080720601925 2.318556399780002 -1.1808774854591306
1.2312180507522958 0.4473995316305063 1.1149009160569692 1.0962771989195648 -0.08782914341539086 0.31896986358290247 -0.9989549168865214 -0.932446934940335
-0.6767052146675101 0.9737624243284936 0.1360332717438193 1.4890583667208281 -0.15804605295843288 -0.7043971893439602 0.7142568941061616 -1.0458189327986318
-1.3635389814728258 -0.5629184825187243 -0.3045942568773522 2.4449482298678853 -0.3257618780333154 0.008165131047325847 0.5687330905622536 0.7100023394944882
0.5901114473382095 -0.20318567897477208 -2.333233665060059 0.200413247641778 -1.42564671079002 0.24889637128273198 -0.28673617739702956 -0.3848231511940534
0.22855438389300198
00000000: 3790 43f9 bfda f1bf 6b84 5ccb ec1d febf
00000010: 784c 7584 6928 a43f 6474 2272 bcdd e83f
00000020: 4ed8 385d 97bf f0bf f8ad 3e64 99a3 e9bf
00000030: 8822 f01b 6647 d23f bff7 a5dd be15 f03f
00000040: cb35 39cd b521 d83f e0bf d7f0 1c14 c33f
00000050: 7889 2658 3129 fe3f 1863 7573 f0af 9a3f
00000060: 92e5 3206 4f79 ffbf c3aa 8f8d 5828 03c0
00000070: fd55 7c03 ff4c f8bf f8d9 da96 e714 9b3f
00000080: b787 c94e 5e8f f5bf 9a94 8851 63b5 963f
00000090: d8a6 d983 e730 e4bf 3a22 6b8a 3890 c8bf
000000a0: 2eb0 ec0d 4ab4 c2bf dba5 0fd2 6fc9 e03f
000000b0: 75b0 ef34 4014 f03f 6367 3004 188d fc3f
000000c0: 8316 7f94 0321 e93f e88a 2086 f192 e3bf
000000d0: eb87 3c1c fdff c8bf b9ef b06c 76b6 f23f
000000e0: fbb4 98b8 5af0 d8bf 7f11 6794 4f88 f63f
000000f0: 8d27 ab8c 7e85 c4bf 472c 3491 6cb9 b13f
00000100: eee0 c5c1 5e46 f6bf 69ff 46de 2f69 cc3f
00000110: dcb1 b543 c88e e8bf d37d 176b 38a2 e1bf
00000120: 9894 f6d8 348d e7bf c2e7 6ddc 14a8 f2bf
00000130: f808 5f5d 5efb d83f 0587 72a5 13fa eb3f
00000140: 09f3 cd40 f749 e13f 8f71 2395 46fa f6bf
00000150: 06dc 44ae 4dc7 d5bf 9fcd d202 a43e e6bf
00000160: 6fdc b76e e787 ebbf bd07 3953 cbc8 d13f
00000170: a896 bd40 e349 cbbf b40f 8df3 e71e f1bf
00000180: 2095 5e1f 07ce f63f 948a ba82 f12b ec3f
00000190: 909a 1397 b475 e73f acb1 71c0 5f0e d0bf
000001a0: cae2 6f71 c733 d93f 18fb d71f 6f69 e3bf
000001b0: ee96 57b5 b306 bc3f 40c0 e7ed 72e5 ea3f
000001c0: 9539 de4e 6e76 edbf b474 5815 52b1 f03f
000001d0: aa52 0286 5098 e33f 1020 7d5c 93c0 ee3f
000001e0: e7e5 bc73 47a7 f1bf 5d44 b895 b56c 0840
000001f0: 94e4 374c 678c 0240 2d13 4aca dfe4 f2bf
00000200: 9c9d e3b2 11b3 f33f ca51 26a5 31a2 dc3f
00000210: 07ec cb57 a2d6 f13f 3b5c cbf5 598a f13f
00000220: 02d4 9a82 f87b b6bf a6e1 1f93 006a d43f
00000230: 9d97 464d 70f7 efbf ac5f 5af4 9ad6 edbf
00000240: 9cf2 c0b1 91a7 e5bf d510 d2d0 0f29 ef3f
00000250: f05e a7ca 8969 c13f 096b aedd 2ed3 f73f
00000260: 00f3 5b62 da3a c4bf 580d 74f9 6b8a e6bf
00000270: aa1c 2446 31db e63f 2086 1ea2 acbb f0bf
00000280: 74f3 4340 0ed1 f5bf 786b 179f 6d03 e2bf
00000290: 129c f5e8 787e d3bf b590 7d04 418f 0340
000002a0: c1f1 1b59 48d9 d4bf facb 8656 e1b8 803f
000002b0: b8c5 03bd 0f33 e23f 4bcb 86d3 56b8 e63f
000002c0: c102 ea66 31e2 e23f 6629 1b03 fd01 cabf
000002d0: 95df 6a69 76aa 02c0 333e 272c 24a7 c93f
000002e0: c3e3 e7ec 72cf f6bf e34e 6017 d6db cf3f
000002f0: db04 20b2 e259 d2bf dcd0 4748 f1a0 d8bf
00000300: 88c4 1622 4541 cd3f
