exp/exp_second_round/transformer_15minutes/model/transformer_encoder_96_3438.pth (torch, 52424 bytes, 66 tensors)

linear_map_in.mlp.0.weight f8 [8, 97]
00000000: a501 50cc 7a26 a1bf e856 f3a6 573f b8bf
00000010: f61d 5af5 b7c4 b73f c769 721a 601f a03f
00000020: 93d6 e53c 5847 a2bf 8811 6a58 f361 b03f
00000030: a64d ae01 86a8 ad3f b5bf 3bc8 b36e b13f
00000040: 87c9 aacd 1e5b 973f 3f18 8efb 1750 9d3f
00000050: 1f47 f2dd 8bdc a03f bc2b ba13 688f a73f
00000060: d695 aa11 4e6a 943f 92ad cf41 9ee7 9e3f
00000070: 4bc5 b2e7 63be b1bf 3110 6ae4 f917 a2bf
00000080: b3ef 20a7 3118 b7bf c4da f46f bd6b adbf
00000090: fe53 c5f3 3a91 94bf ac16 2baa 073e a33f
000000a0: a113 4161 3b80 babf 71c8 8553 a09b b5bf
000000b0: 4145 f8b4 320c a03f 4be4 86b5 3e52 a23f
000000c0: d095 6f56 16da b8bf a786 e5ef 9850 aebf
000000d0: 04c1 516e b177 b73f 1f97 d2b6 0455 9d3f
000000e0: 30c2 d1b4 0430 b53f d695 d4fc 819b aabf
000000f0: 2068 f08f c7ad b83f b6bc f871 5157 923f
00000100: ff0d d464 c95f ab3f 6754 fa4f be9d b73f
00000110: f2ca fbd1 4782 b33f e1f2 7e33 e5be b83f
00000120: c596 e07e 3eda b23f 4cc0 3fc3 6ad3 b4bf
00000130: e996 c793 f06c b03f 8871 3af0 b48c b93f
00000140: 7b67 0258 8118 8ebf 33a9 4a11 bcfb b3bf
00000150: e15a 029e 50a7 a53f 382f 1534 5a2c a4bf
00000160: 2fdd 8ba4 fb1b b43f ad0f 1be5 6045 b73f
00000170: a3fb cb9f 39f5 b4bf f0de 8744 5e27 b23f
00000180: a27c 6395 7981 a8bf 7b7f 9362 b078 8abf
00000190: 5468 bd5c cd34 b73f 4415 edd5 c38f b33f
000001a0: e667 6937 d4e7 b83f 44f0 4e18 0b64 5c3f
000001b0: 5680 e8cc 7ef9 b83f c94e e961 4b83 903f
000001c0: fefd 2f00 c365 68bf be03 cfea 9d75 773f
000001d0: 4b33 c43f e6b0 a5bf 5c92 57ff 1063 94bf
000001e0: 268d 2916 d2df aabf 737e cd71 0b7c b8bf
000001f0: 96a6 b053 5042 b83f bdbb 15a5 e034 9fbf
00000200: 5526 18a1 ce99 9e3f 6402 2f13 8489 a63f
00000210: fe16 635c 8908 993f 4108 d931 2db8 b43f
00000220: 8a6d 007b 5b64 a83f 9ee6 919b 725b a73f
00000230: 7c35 d93d e8bb 9d3f 7576 be80 19ff a7bf
00000240: 0a73 9f07 0b37 a63f 629a 8a6b 02ba 9abf
00000250: 4366 4b3d 518a b9bf 22f2 5e8a 66f6 acbf
00000260: f03f 7889 2aa2 933f 6906 9fa0 86c5 b8bf
00000270: 0e01 a201 ad4d b1bf 71b4 2e59 6935 b0bf
00000280: 5b41 2ec7 daa7 afbf bf89 d97b c8da a83f
00000290: da9a 2a17 52c7 babf d9b4 0f34 6086 9f3f
000002a0: 243a 83a0 283e 8d3f c811 3ac2 0117 af3f
000002b0: 75ac df0e dc3b 92bf e3ee 8a51 5355 b03f
000002c0: 8e18 d054 0032 b33f c7ca 1b30 d8b0 b3bf
000002d0: 37e3 edca b44f 9ebf 848e 2886 3e0a a2bf
000002e0: dd98 f5b9 0b70 95bf 4b42 4904 31ee a7bf
000002f0: ae57 c920 dc91 b53f 3534 aa00 3add b8bf
00000300: 51d0 bc4a 5215 9bbf 0875 a55b 3893 7fbf
00000310: 9c4d 9d37 cfae a93f 14df bc50 fe0d b13f
00000320: 977d 3eaf bc98 b2bf c478 d6a3 f9e6 b1bf
00000330: 393e 7a36 af07 b13f 6f24 d95d da76 ab3f
00000340: a9a7 3afa f30a 983f 100d d372 8aff ac3f
00000350: 0e80 14b7 c60c 9abf 5ff4 b022 7fb2 b53f
00000360: 1c66 0a92 080c 98bf 4868 6547 880e b1bf
00000370: d6bf 6544 7476 a5bf cb8a 81f4 6331 90bf
00000380: a9fd 7567 b156 b73f 8918 b901 512c acbf
00000390: 85e5 95d6 0c94 7fbf 9a94 7a72 201d b33f
000003a0: b648 cc56 8212 a1bf c257 176e 979d b23f
000003b0: 3eeb 6593 870e ad3f e4e2 9d8b e411 a43f
000003c0: 0e11 7e91 5939 a8bf 2e14 25f4 509a 963f
000003d0: 8397 c929 09d2 a1bf 1bf7 92b7 d11e 6cbf
000003e0: 9f80 93d6 cb16 b1bf 864b 9e91 421e a03f
000003f0: c8bd 86df 722b a53f abff 8cd7 dddc 6e3f
00000400: 2df8 646b 0444 a43f 7fe8 d62d ea3f b0bf
00000410: 2060 aea9 eac4 48bf f055 5ae0 dc78 a8bf
00000420: ee8e 3c93 43de 9c3f ae67 477d 1f8e 9ebf
00000430: 4401 7a1b 63ac a03f 8fe0 bef3 0b46 b53f
00000440: 1a69 2ffe e1e9 b43f 3115 2067 e57b 84bf
00000450: f47e 9fea f411 a8bf 243a 969b 3d94 8c3f
00000460: e963 0193 7572 923f ef29 0358 5f93 b5bf
00000470: 5832 8c06 d81c b13f 099a eacc 685e bb3f
00000480: a3a6 ef80 8474 adbf f907 2a6d 2690 9f3f
00000490: 135e 5c42 7242 99bf 466b 512d 82a2 9abf
000004a0: 1894 3245 58f8 9c3f badd f464 fa6d ae3f
000004b0: cb2a 5e40 ab92 b4bf 66a1 ee61 1ccd 93bf
000004c0: ddd7 5495 725d b73f 077f afe1 f0cb b1bf
000004d0: 3b4d 760b 3c24 bb3f dcd6 76f3 1700 b6bf
000004e0: 638a ca53 ceab 88bf aea8 092f d088 a93f
000004f0: 27c2 897b 3e36 873f 7321 d258 589e b5bf
00000500: 57fc 3171 e025 b33f f4f8 a54e 2b5d a0bf
00000510: d2e3 51a7 f0fa b5bf 1209 37a2 dbf5 bd3f
00000520: 0701 130f 37c3 9e3f df8b ec4a 0db8 a5bf
00000530: 432e 2dbc 1e61 72bf 08c0 7926 87a8 b23f
00000540: 95cc 7c46 70a8 ba3f 9712 3bc9 8168 b1bf
00000550: dd40 4f34 996e 903f 18a7 99ec 0d5d b73f
00000560: 1bb0 f5cb c854 8b3f e098 2615 6d8b 91bf
00000570: 9a02 13aa 583b 963f c2a6 6c50 e7bc b83f
00000580: d05e 56c4 ccb0 a33f d3d3 7e85 5613 78bf
00000590: 8f8a 5f90 b976 b93f 0c18 1fd5 5456 b1bf
000005a0: d8b4 f833 8a1f a83f b5b5 d9b5 4edf b83f
000005b0: 09d1 49be 9d04 8d3f 9aee 55df 0975 873f
000005c0: c15c 9f0b 83e8 5fbf ec18 3a5d 24da b23f
000005d0: 88db 5aae 92d1 afbf 175b 64ea 8ea7 b1bf
000005e0: b7f3 4f64 92bb b43f a6cb 9904 f1ce b3bf
000005f0: d9d2 4bf6 8de3 aebf 5684 9baa cd74 b23f
00000600: 9836 18d6 20ed 81bf 78c2 b6bb 7a76 b1bf
00000610: eaf6 a680 f1cd 673f 54d7 5bc1 89eb a93f
00000620: cc90 00bd f5ce aebf 72f7 ed3a 1395 8b3f
00000630: d8f5 57dd 2506 bcbf 6ee9 fbcf 02f5 b03f
00000640: 37a1 9cad a5a1 8b3f 63f6 534b bce5 6d3f
00000650: 133a ce5d 1741 b9bf 875b f483 3c8f b3bf
00000660: 41f0 4757 f2cc a83f 5c30 23af 3836 8fbf
00000670: 5b75 dde2 fd3d b63f f242 efd0 5904 a4bf
00000680: a62d 354d 715e b3bf 943f 7a2f 208c 81bf
00000690: e7d3 8f05 38ed bb3f 3f94 1e9a 0c6e b2bf
000006a0: 7693 f26d 1412 ab3f 495f 10e0 d75d bc3f
000006b0: 7c31 34cf 64c2 b63f 6721 84dd 8181 ac3f
000006c0: 48d1 e05f 9c06 b53f 05a9 60e5 8948 ae3f
000006d0: 819d 7f30 d13f 75bf 9698 6030 e44f a4bf
000006e0: 67c7 2dfe 8e7d a9bf 001b 454d 3e72 a1bf
000006f0: b605 de58 cfb9 b4bf ae7e 4a80 ab69 80bf
00000700: 4460 01d6 2135 b33f afc1 634f ebb6 803f
00000710: 2588 218e 116a abbf a74b ab08 46ef 9e3f
00000720: 6344 ec06 0afc bebf 475a 79bd 1c06 a83f
00000730: c2da 370a 1b65 b1bf 083d d135 6c54 b5bf
00000740: 53b7 ee05 ee25 adbf 2344 d490 da6f 9e3f
00000750: fc83 e362 28fd bc3f ca78 0fe5 681d 833f
00000760: 00b9 a0ed 10e4 aebf d1c8 fc7c 57d5 70bf
00000770: 0f61 22cf 0250 8d3f 6e76 1ca8 28c3 513f
00000780: a01f e5c3 c868 8e3f 8377 8163 17e1 bd3f
00000790: 6bf2 d66b 9c2a 9abf 8015 f4be 4957 b6bf
000007a0: 7296 1fdd 246d 9e3f 32ef 9744 79cf b3bf
000007b0: b2f2 6f94 4f5b 99bf 1ef0 c7d8 03b6 973f
000007c0: 62cf bbe5 54ea b33f b028 dd33 8c46 573f
000007d0: 4676 6019 0695 b7bf c0a8 b904 c6ce b33f
000007e0: a1b8 f16c 51fb a0bf 1dfb 6944 54f7 a0bf
000007f0: 477f 2b4c d8af 9abf 4947 08b2 c5e6 a93f
-0.03349670166062716 -0.09471652818623577 0.09284543743171256 0.03148937533224543 -0.03570056670552648 0.06399460705330828 0.05792635698812924 0.0680954326487598
0.022808533957410695 0.028625845650388945 0.03293263515764821 0.04601598015604888 0.01993677122904621 0.030180428282546475 -0.06931137472817743 -0.035339173443418644
-0.0902129204777669 -0.05746261588722271 -0.020085259560193684 0.037582625887393334 -0.10351916431780107 -0.08440591849446989 0.031343063918152676 0.03578372922806546
-0.09707774744273157 -0.05920865944314118 0.09167012160628835 0.02864463201389988 0.08276395239386924 -0.051967680085265464 0.0964016653455535 0.01791121729018804
0.05346516948523216 0.0922507233866142 0.07620667339851275 0.0966628313753506 0.07364264104452463 -0.08135096804449055 0.0641622887411263 0.09980326523731808
-0.014695177553494912 -0.07805991575392994 0.04229213646720154 -0.0394008816316202 0.07855198638195725 0.09090238183404038 -0.08186683799065846 0.07091321156610397
-0.04786281536666449 -0.012925508507066521 0.09064944757611332 0.0764124295502216 0.09728742935968135 0.0017328365658917525 0.09755699637071422 0.016125848628077564
-0.002978211270146635 0.005727402557511972 -0.04236526039503604 -0.019909158310741012 -0.05248886604820262 -0.09564277199160091 0.09476186793531335 -0.030475149227125565
0.02988360269777098 0.04401791319060491 0.024446626914843776 0.0809353110026061 0.047640665783741445 0.045619565477818855 0.029037121558123755 -0.046868130651302055
0.04338869541218145 -0.026100194753463042 -0.09976680513809648 -0.05656738700006182 0.019173302307592566 -0.09676400586524782 -0.06759148874153117 -0.06331499507241901
-0.061827503980682784 0.048544182890299485 -0.1046038919981628 0.030786040475437957 0.01427871455998992 0.060722403487520504 -0.017806471259899277 0.06380196324146996
0.0749817092001612 -0.07691718267941915 -0.02960093010503614 -0.035234407307396715 -0.02093523333078272 -0.0467391317112101 0.08425689506961362 -0.09712564960700905
-0.0264485223880942 -0.007708759449397869 0.05016181520354765 0.06661977263581448 -0.07264308241291527 -0.0699306511873799 0.06652350502030736 0.05364115138633784
0.02347928252007817 0.056637121693279835 -0.025439362453767038 0.0847548923201926 -0.023483404077159972 -0.0666279959017696 -0.04191935858659661 -0.015813409613097556
0.0911665799703686 -0.05502560754807557 -0.007709550999942198 0.07466318888562498 -0.0333443385080882 0.07271715581677454 0.056751476996359504 0.03919901089006375
-0.04731254483252388 0.02207304468290177 -0.03480557093716554 -0.00343266449325953 -0.06675409306217482 0.03148086574142099 0.04134711245148598 0.0037674267627209788
0.03958143053976957 -0.06347526187065176 -0.0007558961691414047 -0.0477971099727873 0.02819161974106426 -0.02983903123990899 0.032565209487986496 0.08310007763691572
0.0816937680787401 -0.01000193806613456 -0.0470119987874095 0.013954621611245228 0.018014752480983196 -0.08427997492541527 0.06684637222151346 0.10690932276575195
-0.05752958368232199 0.03082332650456718 -0.024667535114614902 -0.026010545745843737 0.02829111025188888 0.059432816337387576 -0.08036299058418732 -0.019337123372367947
0.09126964708124725 -0.06951814184094128 0.10602164535366836 -0.08593892759275995 -0.012046443874458029 0.04987192701521913 0.011333931107601348 -0.0844474045608246
0.07479670299106665 -0.031960824347139566 -0.08586029133756704 0.11703274450613702 0.030041561408098463 -0.04241982974624369 -0.004487152155728649 0.07288403214784023
0.10413266869436406 -0.06800089991436163 0.016046899621699907 0.09126364733097281 0.0133453070872847 -0.017133430877628864 0.0217107633404817 0.09663243974196248
0.03845825096794686 -0.005877817129591417 0.09946784758316539 -0.067723562270743 0.04711563000123825 0.09715740146358239 0.014168960923804723 0.011453702095187968
-0.0019475249996412788 0.073641083488926 -0.06214578989368308 -0.0689629862066393 0.080987119188605 -0.07737642633746464 -0.060329853358700176 0.0720947782060802
-0.00875306752552811 -0.06821410258158689 0.0029058186384805966 0.050625138142932485 -0.06017272884517552 0.013467931972396239 -0.10946880964180339 0.06623857095465777
0.013491911278450714 0.0036495854970997484 -0.09864946403670442 -0.07640436383768022 0.04843861880723966 -0.015240137905856148 0.0868834189290814 -0.03909569430800798
-0.07565982947305958 -0.008568049858950912 0.10908842216288371 -0.07199171793634294 0.052872312947591135 0.11080693455039382 0.0889037137860153 0.05567556218199137
0.08213212338234144 0.0591471760274818 -0.00518781389835199 -0.039672022729335385 -0.04978606083649489 -0.03407473271595585 -0.08096023482905576 -0.008014049389486768
0.07502948260059933 0.008161390648155768 -0.053543614006017294 0.030209631232377323 -0.12103331250206532 0.046921632889894975 -0.06794899939982726 -0.08331943811321108
-0.05693000624101665 0.029723563279791542 0.1132378808429308 0.00933343838726976 -0.06033375645380268 -0.0041097085484571175 0.014312765070187554 0.001084127143662707
0.014848297575227154 0.11671587161387546 -0.025553173143395485 -0.08726941024732149 0.02971322631483137 -0.07738454746862258 -0.02476238578309404 0.023155269724142717
0.07779436691981581 0.0014206284681273322 -0.09211767310667893 0.07737386336671914 -0.03316740469823399 -0.03313697180873574 -0.02606142010597459 0.05058877752538977

linear_map_in.mlp.0.bias f8 [8]
00000000: ac4d 1114 1c7e 7abf 212f 54aa 631d c5bf
00000010: 30ca f748 9340 b03f a4ed 3649 2dc8 c8bf
00000020: 726c bf1b 329c c43f 54be a13b 63d0 c0bf
00000030: 4bb4 d75f 3362 b53f 22b3 154d aed1 c7bf
-0.006467923814017434 -0.16495939080083935 0.06348534137195183 -0.19360891413621772 0.16101671557302982 -0.13135948573789114 0.08352967348010158 -0.18608645213989755

linear_map_in.mlp.1.weight f8 [1]
00000000: bae2 abf2 3de2 e33f
0.6213674297024092

linear_map_in.mlp.3.weight f8 [8, 8]
00000000: 959c 2aeb acbd b8bf 7157 e1a9 557a c2bf
00000010: 0543 603b 4ddc cb3f 2721 847b a528 d9bf
00000020: 4db5 f14f 7d33 d83f 3cad 6317 55bb 9dbf
00000030: e38f 47db 29dc c3bf 4517 5942 0486 823f
00000040: ba42 4a8b 33fd b8bf 6bf9 828b c5b4 bdbf
00000050: 4ff1 888d 041b d63f f3ff 215a 8a7b c63f
00000060: 05d1 2e57 9e7a d2bf 4fd0 7f66 388e 98bf
00000070: b46a 8ae4 a54f bd3f 6055 78b4 27aa ca3f
00000080: 07e0 acab 95d0 da3f 0e98 1db3 8fdc d1bf
00000090: 153f 3fa3 46eb cdbf cbbf 4415 0833 d4bf
000000a0: b76a b55c 824a d33f 9840 3758 b8cb b63f
000000b0: 8a98 2d26 6a59 d0bf 4324 157e 0beb d1bf
000000c0: c140 b576 b1ea bbbf b440 000a eeee c03f
000000d0: a9ea 11ba 8abf bebf 094c 2540 6f6c ae3f
000000e0: ad98 d8f6 fb71 c43f 5198 6304 59dc c73f
000000f0: d989 15f5 528a c73f 9356 149b ee62 d0bf
00000100: f2d7 4579 85b7 c83f 09a8 0bac d823 c83f
00000110: e2df 82dc 4ab2 80bf 9d5b 5acc a45e c83f
00000120: 0466 0062 9adf c73f e049 8447 7691 d83f
00000130: 8cf8 cd4b 41ac babf d155 8fb8 9458 d13f
00000140: 1348 66e9 f143 aabf 0ec0 9faf 9016 78bf
00000150: b24f 3415 8f13 d33f cb95 c794 8962 d2bf
00000160: 3e22 0f6e 661c d2bf cc86 d8a4 283b d7bf
00000170: 9a74 686a 4209 bb3f 8405 1473 3142 b13f
00000180: d25a 1e69 902a cbbf 6212 97f0 0df6 d3bf
00000190: 9ba5 7f72 e415 aabf cdb9 b7f5 7668 dabf
000001a0: 21b3 5612 eb42 c83f 3880 be72 d903 8d3f
000001b0: 258d cb5b a241 d73f a06c 71b8 b3d9 bcbf
000001c0: 29fc 80c5 6a3d ab3f d62a 9a7c e6e9 b7bf
000001d0: 05bb d2c6 cb2b b13f a54d a616 37bd c03f
000001e0: 8d28 d258 ab16 72bf 2239 d5ae cf44 d13f
000001f0: a44e 0c38 40bf ab3f 6afb 3f19 e6fc d13f
-0.0966442178856702 -0.1443583564275133 0.21766057395191055 -0.39310586034891276 0.3781426697449504 -0.02903492884881341 -0.15515635687836413 0.009044678950100535
-0.09761354590069518 -0.11603960662885064 0.34539903470774375 0.17564515496269414 -0.2887340403933794 -0.02398002744298849 0.11449658231360155 0.20831772148145955
0.41898099675336237 -0.2790869950462146 -0.23374255152747794 -0.315614720125265 0.30142268231945074 0.0890460219736745 -0.25545743683176936 -0.2799710017466774
-0.10904988430161479 0.1322915600617357 -0.12011019747471131 0.05942104013470135 0.15972852280646546 0.1864119788580774 0.1839088150691868 -0.2560383333633151
0.19310062810444567 0.18859394455586223 -0.00815256581732621 0.19038829782649894 0.18651132378799684 0.3838782976537498 -0.1041909036702881 0.27103155158451125
-0.05129962896457143 -0.005880894832429829 0.298068781573643 -0.2872642472196644 -0.28298340557060786 -0.3629857644865353 0.1056100377831676 0.0674162774994525
-0.21223645336859548 -0.31189297194604226 -0.05094827554405442 -0.4126260184847553 0.18954218287890348 0.014167498411382082 0.3633809944569342 -0.11269686940197454
0.05320295010505333 -0.09341278593107502 0.06707452396470266 0.13077438932360255 -0.004416150402116637 0.2698249060967034 0.05419350322895625 0.2810607191640232

linear_map_in.mlp.3.bias f8 [8]
00000000: 03a8 a198 99a0 cbbf bad6 8f8b 316c c5bf
00000010: 1605 e095 1db3 bfbf b00b d263 c768 cc3f
00000020: ceef b930 3715 a0bf 57b7 adaf c416 d0bf
00000030: 6f3e 6437 ddb1 d93f 6dcd dd98 de72 cc3f
-0.21583862259586803 -0.16736430468124813 -0.12382683667239677 0.22194759725615887 -0.03141186208537726 -0.2513896670924302 0.40148096474965816 0.22225553955250224

linear_map_in.mlp.4.weight f8 [1]
00000000: 4c03 b04f b16c e23f
0.575768142356631

linear_map_in.mlp.6.weight f8 [8, 8]
00000000: 8708 6fdd 90f8 d0bf 06ca 6ad8 9085 b3bf
00000010: b811 8de8 c0c0 c83f cf7d 0500 f662 d4bf
00000020: e2c7 ee26 0477 a83f 08c5 639e 22b5 b83f
00000030: d8c2 ebe3 37d9 a6bf d862 1ff8 501f d23f
00000040: e9c1 b8c2 cca0 c9bf 8b39 09e4 17dc bd3f
00000050: 9840 d3f3 55a2 d5bf b12b 8aa7 9acb d2bf
00000060: 8293 92e0 3ef1 c93f 2075 a5fb 8b25 983f
00000070: fecd 1af3 ed93 97bf bf98 dcaf f16e d03f
00000080: 92d7 a4cc b7de cf3f 1e7d 41bd 653c d3bf
00000090: 60fc 1ce1 f22e 9cbf 41e3 38b0 7adc d0bf
000000a0: 0bc6 d419 f00d d2bf 47ff 44a1 13c5 c6bf
000000b0: c863 9d8c c5cc cc3f fa0c efce 3043 cebf
000000c0: 7f04 06c3 8f93 b63f e2c7 2909 b6a0 c8bf
000000d0: 108b 2a3c 3946 cabf 7b06 899c f0ad c23f
000000e0: 3b92 6885 e106 61bf 1056 ea6d 6bee b63f
000000f0: f54e 05aa 0ee1 c43f 320b 0588 4b5c cd3f
00000100: 3f14 82c3 00a4 d8bf ef35 d19b 746f cebf
00000110: 927b b439 0962 d43f 22fd e9b4 7d49 c8bf
00000120: a5b3 70b4 1120 b73f 43fd 2e8b 10ff c23f
00000130: 663e 685d ab03 d43f e5d6 7822 6029 d0bf
00000140: abf7 88ce 8553 cbbf 4b83 3eeb d955 c6bf
00000150: fc99 6a99 dd8b a2bf 4d63 ad05 5177 a73f
00000160: 42f5 6162 384a 7bbf bb23 3378 3171 8cbf
00000170: 0f47 803f e9f5 d2bf c8a4 9021 53f4 d13f
00000180: 4b32 e9a6 594b b33f e6e8 3ad6 b6fd c93f
00000190: 0842 aad3 38f9 7bbf ee39 8f94 a500 c3bf
000001a0: 11a6 cc2c 5fa4 c3bf e6e7 7b80 d1dc b73f
000001b0: 7b47 e00e ba47 d63f ff2e 481f b796 c03f
000001c0: 27bb 999d d7f6 c3bf 1933 74e1 07c9 713f
000001d0: 6fa4 01e3 22b3 aabf d555 3d7b 2514 8fbf
000001e0: 48ac d083 5f12 b93f 67d3 9c02 e2c5 bdbf
000001f0: 98b9 1831 c02d d1bf a62e 24f3 0029 a4bf
-0.26517125725161644 -0.07625680240270336 0.1933823714736158 -0.3185400963029367 0.04778302169087546 0.09651390425621653 -0.04462599427450237 0.2831613944122586
-0.20021972186942996 0.11663960759435647 -0.3380331879716407 -0.29367700921346357 0.20267473187882606 0.023580729707977643 -0.023025243723806092 0.25677148984904
0.24898431293848639 -0.3005613659097025 -0.027522845258541984 -0.2634569855613798 -0.2821007015473646 -0.17788930296409886 0.22499913564641205 -0.2364254961413293
0.08818911086383883 -0.19240451285764865 -0.2052680534153173 0.1459332241375256 -0.002078476401282251 0.08957549508553364 0.16311820318025352 0.22937912122332588
-0.385009947706127 -0.23777635200751443 0.3184836448216909 -0.1897427686089737 0.09033308654097867 0.1484089545828998 0.31272396203801234 -0.2525253616944226
-0.21348640999525278 -0.17449497210057027 -0.03622334001311242 0.04583218759825645 -0.0066625788223267386 -0.013887773972230613 -0.29625922395017396 0.280537398126921
0.0753685028550503 0.20305524311499495 -0.006829473476174026 -0.1484572387111735 -0.15345372855635778 0.09321317087952216 0.348127855803902 0.12959946658553886
-0.1559705276044607 0.004342108520415854 -0.052147951327079826 -0.015175144980882497 0.09793660133497994 -0.11630070270332525 -0.2684174041231926 -0.03937533348115822

linear_map_in.mlp.6.bias f8 [8]
00000000: ae1c c4bf 4247 953f 1689 8db7 3c3e d8bf
00000010: 9a91 b096 850a d03f bc58 66de c38e c7bf
00000020: 3d8f 11be 7479 bbbf 9255 9b6c 7aa0 cb3f
00000030: e678 3de7 d720 bd3f d700 3584 3a25 c73f
0.020779650644752116 -0.37879865574918037 0.2506422015742601 -0.1840443454681856 -0.10732202186914903 0.2158349066072956 0.11378240008841409 0.18082362609312128

linear_map_in.mlp.7.weight f8 [1]
00000000: f551 c69d 79d6 ee3f
0.9636810380494

linear_map_in.mlp.9.weight f8 [8, 8]
00000000: 2fd2 49f8 e690 cd3f e56f 0e54 480c b43f
00000010: 8b17 f1d9 a972 9e3f 332c 2da4 bbce d2bf
00000020: d7c2 f2e1 e1bb d23f d725 a1e4 90e5 b1bf
00000030: d4ce 9a08 73a3 d73f 8194 5cf5 cef9 bebf
00000040: 9d0a fba6 c071 d03f 6f67 a033 da9e d5bf
00000050: 4c86 b325 3395 c1bf a5a3 ef8a e180 cf3f
00000060: 137a c6b0 20c3 b83f 36b0 4902 43ff a53f
00000070: ba7c b601 0dea d0bf 8d7f ae43 80f2 d23f
00000080: 6249 7b02 42e8 ac3f 8aed 317b 7b0c c13f
00000090: 590a 8e48 658c c73f 6b93 d62f 4a42 bb3f
000000a0: a8a5 e0d1 2f4e cabf 9d53 8a83 c9ad 8e3f
000000b0: 9384 3e87 e213 b93f 08f4 27ad 35f2 cc3f
000000c0: 7f63 e295 20ab d1bf 798d 4fec bf00 d5bf
000000d0: fbe0 ca17 8028 c73f cdb4 db1e 4e2c c43f
000000e0: 3fa2 bb4a 7ffe d03f 8f71 7a72 e7f8 c0bf
000000f0: b68a 9049 50b9 b3bf 7de0 6f6b 9872 92bf
00000100: 51dc c1b5 33a0 a4bf 9557 b571 8ac4 d93f
00000110: 79d9 c8a5 186a cdbf 0fa0 a640 5ead d43f
00000120: dac9 89c6 4f68 86bf 0c8c 83b6 0882 d5bf
00000130: 20cd 1465 6be2 c13f 65ea e33c a499 c33f
00000140: 51c8 c3ba 8d37 d73f de1b 9522 bcc4 d7bf
00000150: 357d 819d 8437 c43f 0f30 7481 6bc8 c0bf
00000160: 57eb de83 ad23 b03f 1f4e 54f5 1804 c63f
00000170: 57ce 49aa 41e6 a4bf d01b 3866 4559 b1bf
00000180: 9047 9307 7b46 97bf 9fbd 2294 8a55 bb3f
00000190: 7b1e 6f07 6a26 a83f 96d0 8075 4133 d9bf
000001a0: 4a19 5286 fe15 d4bf 62fa 4f81 8aab d63f
000001b0: f8f9 44e2 2773 d9bf de79 4a1a d6bd a03f
000001c0: c4bb 541c b011 b93f de86 434d d577 d03f
000001d0: d66a 595e 92fb cd3f 52e4 f8f3 a6fe aabf
000001e0: 0a21 1933 944e a6bf 2f72 e084 861d bf3f
000001f0: 14ce b29e 3efe c4bf dacf 8798 fe0e a23f
0.2309845650048756 0.07831241657407835 0.029734281470403395 -0.2938679793630314 0.29271742882978685 -0.06990914899610999 0.3693511566191152 -0.12099927416109503
0.2569429045362684 -0.33782057801874193 -0.13736571637041306 0.2461206367873078 0.09672741237452724 0.04296311762740894 -0.2642853275992355 0.2960510884240584
0.05645948677342251 0.13319343104727138 0.18397203486172733 0.10648025196003423 -0.20551107166219862 0.01497991020850425 0.0979596691309033 0.22614165263067343
-0.276069780703942 -0.3281707580301468 0.18092347299330655 0.15760208613156693 0.2655332784475241 -0.13259595002899657 -0.07704641147624156 -0.018015271718440296
-0.04028474420277262 0.4026208982880857 -0.22980030150365474 0.3230815535885094 -0.010941146131902824 -0.3360616476404068 0.13972227511985924 0.15312626813086463
0.36276572455165473 -0.3713827455252935 0.1579442757674571 -0.13111633130063224 0.06304439992429188 0.1720000455758148 -0.0408192177173105 -0.06776841874680817
-0.02272979959236171 0.10677400700182325 0.04716807690379895 -0.3937533996097583 -0.31384242169624044 0.3542200339142366 -0.39765355202317165 0.03269833632406337
0.09792614642786562 0.25731403870859804 0.2342398606004596 -0.05272409179855998 -0.043568259465759665 0.12154427284298984 -0.16400892971942993 0.035270649070213

linear_map_in.mlp.9.bias f8 [8]
00000000: b5c6 9a09 306b b9bf c7a8 94c1 eb37 d1bf
00000010: ac54 ff6e c45f a13f 5b1a aa2a 7d58 d1bf
00000020: df0f e1fb 8d7c d4bf 6ff8 16c6 cedf cebf
00000030: b773 5abd 201d c03f de9d c5f2 8dfa c8bf
-0.09929180368888064 -0.2690381422459151 0.03393377165745312 -0.27102593580676676 -0.3201022109753903 -0.24120506927824034 0.12588891263740518 -0.19514631609057081

linear_map_out2.mlp.0.weight f8 [8, 8]
00000000: 2419 e28b 12c2 b23f a843 e856 2236 ad3f
00000010: 9a65 34d2 14cf cabf cf70 b903 43e1 b9bf
00000020: c803 4d5b a1c8 c23f 0787 e008 2ff0 a9bf
00000030: 3cab f1ab 2ada cdbf cd90 61f4 1d6d a0bf
00000040: 4f44 3a65 d2ec c5bf 9d0c d67b 1575 d23f
00000050: 9e70 8779 59e2 bc3f 5e87 ed4b 2bb7 95bf
00000060: 5780 bdfe 839a b2bf 45fc be8b 851f a83f
00000070: 3227 0fb6 d767 bb3f 47f2 0003 f89d d0bf
00000080: 95b6 3109 4aa9 c83f ed57 95bc 006f d7bf
00000090: 69fe 6616 b8d7 ca3f 0c07 e0c6 2575 cb3f
000000a0: ec04 bc65 3494 a5bf bc97 039b 684c 9bbf
000000b0: e7ee da03 3f26 84bf bc59 ec95 3eea bb3f
000000c0: c742 5ab7 92a8 d03f 8325 434a aadf d03f
000000d0: 6df5 3ff7 7229 c43f b970 a0db fc52 d0bf
000000e0: 13fa abad a785 b2bf 64d7 6699 1cbd c1bf
000000f0: 0f28 291e 018c d83f 65ab 85b9 513c 7d3f
00000100: f322 c34e db7f 7cbf 48f8 4d74 eab5 b13f
00000110: 768e cade 340c d0bf dbdd 5e8b e8ac d6bf
00000120: 6acb 5d1f a241 9fbf a65c 90a6 e954 c0bf
00000130: 0eb1 d957 01ac d23f e411 ef2c 7d9c a33f
00000140: b358 babf 99ef cbbf c150 c123 ff1c b53f
00000150: 7645 5385 767c c13f 230c f2ff eb76 b0bf
00000160: 0415 c9b8 b472 d4bf e8a9 f17f 5347 c03f
00000170: c760 2d60 a418 c93f 59f5 1e12 7df6 c0bf
00000180: 92e8 87a5 1547 c4bf c472 ea57 f376 cdbf
00000190: cba4 4fb8 7913 d53f 6f23 1e0b fd56 d4bf
000001a0: b985 fdef 3181 c2bf 1768 22c4 b90f d03f
000001b0: 3fcc 6ab2 ae07 b33f c071 e915 b476 c9bf
000001c0: 488b cc51 8cb1 bdbf 3958 9590 05e0 cb3f
000001d0: 4a75 1091 9125 cdbf ef12 5586 0dec d13f
000001e0: 847f 2d16 852f cbbf 8932 70c2 340f a2bf
000001f0: a2a1 a312 20b7 683f 54c8 51b1 b57f d6bf
0.07327381053082554 0.057053635700987926 -0.20944462074184572 -0.10109347191741168 0.14674775083588387 -0.05066058143007806 -0.2332204188890844 -0.03208249672096173
-0.17128972952608243 0.2883962354027945 0.11282881943719977 -0.02120654726912307 -0.07267022103542452 0.047115491207926165 0.10705326266102302 -0.2596416501362779
0.19266629647193115 -0.36615007797570237 0.20970822423804528 0.21451255999277696 -0.04214633695483791 -0.02665866323595599 -0.009838573746825797 0.10904303703532653
0.26028888612294704 0.26365144016434544 0.15751492569681194 -0.25506516883775593 -0.07235191335710338 -0.13858373155897674 0.38354518838298274 0.0071376030322011
-0.006957871122900572 0.06918206538645777 -0.25074502713162106 -0.3543034897843122 -0.030523808636142936 -0.1275913298893318 0.2917483671106006 0.03830329106816402
-0.21824952947344442 0.08247370360305963 0.13661080846808787 -0.06431460379285218 -0.3195010952516244 0.1271767019964749 0.19606451698451208 -0.13252223381816
-0.15841932852328405 -0.23019258301510181 0.3293136882699172 -0.3178093536922039 -0.14456772058751513 0.2509598174452789 0.07433597427261505 -0.19893504209438895
-0.11599041935964494 0.2177741008733294 -0.22770900328843374 0.2800325214232506 -0.21238769133469415 -0.035272263274326816 0.003017008440213868 -0.3515447837481862

linear_map_out2.mlp.0.bias f8 [8]
00000000: df49 092b d993 d63f 9c1e 0177 8970 cc3f
00000010: f122 8cc8 2b64 af3f 4ffe 6b9c d31c d03f
00000020: d3db 18fc 5711 b4bf 6e97 89e3 cd86 d13f
00000030: 38ee cfbf 6555 bbbf c8f5 9180 fff2 a7bf
0.35277394488107733 0.22218435583839813 0.061311119299778734 0.25175943637438974 -0.078389643714089 0.2738527986569953 -0.10677181179919948 -0.04677580303630752

linear_map_out2.mlp.1.weight f8 [1]
00000000: 6494 1d49 10d1 d83f
0.3877602304476737

linear_map_out2.mlp.3.weight f8 [8, 8]
00000000: 8ceb 0db4 84b8 d23f ad61 0ef7 af15 d2bf
00000010: d5ea 4af3 dda2 d33f 27c3 a0e8 b0c6 c0bf
00000020: ff77 580a 15df d6bf 9920 42ec de15 debf
00000030: ed55 35c7 bcdc bd3f f3b1 b183 3469 c83f
00000040: f0e8 0e8e a196 d1bf b6f9 34b2 3f4d d23f
00000050: f43c abb6 efd6 d43f cdf7 d32e 878a c7bf
00000060: 54cc 1e84 e6ed d3bf 5e2a 6495 13b6 c63f
00000070: 23b7 10ed 77a8 c2bf 994c 4301 dd1e d43f
00000080: dbc1 8a6c 0dd7 d13f 4895 806c 01cc b7bf
00000090: 937b f7ba c74e c03f ef51 2d12 67d2 c1bf
000000a0: bd82 64da 0586 c0bf 2089 d807 ad33 c5bf
000000b0: 5adc 6981 3403 d93f 7049 7118 71d1 d2bf
000000c0: e3e7 85aa 6df9 bcbf 7799 6942 91e9 c9bf
000000d0: cc87 19da fb3f a7bf 75a0 43b4 9b87 b83f
000000e0: 0190 db76 8673 cfbf 6433 7cec b069 c9bf
000000f0: dd77 389c c4b7 c7bf 4052 84e6 2766 cbbf
00000100: 11ca c48e 718d d1bf 2843 c9f4 e3ae 9cbf
00000110: c744 034b bf14 ccbf 624c d41a b6b4 be3f
00000120: 9534 b85d cb89 c1bf 1a95 8370 a7c7 d23f
00000130: eaa7 9ba1 3201 893f 8017 2327 15de d0bf
00000140: 5bb5 f260 9359 a53f 2de8 a525 7c6c cd3f
00000150: a776 07ad 7941 c13f 8ef7 c146 739f 993f
00000160: cb90 c21f e5f2 c83f ed2c 7601 5d22 d3bf
00000170: 9a3a 7c6d 96a8 c3bf 094d 3e75 a96e d53f
00000180: 2339 bde9 0962 c5bf 482d 4209 bed2 c03f
00000190: 79e1 d349 d9e4 d2bf 8f59 973d b4e7 d1bf
000001a0: 1102 04bc 1057 d0bf 82c6 cc03 e63e d43f
000001b0: 9dae f5f2 a456 c7bf 8959 cbd1 bcd8 afbf
000001c0: 7dcd 512c eaaf db3f baeb cee0 17f9 c03f
000001d0: acc4 81a8 876e b8bf 0452 cf6c 6fb4 dabf
000001e0: eb0d 2649 b346 d6bf 3455 ebf7 933e c13f
000001f0: 2c88 3a11 75db c93f 08f6 3f5e d363 b73f
0.2925121076911459 -0.28257369162158846 0.3068156124024147 -0.13106356962955454 -0.35736585626898426 -0.470084887238508 0.11664943564877435 0.1907106059110358
-0.2748187911307829 0.2859648933698752 0.3256186756015744 -0.18391504084132607 -0.31139529135106625 0.17743153376098325 -0.14576624942258673 0.3143837463696371
0.2787507591229123 -0.09295662783604997 0.12740418080553848 -0.1392334784274136 -0.12909005321218628 -0.16563952334497234 0.39082062376059457 -0.2940333117195655
-0.11318097508583906 -0.20244041197583915 -0.04541003262853813 0.09581921721439975 -0.2457130508765886 -0.19853793666006958 -0.18529565456350286 -0.21405504947382958
-0.27425803129440945 -0.028010904136240772 -0.2193831554673464 0.1199449363232801 -0.1370176513304712 0.2934359167832824 0.012209315831075391 -0.26355484792690476
0.04169903334091415 0.2298731979206549 0.13481064747513935 0.025022317117410924 0.1949125676229698 -0.29897236960159895 -0.153582385501484 0.3348792691187588
-0.16705440438313088 0.13143134548259128 -0.2952178212140307 -0.27976709379927284 -0.25531404839424093 0.3163390194996297 -0.18233167517916096 -0.06220045147863391
0.4326119835670495 0.13260172345129978 -0.09543655265749135 -0.41726289392434546 -0.3480652059881481 0.13472222905571984 0.20200980511896327 0.09136696864148786

linear_map_out2.mlp.3.bias f8 [8]
00000000: 4db3 6c00 21a9 97bf 7293 8ef9 7d29 983f
00000010: e96e e870 e9e0 b7bf f91a 7e4e a9c3 cb3f
00000020: ac30 64b2 56d4 a9bf bc43 e2ff 16d9 76bf
00000030: d346 ef99 c3b1 813f f74c 3806 a17f a2bf
-0.02310611310092563 0.023595779759165443 -0.09327563292066156 0.2169086106552738 -0.05044814040783882 -0.005578126756646758 0.008639839301312879 -0.03612998200346767

linear_map_out2.mlp.4.weight f8 [1]
00000000: c11d e7d9 8a72 cd3f
0.23005805625710532

linear_map_out2.mlp.6.weight f8 [8, 8]
00000000: 8f97 444e 468c d4bf af3c bf03 5fd7 b63f
00000010: df2b 9b8b e859 c23f 432a 5790 dc95 b2bf
00000020: 2617 be77 4fe2 d03f f81b e165 3857 bcbf
00000030: 62fd 8171 5bad c83f 0495 e49e 4f7a bbbf
00000040: 25e0 0e36 f6f5 d43f cdc8 7b63 4ef0 a9bf
00000050: 5183 171d 5a6d c2bf 0e82 a2dd 735c c1bf
00000060: de0e c6a9 0086 cc3f 1da4 129a 492a e03f
00000070: b3b0 a4ad 6d4d c13f 99f0 5416 e31a cebf
00000080: f1f3 ffce 9797 d03f 5d30 2e09 9690 cebf
00000090: ff21 d913 d190 a83f c79c 6797 8a15 d53f
000000a0: ce13 e322 9f6c d2bf a8f0 0a7b da9e d1bf
000000b0: e96b 2e2a 496d c0bf 4b7d 80af bb1d d1bf
000000c0: 3158 ee31 bec3 d23f 2e83 9f97 307c adbf
000000d0: fd54 6187 a578 c33f deb4 15cc 40a5 b5bf
000000e0: 3c61 1e5d 15d9 d4bf 3a4e e2f9 d974 bf3f
000000f0: 2666 5d91 5357 b9bf d789 fc35 5909 9d3f
00000100: fae9 e3f8 433c d43f 15d9 9455 fac1 d13f
00000110: 9ad6 34ca f7f4 d93f 62c1 457c 9262 c83f
00000120: 9130 9b98 6fa2 aabf d6b8 a867 796b d2bf
00000130: 2f3d 2a82 b866 993f c268 dd2b b677 cd3f
00000140: 5bc3 dca6 c529 ca3f f280 1645 ecba cd3f
00000150: 1186 1add 9868 cf3f d823 66af 4b2a d73f
00000160: 3889 6e37 062c b33f 2ce6 1d15 caac d23f
00000170: 94d2 69c1 a581 c8bf e0c5 cf13 b0dd dbbf
00000180: 7f31 391a 0056 c1bf ee99 05e2 fb39 c53f
00000190: fae7 f9cb 27f6 ae3f 2494 88e9 f950 cdbf
000001a0: 5bef e9af 2afa ab3f 55fc c076 aaa3 c13f
000001b0: f577 1e91 3452 a8bf b388 f7d6 e856 db3f
000001c0: 8423 37d7 2120 cf3f 8d6e 4a38 8642 d3bf
000001d0: ca31 86dc 2457 d63f 90ab 4768 b3ef c5bf
000001e0: 79d0 e1c6 a950 a83f dbc9 0cac ccef d03f
000001f0: 6542 f4e7 8694 dfbf 77aa 853f 0aec 94bf
-0.32106168406823427 0.08922380296211217 0.1433687860174748 -0.07259920619905195 0.26381289189918034 -0.1107058762291756 0.1927904419171496 -0.10733506802769816
0.327512314597245 -0.05066151585005372 -0.14396215839863172 -0.1356339294625432 0.2228394345257731 0.5051620492205334 0.13517542818715853 -0.235195527939031
0.2592525025827959 -0.23878741691840136 0.04797986380851071 0.32943978105181454 -0.2878797379201473 -0.27532064453022054 -0.12833513793597653 -0.26743976725443436
0.2931972015006777 -0.057588118084601056 0.15211934194909552 -0.08455281240977139 -0.3257497224199317 0.12287676191982025 -0.0989887456793431 0.0283559741211635
0.3161783152169445 0.27746446950495 0.40557665583342273 0.19050818508140838 -0.05202053773754856 -0.2878097069068536 0.024805911011353373 0.2302158083137496
0.20439978263450595 0.2322669350951468 0.24537955089640254 0.3619565213089664 0.07489050725283597 0.2917962270945249 -0.19145652717601946 -0.4354057496521744
-0.13543702392997756 0.16583202873444186 0.060471767091215115 -0.22903369811061325 0.054642995809415416 0.13780718611266943 -0.04750217696640383 0.4271795367514059
0.24316809662402872 -0.30093532082694524 0.3490688470417608 -0.17137758819384574 0.04749041130790572 0.26463619996789384 -0.4934403672387247 -0.020431671263774178

linear_map_out2.mlp.6.bias f8 [8]
00000000: bdf7 fa67 19a2 b73f 03a1 c787 c777 b23f
00000010: 207d d30f fdfc a33f 047e ff87 3e15 6ebf
00000020: 59ef d328 8e2f cdbf 4f32 d27f 3312 af3f
00000030: 3dee ca9d 466e a8bf 70a0 8caf 5a89 b43f
0.0923171881540545 0.07214018883644617 0.03903952425184287 -0.0036722394288373223 -0.22801377290295013 0.060685738900336454 -0.04771633793049233 0.08022085939285417

linear_map_out2.mlp.7.weight f8 [1]
00000000: b7d4 f55d 53e7 e23f
0.5907379946862851

linear_map_out2.mlp.9.weight f8 [96, 8]
00000000: 17ce 0fd9 d112 a0bf 6604 52fd 1d1d a8bf
00000010: f1d4 a759 d37e b2bf 4489 80ca 8fd5 d3bf
00000020: 8fb8 9353 d99c a33f 28d9 b3df 9bb9 933f
00000030: de30 e184 f780 d33f 5ebe 18c9 acab e4bf
00000040: cf93 ec69 332f c13f acfc 2e2b c09b c3bf
00000050: 126c 5f08 b92d d2bf cfe4 dfb7 ba38 97bf
00000060: 8e03 a2f1 b02f 4cbf 9c82 230e d623 913f
00000070: fdf0 6293 06a7 c3bf f28b 1e03 297d e5bf
00000080: 27fd 5b48 01d9 d03f ea91 43d4 18e4 803f
00000090: 89a5 8ea9 57c6 e0bf dde2 cb52 a3a6 c4bf
000000a0: 971e 62fb ca81 d73f 1516 7b0e 4cf7 ccbf
000000b0: 6f94 e04b 1d84 a13f c8b2 8f76 0275 573f
000000c0: 6d91 5040 dc29 bd3f 1ff4 d09a 47ac dcbf
000000d0: 4a1f da99 13f4 d2bf 5cc3 07f1 cbfd 8ebf
000000e0: bed0 fc2a 4ab5 b43f 1e3a b10c 4973 a0bf
000000f0: bd9b a3f0 8bb9 ce3f d107 5567 7ef6 c8bf
00000100: 7f1c 06be 53e3 d93f e1ac d77d cbd7 cbbf
00000110: e7ba 6bb6 59c3 b4bf efe1 0b89 d5ad a03f
00000120: 750d 2108 af3a afbf eaed 91a5 a225 e3bf
00000130: b73b 0c67 548f 803f 00e2 c1c8 2aeb c2bf
00000140: f39f 2b79 9770 bbbf 100d 42c2 42cd c43f
00000150: 015e 4b6d 753a e0bf 295d 94c9 220e d9bf
00000160: a03b a131 8a8a be3f 9aa2 49cc ab14 babf
00000170: 6d85 7b1f f7df c43f e5b9 10cb ada1 e5bf
00000180: ac27 c2d1 0430 c73f 6cf0 1615 3a4b cb3f
00000190: 3729 e5e1 52be e2bf 8221 ad89 e90f babf
000001a0: 4290 1d87 8a12 d53f a1e7 7317 5779 6f3f
000001b0: 96ca d41e d523 a33f 1c11 61bf cfba e3bf
000001c0: 6c41 a0c1 20f6 d13f 03f7 67d4 2080 d5bf
000001d0: d48f 4a58 75f5 e3bf fdc2 084c 17be bdbf
000001e0: f8f0 d966 0c1f ba3f eff2 08fc 9a72 d0bf
000001f0: 2bc6 860d b4c1 d83f ce03 035c fb85 e2bf
00000200: 1e90 f7e2 81af 943f ea8e 82d6 5be5 cbbf
00000210: 1fa3 db6c 72e7 e2bf edaa d047 4cd5 e2bf
00000220: a6c0 2392 639d acbf c0dd 8381 743f a73f
00000230: d8a0 3dcc 81b8 c13f 8bf9 6541 ff31 e3bf
00000240: 6d7b 462d 2245 cf3f 1fa2 d37e 5e55 d4bf
00000250: 107f 424c cc46 dabf 4c0a d3eb 2b84 dbbf
00000260: 5524 69e1 61ba c03f 4e0e 9368 c3c9 c4bf
00000270: f86d 48c0 dd17 d23f 6366 8072 554b 61bf
00000280: a5f5 073d ec8c 94bf 7472 b142 4769 c6bf
00000290: 4c86 8a46 f0ae d0bf 99b3 98de ae5c d1bf
000002a0: fcd0 bfbc 4837 de3f 40b5 ee8a e70b c1bf
000002b0: e594 4ffb 6c80 db3f bd34 1246 fd84 b6bf
000002c0: f7f8 33a4 3b22 afbf 648e a40d 8dbf ad3f
000002d0: f845 fc91 129b d8bf 152d 46a0 8313 ddbf
000002e0: 0aea dcc4 7c83 c83f 3073 ec38 749a a6bf
000002f0: fabf 16a7 8216 bf3f c923 2372 86fd b5bf
00000300: 12f5 8d11 6a3a 7abf 3e6b f9e9 35da d7bf
00000310: 5b38 9410 6626 e0bf 8422 8cc1 f33a dabf
00000320: 81ba b474 9786 d33f e635 5fd6 a673 c0bf
00000330: 2507 14d5 1120 ac3f 4ed2 c61d 6b42 d7bf
00000340: 33ec 1d6a 165f cf3f 12e8 6784 100a d2bf
00000350: 3644 df96 7bc4 b8bf 5360 34f4 8136 c1bf
00000360: bec5 0096 c660 d03f ca35 f12f bf56 a33f
00000370: d06f e6f1 a8e4 813f aa58 ed89 3c5b dcbf
00000380: 1b77 4171 8e05 bcbf 0c3f 1a4d 8cd0 bb3f
00000390: 318f 0e65 ff7b dfbf fa6f 0332 bec2 ddbf
000003a0: b3c3 d72d 8af8 c5bf 5665 9bb6 5169 61bf
000003b0: 2bd5 8414 854f da3f b294 a24a b3cb dfbf
000003c0: b99b 3d3e c4b4 d03f d124 37ea ab48 54bf
000003d0: fce9 d97c 8cfe c2bf f82a 397f ee3a 763f
000003e0: 7d88 86b6 8c51 92bf 0962 1111 abc9 d5bf
000003f0: 8a0a 3e3c afb1 b73f bdab 1648 fa50 d4bf
00000400: aada e420 0395 cc3f 956c 4c26 d058 d4bf
00000410: d911 a46d 517c dbbf 1f72 79e5 51b9 d9bf
00000420: 3442 9261 a4bf d23f bf27 7e80 ab5a cabf
00000430: 404a c2b5 8017 c33f 42ae 62a4 05e1 ddbf
00000440: 3898 ae49 0e0e e33f e7fe f5a0 42d6 b9bf
00000450: c0ce c4f9 2ef2 e5bf 84b6 55cb dca8 c9bf
00000460: e768 c6e4 efb9 c0bf 14b0 1617 d6c1 a83f
00000470: ceb2 0369 0c02 4a3f 994c 751b 2d3e d3bf
00000480: 3102 d6ed dafc 903f 3d6a cd8d 25cc a3bf
00000490: 215b e8f0 6d02 e2bf eff5 a156 6ee8 c0bf
000004a0: a391 98f6 a4b4 d93f 94ed 531e 0f3e c5bf
000004b0: 0fc0 c8a4 8ce9 bd3f 44b5 5874 587f e1bf
000004c0: 0a2f fbb4 80ff cb3f d617 788a 7887 aa3f
000004d0: 940a ab2a 356e e1bf ec65 56fe 2396 d3bf
000004e0: 943c f6b9 fdcb b53f 88ab 32a1 c1e7 cebf
000004f0: 577e 1d7e 5d0e d23f dcb8 5d83 5122 e4bf
00000500: eb83 cec9 96a2 b43f e098 13a1 754e ad3f
00000510: 87dd 9e81 ab65 c6bf bbfc 27c4 f2d7 d8bf
00000520: 7b72 075e 6b02 a93f 3093 d198 5204 dcbf
00000530: 2343 007e 7729 df3f ffe0 2b9d 6f26 e2bf
00000540: dd32 811c ebf9 ce3f b2a7 6109 a1fb abbf
00000550: 6c7f d62a cad5 cfbf 2d27 eeff 5ab8 e3bf
00000560: a2f7 35b6 839d b23f f316 a948 5014 b23f
00000570: bf63 85f9 c196 d83f 11f7 8bc1 90bb d8bf
00000580: 76a1 4550 57b4 b93f c364 475f 3b5d babf
00000590: 4dd5 52e2 279a d3bf 3807 16e4 507a e0bf
000005a0: 0edd 48ca d940 bc3f ee46 a62b 1457 823f
000005b0: ce10 7b5f c093 923f 1884 a614 780a b0bf
000005c0: 22f5 94b5 8734 953f 5d54 6b3b e842 afbf
000005d0: f042 a6be 85cd c2bf 25b9 dc07 7fff b0bf
000005e0: 8906 7fb2 783e dd3f 2df1 e0c6 9fa6 e0bf
000005f0: fb0e 41cc 989e ca3f 102d 5bda 4508 d2bf
00000600: a7ff 98c8 aa12 df3f ca03 a5a1 72d2 c3bf
00000610: 8ee8 cfbd 3611 e1bf 4241 eb97 3aa1 5b3f
00000620: c42f 6735 dd7e d43f 05e2 47f1 b2fc debf
00000630: 3128 c1c5 d073 d43f 35e6 3cc3 2859 d7bf
00000640: 90f5 f76c a0b4 d93f 6af6 843f 5062 a63f
00000650: 4655 87db 3870 e1bf 146f 06b2 d44b dcbf
00000660: 5856 d0fb ac72 d33f ae74 0377 71b1 d9bf
00000670: b16c 95aa 7c83 c33f 9c5a d9cc 3568 d2bf
00000680: cfeb 203b 0129 de3f 148d fea3 6b13 7abf
00000690: 1a46 de10 9f75 e1bf cae1 1db3 314b b9bf
000006a0: 172b 6623 e9e3 dc3f 3ae7 5a03 d8bd dabf
000006b0: b407 e0f7 ebce b63f dff8 9650 5de1 c5bf
000006c0: b7a5 699b 6fa2 d13f 3997 23de 5eb5 d8bf
000006d0: 17fd da36 5e5f cabf 4f2c f4a2 f081 e1bf
000006e0: 2129 3fd3 82e8 d23f d4cd 8b37 8a4b d5bf
000006f0: dede 1780 2ff3 e03f 8aef 343e 89c8 d7bf
00000700: d89a 2eed 7563 e33f 46c7 961e ca15 d3bf
00000710: 46c6 885a a092 e4bf 9d1b 251a 05cf c8bf
00000720: fb99 7a12 9a2b c83f 2914 85c6 8490 dcbf
00000730: 27f3 2df0 f533 b4bf 148e 6b42 e31c c3bf
00000740: 6975 38d5 cb8d e03f a386 eddb 5978 c6bf
00000750: 0e54 4767 abd9 d2bf f06a 0222 6b19 d2bf
00000760: 93af 1e32 d706 cd3f 9521 8f05 8b3d d9bf
00000770: 0354 09a5 0c21 a13f 8f77 8391 20b2 e2bf
00000780: 2e7d 6fa3 57ab c93f e430 e1bf 5374 ddbf
00000790: 632a e8be 45ce e2bf 1127 d0a5 7b6c d2bf
000007a0: b730 30da 87bd b2bf 97e5 e537 943e d8bf
000007b0: 653f 3f71 2279 e03f 11f9 6a54 9de0 cbbf
000007c0: f0eb ea56 c8ec bc3f a35f 99fc 71be b0bf
000007d0: ae62 b345 124b b2bf 6ccf b5ff 182a e5bf
000007e0: 02e5 2317 c7e5 c93f d6f8 7c26 1e2a 8abf
000007f0: 4973 beb3 c85b cd3f 8df4 fd9e 56a0 e2bf
-0.031393583056253664 -0.04709714619912901 -0.07224770487649203 -0.30990977073283354 0.038306037380480544 0.019262729195326816 0.3047465131428576 -0.6459564140004195
0.134252955170409 -0.15319063290187296 -0.28404069726610814 -0.022677342865766555 -0.000860177420023077 0.016738266575773694 -0.15353471943479483 -0.671528345196178
0.26324493471470806 0.00824756047990945 -0.5242117225326847 -0.16133538763803915 0.3672969298281514 -0.22629690844603148 0.03421107817875046 0.0014317058614736079
0.11391998834785051 -0.44801511877796146 -0.29614725136388087 -0.015132516186868443 0.08089126157284718 -0.03212955741820543 0.24003743410068337 -0.19502239270701563
0.40449994618433743 -0.21752303738262582 -0.0811058111537296 0.03257624910287748 -0.06099459623558349 -0.5983441575803543 0.008085879702347627 -0.14780173113446438
-0.10718676288854549 0.1625140617871712 -0.5071360716491996 -0.3914877861547717 0.11930144988694602 -0.10187791573992869 0.1630848792765777 -0.6759861913795332
0.18115291826353308 0.21323324231878205 -0.5857328807844969 -0.10180530177342997 0.329256660412515 0.003842039204411799 0.03738275529248829 -0.6165541398882257
0.28064745816029446 -0.33594532721313913 -0.6237131809652916 -0.11618180853180245 0.1020362616636169 -0.25699495899952657 0.38682271309798705 -0.5788552090744987
0.020200757482499047 -0.2179369733249737 -0.5907528043872822 -0.5885373499525862 -0.05588828238421799 0.04540599900240805 0.13844320748035588 -0.5998531606017407
0.2442972870894339 -0.31771051774424736 -0.41057116935006466 -0.42994211225246626 0.1306879377973781 -0.16240732771085437 0.282706678177163 -0.002111117257311433
-0.020068827843706356 -0.17508784061910243 -0.26067740334301415 -0.27128192651690025 0.47212427551791314 -0.13317579540072622 0.42971348325802544 -0.0879667564460815
-0.06080805186683052 0.0581020430711561 -0.3844648767127121 -0.4543160500695234 0.19151267635773223 -0.044147140453992484 0.12143723086660421 -0.08589973722986523
-0.006403364496575097 -0.372693518152733 -0.5046873401459026 -0.4098481550322861 0.30508982083384956 -0.12852941005114288 0.05493217207005178 -0.36342885883212694
0.24508934194077056 -0.2818642895723552 -0.09674808915521357 -0.13447594093372803 0.2559067215798584 0.037771200754473336 0.0087369154760423 -0.4430686327881498
-0.10945978417427364 0.10865094072709897 -0.4919432150729675 -0.46501116642116325 -0.17164733160418919 -0.002125415417009317 0.4111035061244645 -0.49680788315374536
0.2610331161326332 -0.0012380293709262533 -0.14839321228267 0.005427295330785446 -0.01788921226546635 -0.34043385187899894 0.09255500050316293 -0.31744248428247684
0.22329749208593813 -0.3179207204827404 -0.42946277339095 -0.401936029525844 0.2929469063610981 -0.20589202665388304 0.14915474772404202 -0.466859255345046
0.5954657973386537 -0.10092560224256496 -0.6858134153648834 -0.20046577385385345 -0.13067434950500642 0.04835385352939184 0.0007937012287847157 -0.3006699340960011
0.016589566007953308 -0.038666890678275646 -0.5627965646006922 -0.13209323148832605 0.4016506584323684 -0.1659563921055961 0.11684493086863788 -0.5467951080696953
0.2187348254868698 0.05181481066033171 -0.5447030862199704 -0.3060388549580171 0.08514390745243566 -0.24144764300339383 0.28212678256929763 -0.6291892591232471
0.08060591151162526 0.057239223396935435 -0.17497772053841862 -0.3881804385745899 0.048846583583984825 -0.4377638332719469 0.48690593056476156 -0.5671918935541099
0.24200190440969652 -0.054654152293394445 -0.24871184436505744 -0.6162543295515427 0.07271598051553821 0.07062246107042451 0.38420152060785634 -0.3864480867485876
0.10040803632512571 -0.1029851062406975 -0.3062839231673323 -0.5149311499410265 0.11036454380597524 0.00895515211303485 0.018141752078705768 -0.06265974525605633
0.02070819898402932 -0.06105733609516826 -0.1468970471292077 -0.06639856283138508 0.45693795615452665 -0.520339859423563 0.20796499226900508 -0.2817549354919757
0.485514350792068 -0.15485985653688622 -0.533351298071709 0.0016863891793726525 0.3202431699289685 -0.484173522592329 0.3195688182064514 -0.3648168474788663
0.4016495765825647 0.04371882224448316 -0.544948986784825 -0.4421283472563442 0.3038742503279983 -0.4014552747956469 0.15245016412049986 -0.28761048321522664
0.47125273489262737 -0.00636617705450539 -0.5456080750902317 -0.09880362151114422 0.45141056496565696 -0.4178371460690077 0.08909487535132038 -0.17094007906957295
0.27553930451412206 -0.3860699815107754 -0.2060354011391403 -0.5471118147555759 0.2954413474041236 -0.33273559021401167 0.5296857358761959 -0.3716147525299155
0.6058911926710051 -0.2982049273224344 -0.6428987282035414 -0.19381774689301504 0.1888306226948798 -0.44632071863844885 -0.07891785730130306 -0.14931908362551438
0.5173091091598226 -0.17554782141364908 -0.29453549466899254 -0.28280142136797704 0.226771258804885 -0.3943812898910662 0.033455271860169965 -0.5842440454541576
0.20054145317315303 -0.4602250455689172 -0.5876797417307212 -0.28787127678570906 -0.07320450856076631 -0.37881951769630845 0.5147869312149679 -0.2177921926685902
0.11298801538480041 -0.06540596405954928 -0.071457998291758 -0.6613888735141535 0.20232475881474704 -0.012775645780149263 0.22936352516708272 -0.5820725541413069

linear_map_out2.mlp.9.bias f8 [96]
00000000: 8643 7343 81f0 c2bf dac9 37a2 6f5b 9cbf
00000010: 4cdc d8a2 a960 d3bf 7dbe 8ca3 005c ddbf
00000020: 7b7c b0bf 95ba c8bf e76c 1137 da66 8cbf
00000030: cd5f bec4 6501 dabf 6ea3 abf6 3272 a53f
00000040: 1607 6f5e 1281 cabf bcbc 5114 391b c0bf
00000050: 33f7 38de f4be debf ba69 7eee 0d3f d6bf
00000060: 4594 cf63 9319 c5bf 7bf7 bc60 5b99 ba3f
00000070: 9129 3471 765a cfbf 42b8 4f06 0add 823f
00000080: 741f 900a df44 e0bf bc19 691f d1cf dcbf
00000090: b08b 4cd7 fceb b6bf e3fe 8ec5 5a45 c4bf
000000a0: d9b7 8159 bc4f b33f 556b d930 facd 8f3f
000000b0: 2be4 9fc1 452f cdbf cf64 452d 03c3 bfbf
000000c0: 8d9c a6f6 cbf5 babf 283c 765c d64f d8bf
000000d0: b478 fd4a 6767 cdbf b991 14eb 9993 c8bf
000000e0: 0993 a63e 3287 d9bf bf06 17f9 51df 943f
000000f0: 4fc9 da9b 7b9b d0bf 205b d2e2 8d8a c6bf
00000100: 2646 79e8 4046 d7bf e16d 8f1e 0f06 bb3f
00000110: 9a5e d858 d673 b03f ad7b 5a00 6498 92bf
00000120: 27f7 f512 1947 d7bf ef92 4bc6 cd6c b23f
00000130: 30f9 937e 0396 9abf 6163 b2d0 469e debf
00000140: 6eeb 6c94 03dc bb3f f3de c934 373c dbbf
00000150: 70b9 c7cd f328 d6bf ef17 3f95 5958 a4bf
00000160: 3e5a 50a8 7cc3 d6bf dc54 36e5 0137 d5bf
00000170: b224 c5dd 2bd6 bf3f 5d6b 3816 110f ddbf
00000180: 3403 ed74 e2ab d8bf 1215 eff1 abd9 b6bf
00000190: e4c8 5f7c e634 d9bf b60a f0d3 e11b d2bf
000001a0: 5fdf 98e9 819d d1bf 8630 c079 f317 cfbf
000001b0: 58e0 bdda 245f d9bf 0131 ee03 e624 be3f
000001c0: b76d 8992 b7a4 d0bf f677 8845 126d a53f
000001d0: 5069 984b 57c0 b9bf d74f a174 1c25 c4bf
000001e0: 7f14 0bbf 48dd d0bf 110d ed02 98b2 b0bf
000001f0: b9ce 60f8 f2ad d6bf 7a04 d482 a1c1 a5bf
00000200: 7f39 ffaa 1878 c9bf 4005 c2f4 9ee0 d5bf
00000210: a422 ffc6 8aa9 cdbf a317 1a79 66b4 bf3f
00000220: 0560 3942 a024 dfbf 64fb 84f1 db39 d8bf
00000230: e191 4b27 64b1 bc3f 8532 fe5e 730c dabf
00000240: 3b30 0901 120c b23f 56fc 0f41 e26f b1bf
00000250: c913 f28e fea0 b23f 5dc4 8c88 079c aa3f
00000260: ea07 2a04 8af1 bb3f 8564 b8d9 0e26 47bf
00000270: 51d8 f80c 67d9 d9bf 4dd5 5bbb 26db e1bf
00000280: 8842 12a6 e999 dfbf 9a7f 5177 4989 d0bf
00000290: 4dd6 79bc 4e6c d9bf 620d d49c 19d4 cabf
000002a0: 2a1a 6555 9442 cebf ae1e 9c30 eb28 53bf
000002b0: 9d75 aaac cd06 b6bf 840a 1b56 a1f3 d0bf
000002c0: 7289 5e01 d61c c3bf 2116 1765 c479 a9bf
000002d0: 64e3 7d15 64fe c0bf b9e3 ac6d 2830 d3bf
000002e0: bc2e 375a 9bdc e0bf c5fd e781 c807 ddbf
000002f0: 1f5f f0cb 7e31 c1bf 061f 67d8 2682 c0bf
-0.14796462815732186 -0.027692550922390292 -0.3027748194030593 -0.4587403866926037 -0.19319412097772556 -0.013868050389808718 -0.40633529866454127 0.04188689480890316
-0.2070639573194561 -0.12583077900078432 -0.48040506078165207 -0.3475985363999389 -0.16484300969674073 0.10390254127284308 -0.24494820144202525 0.009210661237343602
-0.5084071356113626 -0.4501841360801355 -0.08953838592837715 -0.15836653372206574 0.07543542084906053 0.015529589286577364 -0.228005141776323 -0.12406940322161407
-0.10531306049107254 -0.37987288503149097 -0.22971812402369596 -0.192004432473494 -0.3988767253706987 0.02038314898323423 -0.2594899198549187 -0.17610333991316285
-0.3636629362345921 0.10556120391941405 0.06426753682205302 -0.01815944912106786 -0.36371447421685094 0.07197271434013051 -0.02596288166113786 -0.4784104383521051
0.10882589696568143 -0.4255502715600265 -0.3462495336124425 -0.039736556500017055 -0.35568157612707185 -0.33148238548285547 0.12436174549397341 -0.4540446011539439
-0.3854910032132921 -0.0892589059504483 -0.3938537802306554 -0.2829517907813782 -0.27523849308226106 -0.24291842884884235 -0.39643212663168503 0.1177505263896741
-0.2600535326980337 0.04184777354042517 -0.10059114070501107 -0.15738254256086634 -0.2635061135918661 -0.06522512504038881 -0.35436701064757475 -0.0424929115488419
-0.1989775500246189 -0.34183477308404875 -0.23173651425010633 0.12384643990125581 -0.4866104742736755 -0.3785314425075994 0.11208177527766551 -0.40700992848068324
0.0704966785935434 -0.06811346138418747 0.07276907911189236 0.05197166005962892 0.10915434457459097 -0.0007064411651668412 -0.40389419810106114 -0.5580018672323291
-0.49376908510115713 -0.2583793320864004 -0.3972355690560548 -0.20959777982362043 -0.23640684289621677 -0.0011694237495606763 -0.08604131188845661 -0.26487000855210163
-0.14931750361308677 -0.04975713476191524 -0.1327633957805815 -0.2998143263862932 -0.5269295465490909 -0.4536000507941618 -0.13432297666508305 -0.12897191587966733

vit_blocks.0.msa.q_map.0.weight f8 [4, 4]
00000000: 4dca 4b09 882f c2bf cde1 8527 7f85 d73f
00000010: ab64 9dfc f703 cdbf 9040 6a2e a0e5 cfbf
00000020: aa0d f91d 8341 bfbf 77a8 e6ad 4c9b c3bf
00000030: 2efe 38c0 f979 bfbf d8a4 3db9 806b a6bf
00000040: 4444 1eab d336 cc3f 9053 51a8 4ecd a6bf
00000050: c088 87e0 c5a5 d1bf cf1e 872e ce29 b3bf
00000060: 1868 d74a ecc7 c8bf 9852 96e6 9234 d53f
00000070: 32f2 9edc d926 d9bf b785 4463 196f d3bf
-0.14207554296406713 0.3675229917494363 -0.22668361506183507 -0.24919512049064396 -0.12209338647612947 -0.15317686549434814 -0.12295494978842988 -0.04378893147697632
0.22042318206198008 -0.04453512005480953 -0.2757429783506602 -0.07485664974148708 -0.1936011662899666 0.33133385198861154 -0.3929962782383739 -0.3036559552584452

vit_blocks.0.msa.q_map.0.bias f8 [4]
00000000: e08a 8c56 2293 ccbf 0e9b d7da 3008 cdbf
00000010: 6dcf 2b01 71bd d33f 15a6 5f54 d744 ccbf
-0.22324017740273572 -0.22681246457724352 0.30843758692139184 -0.22085086459928563

vit_blocks.0.msa.q_map.1.weight f8 [4, 4]
00000000: 8ced 2aec 3e64 d83f 4b93 5955 a645 d3bf
00000010: bd74 4c5d 5a02 d1bf e412 9754 9b1e afbf
00000020: 43ab 4f2a 7dec cfbf 0e79 676a 04a6 dabf
00000030: d5a9 7c2c d548 a2bf f84a e7ad b84d cf3f
00000040: 4256 39de e669 d93f 7d77 ceda 2b99 b73f
00000050: 2f3f 6621 84c4 9abf f567 3cc4 1a84 953f
00000060: b2c3 9fd3 6567 a13f f11b 1c8a d0c8 d63f
00000070: b99a 561e 5b31 cebf b525 46b1 0543 d73f
0.38111851752520276 -0.301126082753673 -0.2657686148757639 -0.06078038604349503 -0.24940456930138497 -0.4163828887084414 -0.03571191947988309 0.24455936900502429
0.3970887346416455 0.09218095867114857 -0.02614027456144113 0.021011751391689832 0.033991987307565266 0.3560067509392289 -0.2358812235008452 0.3634657126609356

vit_blocks.0.msa.q_map.1.bias f8 [4]
00000000: 4673 5fcf 0247 dc3f 0260 d50f f00a b2bf
00000010: 8931 0fbd a2da c43f 3c71 e8bd b3a8 c83f
0.44183416606192727 -0.07047939669189421 0.16292223197377734 0.192648380020623
