exp/exp_second_round/transformer_15minutes/model/transformer_encoder_96_3438.pth (torch, 51464 bytes, 66 tensors)

linear_map_in.mlp.0.weight f8 [8, 97]
0	0xbfb2a10602ba2967	-0.07276952330190554
1	0xbfa7d47b8c50eb97	-0.04654298866122202
2	0xbfafd863068fc8a5	-0.0621977754125436
3	0x3f82d7dd26476d9f	0.009200790148432612
4	0x3f88b3a58ee520d1	0.012061398909864714
5	0xbfb312d9aa223b01	-0.07450638202338312
6	0xbfb1467091777544	-0.06748107482367965
7	0x3fa567268970a241	0.0418026011250885
8	0x3fa506232965ec6e	0.04106244926784873
9	0xbfab8da8d6162f52	-0.05381515134203475
10	0x3fab31ddbbfce4d0	0.0531148235299469
11	0xbfbd84208c95f15f	-0.11529735023754516
12	0x3fa39d2c559fc267	0.03830851121154382
13	0xbfb647bb2eb56c1e	-0.08703203096722276
14	0xbf944a89fb012f6c	-0.01981559366713219
15	0x3f84eb7774dfb666	0.01021474194927947
16	0x3fb7ef503a923a73	0.09349538259469074
17	0xbfb302b46be35a81	-0.07426002153384027
18	0xbfb22a7d4e3de4e8	-0.07096083793830454
19	0xbfa62be85d101492	-0.04330373893757512
20	0x3fac315d952b12cc	0.055064129313483784
21	0xbfba5bc3be29173d	-0.10296271698561284
22	0x3facca367219b4d5	0.05623026030375803
23	0x3fb56fc2cbc4aa03	0.08373658633050955
24	0xbfaf0c6b68f598c0	-0.06064162880174839
25	0xbfb4c2cea1a6dfe2	-0.08109752127245387
26	0x3f9e362b7f5d7b02	0.029503516815903026
27	0xbf8c1590fc451a9d	-0.013713009546916505
28	0x3fb2975663fa2f14	0.07262172642566284
29	0xbf9adbdd0b2b4893	-0.026229337507921512
30	0xbfb6d441e88c311d	-0.08917629172737347
31	0xbfb6093b95cfffa7	-0.08607838065654382
32	0xbf898ce02fd93ef9	-0.012475730381225502
33	0x3fb356f39f857acb	0.0755455269295268
34	0xbfbef42165450ecd	-0.12091263506323031
35	0xbfb5f4453f61dfbc	-0.0857585220090859
36	0x3fb33dc0ad5bec95	0.07516102058791525
37	0x3fa2cd3506df85bb	0.03672185620213094
38	0x3fa619be3e2c93c0	0.043165154542556206
39	0x3fa311075ddd60fa	0.03723929425058432
40	0x3fa8d14e66937939	0.04847187997960351
41	0x3f984ea44218bf77	0.023737494024487184
42	0xbf873e39ab2e0793	-0.011349154030316366
43	0xbfa1ebc6f3b1c238	-0.035001961944435
44	0xbf98dd22cea973d9	-0.02428106676449091
45	0xbfa2216e28eeeafa	-0.03541130304025404
46	0xbfbf1a50eede3d05	-0.12149530250302483
47	0xbfac3e7f4866f65a	-0.05516431578460575
48	0xbfb65dcc9d100f6a	-0.08736876329936441
49	0x3fb1f356a5a0ee4b	0.07011930030506013
50	0x3f7a5029e41e1f5f	0.006424106251763677
51	0x3f9e85a91b5fb38d	0.029806749625936702
52	0x3f9bb1591208b714	0.02704371616908137
53	0xbf92575e8b585058	-0.017911412482206707
54	0xbfb69900714710b8	-0.08827212110105875
55	0xbfb5b4530cd71b5e	-0.08478278220637267
56	0xbfb463c32374d802	-0.07964725127826003
57	0xbfb63d0d6f6d48c1	-0.08686908693678942
58	0xbfad9f015471aa91	-0.05785373836336761
59	0xbf8d88d3cff6d930	-0.014421133789124768
60	0x3f947a5aeffe1554	0.01999799814031651
61	0x3f3ce90f4e3cc804	0.00044113753959884616
62	0xbf911d8181c19598	-0.016714118523301374
63	0xbf96c6753e59c9cb	-0.022241432123743892
64	0x3fa28c6e9ba4f8bb	0.03622766160923293
65	0xbfa539868913a9c4	-0.041454509957322055
66	0x3f846cd9c48f0b69	0.009973241148946337
67	0xbf927f07bb79cbda	-0.018062706773388594
68	0xbfba662d6450c3f1	-0.10312160204990996
69	0x3fab55695b27447d	0.05338601339065805
70	0xbfb8aca06f748dbd	-0.09638407441212045
71	0xbf9819f103b27a9b	-0.023536458826692735
72	0x3f9b8b3a91e2793b	0.026898303178876076
73	0xbf7293ebe1cec6db	-0.004535600103666683
74	0xbf6d0e52643007a2	-0.0035468682485779316
75	0xbf67244aa9576440	-0.002824922393057011
76	0xbfb5f2bca84b6c7a	-0.0857351218104884
77	0xbfbb8e496397fc25	-0.10763987237440682
78	0xbfb141df57ec41b0	-0.06741138359598753
79	0x3fb233d93a2bf1d4	0.07110364599424851
80	0x3fa9fdea854970e7	0.050765351076479885
81	0x3f92507ff7a5b3c8	0.0178852076436902
82	0x3f7c939cfd4ab324	0.006976712455679022
83	0x3fb0977189ddeed5	0.06481084457294213
84	0x3f9f233bef70fd2b	0.03040784501012898
85	0xbfae7bc5c48ac536	-0.059538059465362655
86	0x3fb7087ed3789a26	0.08997337973469452
87	0x3fabdd361bf45d98	0.054422083771153484
88	0xbf8c2bc017a72e86	-0.01375532219108001
89	0x3f9b6e4e708d0a5d	0.026787973041118785
90	0x3f91b999e8e039c7	0.017309574926963636
91	0xbfa64ad4f9a83a01	-0.04353967235157442
92	0x3faac1622c000601	0.05225664889441007
93	0xbfb6660a2cfa5c2b	-0.0874945030030722
94	0x3fa16fa300be26d9	0.03405484565798895
95	0x3facc49c922fde45	0.05618752750882242
96	0xbfb1c23250d6175f	-0.06936945413153016
97	0x3fa9111fecbd186f	0.04895877613903187
98	0x3fb1637e6724724d	0.06792440431713338
99	0xbfb4f165af4e8e13	-0.08180842904999279
100	0x3fb1510ebba10f66	0.06764309006490307
101	0xbf96c3d85edd3d87	-0.0222314651394391
102	0x3f65191d4fd06bda	0.002575452088888747
103	0xbf7f5ed980dd3656	-0.0076588150239565635
104	0xbf7c8d2efadc267c	-0.006970580592459915
105	0xbfb465d8dadbc36c	-0.07967906325553792
106	0x3faf9d7f06344833	0.06174847555861653
107	0xbfa8a0bef32b3d20	-0.04810139387483958
108	0x3faa717b1f7950d6	0.051647040931727936
109	0x3fb13f5ffeed22dc	0.06737327550684874
110	0x3fa1a6527c35dca8	0.03447206274261677
111	0xbfadd16decee82b4	-0.058238444492649505
112	0x3fb251818e462a66	0.07155618403900518
113	0xbf78d2dad323a861	-0.006060461792211398
114	0xbfb52dcb880e5afd	-0.08273002692872562
115	0x3fb2c8683a95c47f	0.07337047033594678
116	0x3f86bca31623c399	0.01110198413195622
117	0xbf90c4370b2aaa95	-0.016373500877913633
118	0x3f7f141d90e63f25	0.0075875430033105805
119	0x3faa5b5beeaa5d2a	0.05147826469800017
120	0x3fa82a4731a8a597	0.0471975563162445
121	0xbf96005abf55c53c	-0.021485727241672622
122	0xbfa3fb7c8b3ec4a6	-0.03902806472559321
123	0x3f7c2bfae75295ac	0.006877880184366896
124	0xbfa2658a90cc2383	-0.035930948424783636
125	0xbfb5c299dc966e4b	-0.08500062594833328
126	0x3f9553d8c286a71d	0.020827662346767462
127	0xbfb27d8a55885a6a	-0.07222809398840871
128	0xbfa222b6ad7ea22a	-0.035421093634173964
129	0x3faacb945dc59a9d	0.052334438750041935
130	0x3fb2e8bed343e8f1	0.07386391313403685
131	0xbfa08a8056b11fe2	-0.03230668123484272
132	0xbfbb0fdbee0e479c	-0.10571074067982383
133	0xbfab8f2527dcfdec	-0.05382648574459012
134	0x3f41bd6fa47a838f	0.0005413813714377646
135	0xbfb0ab621c330557	-0.06511510075053671
136	0xbf604433b727b397	-0.001985646254289052
137	0x3fb533575842eb3e	0.082814654396242
138	0x3f87347250c9c253	0.011330502596338088
139	0xbfb0c9d82e0a478c	-0.06557990192439273
140	0x3f8b881e954d4513	0.013443221026735707
141	0x3f874232a3c9757d	0.011356731055623065
142	0xbf9e5c2a5a7dd8f4	-0.029648458264511526
143	0x3fa147d8ea98b7cb	0.03375127662398788
144	0xbfb15b0d93df38e1	-0.06779560909419359
145	0x3fa92d30b5003761	0.04917289933665248
146	0xbf92c16b329efcc4	-0.018315958943045954
147	0xbf982c44b352fa56	-0.02360637039668697
148	0x3fa1e3fea9f8c3e6	0.03494258713579494
149	0x3fa566d9fa2a12b7	0.04180031946910872
150	0x3fa556a8f020835f	0.04167678767431115
151	0xbfac239445993096	-0.054958947654626986
152	0x3fa6398ec13391d9	0.04340787990966861
153	0xbfb52385dbc832d5	-0.08257328620693312
154	0xbfb9b9d27e8710b1	-0.10049167241146752
155	0x3f9c112c5c681558	0.027409260883378778
156	0x3fb20d704c56ca6a	0.07051755775209193
157	0xbfb3501294877e22	-0.07544056059077112
158	0x3fa6fec226f96110	0.04491240239866745
159	0xbfa62f374e7ad3ae	-0.04332897980695037
160	0xbf94079481d8b9c8	-0.019560165810782043
161	0xbf7c002e9c68fcc3	-0.006836111139420345
162	0xbfa5eff9095cccea	-0.04284647216118194
163	0xbfa9c408fdefcd35	-0.05032375430882966
164	0x3faed58b80a62c91	0.06022296853469656
165	0x3f987707fe497f40	0.023891568084194903
166	0xbfafd1b328e75df0	-0.062146757834565025
167	0x3fb3e159c036cd0a	0.07765732710577225
168	0xbfa5887509aea6db	-0.04205671065512969
169	0xbfad70c2df97a8d9	-0.057500924867626764
170	0x3fb3ffc024b7c8c7	0.07812119385178838
171	0x3fadfaaef1fd19e4	0.05855318740809759
172	0x3f942ecda59167b9	0.019709790449588847
173	0xbf786aacfa0f16ee	-0.005961108866306948
174	0xbfb4b3a0077d20d4	-0.08086586172896953
175	0xbfa986dc7799f0f9	-0.04985703430154049
176	0x3f7370b42b2e6d72	0.004746154579062677
177	0xbfa564a590de9d16	-0.041783498701358265
178	0xbfa88b80e75fb54e	-0.04793932747257178
179	0xbfa8b30c402a0643	-0.04824102671865351
180	0xbfa2148c5a74b54d	-0.03531302074621099
181	0xbf7a2d45104fdd17	-0.006390828876639241
182	0xbf9171bb6ca7fa42	-0.01703541613277993
183	0x3faa3e52644f140d	0.05125672792886613
184	0xbfa17b1fa57324eb	-0.034142483660227395
185	0x3fb7be8e8684f221	0.09275141510165287
186	0xbf99f7a44a70eabd	-0.025358740848086415
187	0x3f855c71d6b315fa	0.010430230488405624
188	0xbfb1ec4225fdfbdf	-0.07001126697103598
189	0x3faf65df0b98aa3e	0.061324091115541254
190	0x3f95018557d026b2	0.020513614163099
191	0x3fb3f6e962e11bf3	0.07798632301374635
192	0xbfb9bb63e79c23ce	-0.10051559834040732
193	0xbfaf31736d284901	-0.06092415530669549
194	0x3faf7c0b4d989e23	0.06149325678080355
195	0xbf9d2d99c5ce724b	-0.028494265268465473
196	0x3f7a3e8f41e59a74	0.006407317733055796
197	0x3fb3600d1fe3dfd1	0.07568437603538249
198	0xbfc08b73b9334203	-0.129255738668249
199	0x3f98f88397511145	0.024385505781780798
200	0x3fa78825ba85ff81	0.04596059705636347
201	0xbf904c026e340aa4	-0.01591495320918547
202	0x3fb61a7ea0909a91	0.08634177608528605
203	0xbf8f5455dbd209ce	-0.015297575732124449
204	0x3fb85942f228133b	0.09511202251458155
205	0xbfaa693d51c9b872	-0.051584163888819826
206	0xbfad34e151f0f1ac	-0.05704406857737196
207	0xbfb4c1c379894371	-0.08108159749214196
208	0x3fb3c7ec5ec5b4e0	0.07726933778549805
209	0xbfa06cf0aeaedb2a	-0.0320811475025294
210	0x3fb8b7b65558c19b	0.09655322631511469
211	0x3fb00930a6df510a	0.06264022897750379
212	0xbf98c3d976394bda	-0.024184606400307597
213	0x3f9b28e52a944910	0.026523190234976346
214	0x3f8369949c5977a1	0.009478722592742463
215	0x3f932bf7596c010b	0.01872240527427586
216	0xbf912617a15b01f1	-0.016746873114927344
217	0x3fbb311ee35d71dd	0.1062182717409494
218	0x3fc326f9dfdad20a	0.14962695532234732
219	0xbfab857774b5ea8e	-0.05375264453592364
220	0x3fb697ae4cb901d0	0.0882519662200203
221	0x3f8f5f2bc7df9b0f	0.01531824306216614
222	0x3fb36469e44f347c	0.07575094055137471
223	0xbf5f96184a36075f	-0.0019278752523352522
224	0x3f3f31f84afb1068	0.00047600089872568705
225	0xbfa6acb2e84475b0	-0.04428633771224655
226	0x3fb3531b11a00f8c	0.07548684292129176
227	0x3fb4fee11b393290	0.08201414980539767
228	0xbf9865a0ac81b487	-0.023825178650828362
229	0x3f865d6da63cd406	0.01092038787428785
230	0xbfb8ab7efa646d66	-0.09636682141392824
231	0x3f5d37a92d1c014e	0.0017832901107227186
232	0xbfb1f20f2c4f440e	-0.07009978133943681
233	0xbf9f8d5cfe7887fd	-0.030812695533434454
234	0x3fabddeca9660c47	0.054427524260085174
235	0xbfa9f01544fd3baf	-0.050659813567669125
236	0x3fae1899bfbcf962	0.05878143754533728
237	0x3fa1bbdbcca56bed	0.034636372309897336
238	0x3fb300335c7ff2e3	0.0742218113736715
239	0x3fc5ae88ec1df791	0.16938888100770247
240	0xbf59bf93e034bf8d	-0.0015715545749337174
241	0xbf7da0b081568cda	-0.007233323548834403
242	0x3faba6d8145f219e	0.05400729416539039
243	0x3f9976c10f441122	0.024867073590045703
244	0xbfac16d82badde34	-0.054861789066248084
245	0x3fbb2afa972ecc3f	0.10612455550180842
246	0xbf94dc9dda78d4a3	-0.020372835597488714
247	0x3f948397c0db0831	0.02003323664281015
248	0x3fa52a9a6ca57865	0.04134066177606214
249	0x3fb42b1567517b34	0.07878240368289086
250	0xbf9f9c816e803f93	-0.030870458955234503
251	0x3fad74ccd65ffc69	0.05753173939592033
252	0x3fb603b147003fc5	0.085993842920515
253	0xbfa01191be23c6e8	-0.0313840431789581
254	0xbf7867963bf96a73	-0.005958163120875259
255	0x3fad20fae5393dee	0.05689224289073623

linear_map_in.mlp.0.bias f8 [8]
0	0x3fa8c1f8a41cd10d	0.04835488322570045
1	0x3fc4a7a703be1b42	0.1613663452410155
2	0x3fa4151c6963882c	0.039223564019053775
3	0xbfb163320b665a97	-0.06791985300365365
4	0xbfabe4e691cbec89	-0.05448074846022972
5	0x3fc93623b802fd82	0.1969647072310004
6	0x3fc3392f8e24af80	0.1501826709803673
7	0x3fb02d758f30020b	0.06319365258969627

linear_map_in.mlp.1.weight f8 [1]
0	0x3fdf09e89d33c8ad	0.48497977592263447

linear_map_in.mlp.3.weight f8 [8, 8]
0	0x3fd3b033dfb3d7a0	0.30762955518673074
1	0xbfd8a885599ccd72	-0.3852856993791739
2	0x3fc9b58fe772ddad	0.20085333634572802
3	0x3fd3a91bca9590cb	0.3071965673791623
4	0x3fcdf7ef4450c622	0.23412886462897214
5	0x3f224a5ba01eeb7f	0.00013954514002797663
6	0xbfc8b1d6c5a83d4d	-0.19292721415738825
7	0x3fcac54056559adb	0.20914463248774137
8	0x3fabccc09810af06	0.05429651123298922
9	0x3fd2cfeb616666ff	0.2939403964206661
10	0xbfbb67cb76a738ca	-0.10705253264243023
11	0xbfd3ac5a7ee872d1	-0.30739462273940626
12	0x3fa207453bf6aa90	0.03521171910263832
13	0xbfd8bf57eae8699b	-0.3866786760351261
14	0xbfb5e719bda5cbf7	-0.08555756454533979
15	0x3fc01435b7a74f9b	0.12561675517519863
16	0x3fc57183458d8b8b	0.167526635133154
17	0x3fa8b6ea2e670b30	0.048270528950089875
18	0x3f84a61626ae1a5b	0.010082409911558779
19	0xbfb5a57c5c0f6edf	-0.08455636260572018
20	0x3f9c5b4784672703	0.027691953140482017
21	0x3fc4ab949835d26a	0.1614862197126457
22	0x3fcff4e87ff27426	0.24966150519768
23	0xbfd17dbbe61ff25a	-0.2732991931259555
24	0x3fa526b4dcd64c26	0.04131093211903929
25	0x3fcb4964716e30ff	0.21317725695224252
26	0xbfc553181b456652	-0.16659833270641627
27	0xbfd5d7e4e635c5af	-0.34130213242959945
28	0x3fb7bae013363b25	0.09269524067915975
29	0x3fd5a41016acbd43	0.3381386014397842
30	0x3fba2641e816a66e	0.10214626232359489
31	0x3fb54de868ce2e8a	0.08322002943730858
32	0x3fc5f8bf4e4192a8	0.17165366479016098
33	0xbfa92f2a01b18107	-0.049187958437643835
34	0x3fd6e4a868c01932	0.3577061675026868
35	0x3fadc35e4b3290e1	0.058131167106042055
36	0x3fa6f5b47f58e688	0.04484333090335918
37	0x3fc7dccbb75e8e6e	0.1864256520612914
38	0xbfd0bb91f0ae44c2	-0.26144836906412305
39	0xbfc0093d66ce8d90	-0.12528197784295658
40	0xbfb48359d49b9439	-0.08012925568216724
41	0xbfcdf3ba47786f44	-0.23400047769325216
42	0xbfc7044ebece957d	-0.17981895748850354
43	0xbfd5fd12dfeaeb8c	-0.34357139460524233
44	0x3fbfc8b110209502	0.12415606158954876
45	0xbf97782329c81f85	-0.022919225144533612
46	0xbfcf9074d09a2d25	-0.2465959566655808
47	0x3fa771eb8b3d820b	0.04579101633749268
48	0x3fbc06d91a55e5c4	0.10947949307401134
49	0x3fd9b35db52d4fda	0.40157263463083626
50	0x3fd67fcd7fe0e202	0.3515504597485518
51	0x3fc3f214de1c92f1	0.15582524152082258
52	0x3f9307c1c80357a2	0.018584277947261925
53	0x3fd6c257e6c216a7	0.3556117776391638
54	0x3fd15edc35a038c8	0.2714148067178823
55	0x3fd5d756655903a3	0.34126815697896457
56	0xbfd794cb94f48adf	-0.36845674082193897
57	0x3fa73d280cd31fd0	0.04538846165229382
58	0xbfb58e52f288eb1c	-0.0842029420972889
59	0x3fd348cc0f79605d	0.3013181830515402
60	0x3f973272e2b96880	0.02265338429274566
61	0xbfd08c4387016953	-0.2585610216534821
62	0xbfd49de3ec413924	-0.3221368605781143
63	0xbfb99e18c57cb91e	-0.10006861516442142

linear_map_in.mlp.3.bias f8 [8]
0	0x3fbf750a2bd73610	0.12287963457421136
1	0x3fc7d6f1a71810a3	0.18624706896674068
2	0xbfbfd651284092b2	-0.12436396820755638
3	0x3fd23b23808d1f43	0.2848595385917074
4	0x3fd6c87645f27ac1	0.35598522978572694
5	0xbfc266130e2bc918	-0.1437400645441549
6	0xbfc114ae97dcfc11	-0.13344366469570493
7	0xbfc0b7d47f33afec	-0.1306100483992617

linear_map_in.mlp.4.weight f8 [1]
0	0x3fe4b93ab4668f39	0.647611000390021

linear_map_in.mlp.6.weight f8 [8, 8]
0	0x3fd6954904d21cc3	0.352861647327199
1	0xbfc01935dc960003	-0.1257693602638029
2	0xbfc3469fbec5b3eb	-0.15059277358105247
3	0xbfd28378094527f9	-0.28927422433173394
4	0x3fc97f6810dad789	0.19920063803664004
5	0xbfb2113e1fed2cdb	-0.07057560233549813
6	0x3fc61258b0421876	0.17243488890034414
7	0x3fb3cfc58cf1b8b3	0.07738909426709277
8	0x3fd66597b5dbd5d5	0.34995072135583644
9	0x3fc628e64418e0bc	0.1731231529718168
10	0xbfcf3c43e55d95f8	-0.2440266485165663
11	0xbfcd4d9ebbcc4c52	-0.22893127603365088
12	0x3fb7905af89ec088	0.09204643792941358
13	0xbfd51ceb4e36b906	-0.3298900855833299
14	0xbfd560e9d4b0f794	-0.33404012461311905
15	0x3fafacdf59656ad1	0.061865787184350325
16	0xbfc1c35961a4cb6d	-0.13877408283004958
17	0xbf814bf602ad3f29	-0.008445665318191313
18	0xbfc011ff7312fc93	-0.12554925078254495
19	0x3fcb1c6ca07d3189	0.2118049415243031
20	0x3fcf230be10da1ed	0.24325703133514712
21	0x3fbefbe57170eb2b	0.12103113193090269
22	0x3fd7556ba58752b5	0.36458865322974116
23	0x3fd15b31243a23a4	0.2711909154682479
24	0x3f94b079ed0379ca	0.020204453555260384
25	0x3fa3ca02d850c233	0.038650597482391545
26	0xbfd50cc7d2a3e70a	-0.3289050633462557
27	0xbfcb47c8e59f1f71	-0.21312819683066267
28	0x3fc5a1364fa76d0d	0.16898230447154852
29	0x3fd5e1f4ce13fa7a	0.34191627621468224
30	0x3fa44ccc072740e9	0.03964841449089979
31	0xbfc9477ae087dfb2	-0.19749389613548157
32	0x3f22acb80eb6b016	0.00014247652812338145
33	0x3fcf20d5463e1bbe	0.2431894867879389
34	0x3fb89a5e4f275cb5	0.09610547478165439
35	0xbf8467de663ba623	-0.009963738913444214
36	0xbf87fe62989ef445	-0.0117156699014861
37	0x3fc0a7c692f696f3	0.13012010742129795
38	0xbfd134ef27d1129a	-0.2688558472475876
39	0x3fd6a9457132c9fa	0.35408149771242814
40	0x3fc50e2faf1c1405	0.16449543047215812
41	0xbfad710c3d91b9b7	-0.057503111377502795
42	0xbfd36d620f348fe1	-0.3035512112130601
43	0x3fc707ef18f07282	0.17992962568031962
44	0xbfd576a6ed8225f1	-0.33536694711855747
45	0xbfd41bd9e2553a22	-0.3141998968393712
46	0xbfc14a4cf430f503	-0.13507997439766237
47	0x3fcc6c5f7496f4c9	0.22205727761130437
48	0x3fd48ecb87c1d0c6	0.32121551759270195
49	0x3fbaa2e8dc76b9fd	0.10404830343643563
50	0x3fc821aae541633f	0.18852745241272292
51	0xbfa81694a3202bbc	-0.04704727641372794
52	0x3fae9afc6bb8e85b	0.059776199483579893
53	0x3fd0cdf9b7d50073	0.2625717444643733
54	0xbfdc3b9267df90e4	-0.4411359800708523
55	0x3f968aa01e9f3b1b	0.022013189190882004
56	0xbfcf65204c80abbd	-0.24527362571219938
57	0x3fb9c25db8a65f0a	0.10062204130224131
58	0x3fb44ad771d9ee86	0.0792669918973222
59	0x3fd4365c81097b18	0.31581795312188055
60	0x3fc5ce91b6ac6b54	0.17036649150471794
61	0x3fd094dfa1c8f223	0.2590865211421109
62	0x3fc2bbf50a63e5da	0.14636099822364096
63	0x3fc91c299aca72ec	0.19617195184846226

linear_map_in.mlp.6.bias f8 [8]
0	0xbfc3e934102d1481	-0.15555430211876245
1	0xbfbccf7acd0ce049	-0.1125408888445928
2	0xbfc11c6499a3a5f8	-0.1336789846603066
3	0x3fc14d735ef0d926	0.13517610679418474
4	0xbfc40b79ffdec6e4	-0.15660023683226776
5	0xbfc42df2a4c4cd5f	-0.15765221639012858
6	0x3fc33630227b5b52	0.15009118732151677
7	0xbf9cba1b633c33de	-0.028053691799005402

linear_map_in.mlp.7.weight f8 [1]
0	0x3feb6712e37ad3ee	0.8563322489704868

linear_map_in.mlp.9.weight f8 [8, 8]
0	0x3fc499836d20aff4	0.16093485668659435
1	0xbfc6caa94254d076	-0.17805972803910536
2	0x3fac3afa955bba9f	0.05513747285100589
3	0x3fd49935a9e1c448	0.32185117330579205
4	0xbfbdccd10ce48577	-0.11640650334131473
5	0xbfd21e31a9f1f9b5	-0.28309289547169253
6	0x3fced781ddc3ae0f	0.24095176056231124
7	0xbfc1f93e4e19c635	-0.14041880429754064
8	0x3fc236d6c8baf65b	0.14229855347905382
9	0x3fcc59627ba31d3b	0.22147780453654228
10	0x3fbc63a7caae42ff	0.1108956212831451
11	0xbfa322f16009f7a9	-0.03737596795416149
12	0xbfc4c9fceb761a34	-0.16241418358932125
13	0x3fd25f661965defa	0.28707268219248727
14	0xbfc60067f9f43adb	-0.17188739495073588
15	0xbfb249bc68cf9c38	-0.07143762167798762
16	0x3fd3f57725145721	0.3118570196250961
17	0xbfc448cd8a417b52	-0.1584717679097261
18	0x3fd7bc9e6b2b5514	0.37088737931965565
19	0xbfc7ee6da0bde6a1	-0.18696375225754472
20	0xbf844e4d3b354c91	-0.00991497361125074
21	0x3fbe1fc052c71197	0.11767198582589909
22	0xbf98c90f0f9565ea	-0.024204478574892642
23	0x3fc975d5db6a0ab9	0.1989085503920103
24	0xbfd21f45725eb461	-0.28315864724101486
25	0x3f4be807e4982cdb	0.0008516348399906464
26	0x3fd23be352290dce	0.2849052717540105
27	0x3fcfd9ea10011d9f	0.24883771687948994
28	0xbfd2e516d7a4ba7d	-0.29523249682362246
29	0x3fca99f74af13714	0.2078236690453471
30	0x3fbfdee5d8374f29	0.12449490097725104
31	0xbfd201e33205ab3d	-0.2813652027604581
32	0xbfa3276d1163f97b	-0.037410171864382634
33	0x3fbe4d2143190edb	0.11836440933353336
34	0xbfbf84f5205ee28a	-0.1231225208310979
35	0xbfb771746f3901db	-0.09157493319890568
36	0xbf9b61685f30d920	-0.026738768396364354
37	0x3fcf2cd553d28667	0.24355570404900392
38	0x3fd743eff35eecee	0.3635215641658779
39	0x3f4eb290ed52155d	0.000936814084199138
40	0x3fb286b7c397e5a5	0.07236813092449397
41	0xbfd6b0fd9072701b	-0.35455264192728614
42	0x3fc1f5e13fe8ce5d	0.14031615849090687
43	0xbfbefc23276e827d	-0.12103481018722025
44	0xbfd6687f7b0caf01	-0.3501280500083653
45	0xbfd86f7685fda6c7	-0.3818031605247651
46	0xbfd799f7494317be	-0.368772336525918
47	0xbfc944c35b47a25d	-0.19741098362944146
48	0xbfc462fcca9b845a	-0.1592708577436806
49	0xbf4e80b177af1536	-0.000930868772564131
50	0x3fcfb2769db675ef	0.24763376904313314
51	0xbfce4096ca8b0a04	-0.23634610070992335
52	0x3fd48bc5d28c98e7	0.3210310512680636
53	0xbfcb1d09bbf2c94a	-0.21182367016951736
54	0xbfd6a809482dcfc9	-0.35400611923909914
55	0xbfa100b9313983ee	-0.033208644160147446
56	0x3fd523df8d3c1c86	0.33031452934705674
57	0x3f9df0f6dc7059d0	0.02923951836063471
58	0x3fc828fc66fd14c1	0.1887507918237699
59	0xbfce257ed25dc4c3	-0.23551926872054282
60	0xbfd40c6122dc9828	-0.313255580944658
61	0xbfb5927cf5cd0a3d	-0.08426648140906763
62	0xbfd6fcfca8ae5244	-0.3591910979533035
63	0x3fccc48aa018a82b	0.22474797074511463

linear_map_in.mlp.9.bias f8 [8]
0	0xbfc7b3f6694c884b	-0.18517952100325127
1	0x3f9e8aeddc57c088	0.029826847623497105
2	0xbfc7c38cc451a789	-0.18565520845305297
3	0x3fc14074088818f8	0.13477945725043816
4	0x3fcb9cf39fe81ad5	0.21572728450720172
5	0x3fb83ed0bbd96b35	0.09470848642505987
6	0x3fc1e0a478ab6ae0	0.13966804401464739
7	0x3fd41c59d6756522	0.3142304033586517

linear_map_out2.mlp.0.weight f8 [8, 8]
0	0xbfd16ed1f3567956	-0.2723889232965083
1	0xbfd6451e8b38d0bd	-0.3479687079991541
2	0xbfb138934d7ffa5a	-0.0672695221146368
3	0x3fc7f4547e1aefc4	0.18714386136514183
4	0xbfd73f3f9b806f26	-0.36323538003647327
5	0x3fd3bec486635614	0.30851853488761205
6	0xbfc98620a57fd4a2	-0.19940574723265053
7	0x3fc796cc54c983ee	0.18428949489592078
8	0xbfcb530fa12a29ac	-0.21347232217187917
9	0xbfc096c483353234	-0.12960106283789374
10	0xbfd21a09c3a4b873	-0.28283924203686367
11	0x3fd7136e56573515	0.3605609744234511
12	0x3fd931ed182e8429	0.393672250380464
13	0xbfb3c7ceb0fafc9a	-0.07726756878672561
14	0x3fb8edbc76f98fd1	0.09737756638202134
15	0xbfc61c6f52399fce	-0.17274276270768357
16	0x3fd18d1904e9f203	0.2742369220721061
17	0x3fd396b2ef96a236	0.3060729350786774
18	0xbfca45db4ec39991	-0.20525685640241112
19	0xbfce3eb193651624	-0.23628825852408497
20	0x3fd0e7e09fd881d4	0.2641526757234065
21	0xbfd1473492dbb01e	-0.2699710306321793
22	0x3fbb5e6f83a3ef4c	0.10690972293735718
23	0x3fc5a61a2658b69b	0.1691315352667758
24	0x3f797f1ec28a49ca	0.006224746852824878
25	0xbfaea890625c19e3	-0.05987979126625811
26	0xbfc0e34c0c7480f7	-0.13193655594023543
27	0x3fbb5a0cfdf18368	0.10684281539717022
28	0x3fd8be2759566c80	0.38660606121420216
29	0xbfb37bd281fdeb22	-0.07610812829618088
30	0x3fd0f8fe68e7e971	0.26519737477033006
31	0x3fc04c1610e1b82a	0.1273219664030319
32	0xbfd134c4a4de716d	-0.2688457117126493
33	0xbfd1cdacfcfad45b	-0.2781784506326567
34	0xbfd6a36b1cedfdbf	-0.3537242681995529
35	0xbfa37bfc1df0f260	-0.03805530419819969
36	0x3fb4aeab2ae9df44	0.08079023168272409
37	0x3fa4b81759c6dc2a	0.040467004498559625
38	0xbfd0ff79bf00c4a4	-0.26559299137722747
39	0xbfd3c2c8c17c3914	-0.3087636842254977
40	0xbf845daab52c3fb1	-0.009944280294376858
41	0x3fc780ff3c771483	0.18362417652511817
42	0x3fd374249e1cf616	0.30396380844817494
43	0x3fd509dfb5d8db9b	0.32872765310769986
44	0x3fc1e2a755e0b614	0.13972942059756177
45	0xbfb38bcdec7ab57c	-0.07635199569150147
46	0xbfc77c2ce4a5af36	-0.18347703136839194
47	0xbfd1dedad02cd8c6	-0.27922697381599126
48	0x3fdad4242369cc83	0.41919806917503183
49	0xbfcf7ba37913ef66	-0.24596064960484937
50	0x3fc3e284ade2eef1	0.1553502892546628
51	0xbfc8ac1a19cc0d0e	-0.1927521348917271
52	0xbfcb6f6a4fa47a89	-0.214337624442994
53	0xbfc6ecf22896e2cd	-0.1791060159864827
54	0x3fc36c6dd2a93864	0.15174649034674126
55	0x3fc3abec5cbabe86	0.1536841824322332
56	0x3fd3a3d0b7f371e4	0.3068734928508816
57	0x3fd7cdaa47219a20	0.3719278044358436
58	0xbfc79c4d41cb8bcf	-0.18445745194102733
59	0xbfcb440cf0d4c7fa	-0.21301423796973024
60	0xbfcdbf0766f8f4d4	-0.23239223983720214
61	0x3fc1f84ed53b3600	0.14039025699314323
62	0xbfaf99d195b685f5	-0.061720418477545204
63	0x3fb484dc74587337	0.08015230026690011

linear_map_out2.mlp.0.bias f8 [8]
0	0xbfc8e1608af03a4e	-0.19437796386815126
1	0x3fcef9b6f86192ec	0.2419956887053084
2	0x3fd84141a020a1fa	0.3789829314942207
3	0x3fb196b803dbb10a	0.06870603651231391
4	0xbfb063433e366f11	-0.06401462811339466
5	0xbfcc1c86919257ee	-0.2196205340193837
6	0x3fc3f84b97b37a8a	0.1560148707130405
7	0xbfad37e987c0a666	-0.057067201444010604

linear_map_out2.mlp.1.weight f8 [1]
0	0x3fd97c9d5520b1bb	0.3982308703732788

linear_map_out2.mlp.3.weight f8 [8, 8]
0	0x3f99daaeae61a1dc	0.025248269456285985
1	0xbfd1862544863be8	-0.2738125962432023
2	0xbfdcf05ed9e7be99	-0.4521710517865159
3	0x3fd03024894f6783	0.2529383984489117
4	0x3fc841ea2cee7148	0.18951155847470091
5	0xbfca58c83a087a99	-0.20583441575668784
6	0x3fb7ba894d8c61ab	0.09269006865759503
7	0xbfd2b50146fbdc65	-0.292297667808674
8	0xbfd10240cf08d218	-0.2657625219174249
9	0x3fd3474133c0f25c	0.30122404150077897
10	0xbfcee2f7ebe0076d	-0.24130152718867795
11	0x3fc9006c445ad5a2	0.19532540643346602
12	0x3fd9a08a54da3b48	0.4004236057889341
13	0x3fd7412b9816664b	0.3633526787976719
14	0x3fabf6476cfb0ac9	0.05461333470659253
15	0x3fb9284ef47465e4	0.0982713076413329
16	0xbfbb7a1cb499b5f6	-0.10733203324499371
17	0xbfb2a7911ce285fd	-0.07286936717220978
18	0xbfc25af96a2a226f	-0.14340131458108682
19	0xbfd0d47fdf3760b4	-0.2629699401709431
20	0xbf9799fc447d8e3c	-0.023048345260930456
21	0xbfc8c9bc8fa6c61b	-0.1936565114424845
22	0x3fd2a182eba33044	0.2911078740260147
23	0x3fc478d1e064c297	0.15993712860792605
24	0x3fcd2671b3992da9	0.22773572225046948
25	0x3fcbd2573d55864b	0.21735659117534775
26	0xbfd350c24c16e879	-0.30180413656820054
27	0xbfd439995159f937	-0.31601555771330275
28	0xbfcc7547660e0c79	-0.22232906802318889
29	0x3fd274fb7c386ce6	0.2883900368776281
30	0xbf9369413a385383	-0.018956202677219657
31	0xbfd8eaca7d98a503	-0.3893305040861181
32	0xbfdf04e8b69da543	-0.4846746238095713
33	0xbfc253d0a7e328e2	-0.14318283269523763
34	0xbfa2e58e5165155c	-0.036907622753043795
35	0x3fde8acfc9c95d3c	0.4772223921367702
36	0x3fc6ad0cb3782519	0.17715605509901236
37	0xbfcb5333baaf064a	-0.21347662558950936
38	0xbfa00c5000d95e10	-0.03134393701901328
39	0xbfc72bad3fecb1df	-0.18102040883367373
40	0x3fd39ac2cfffa027	0.30632086098057915
41	0x3fd1fba6999477b8	0.28098454473535694
42	0xbfc051ac8bce2815	-0.1274924929278433
43	0x3fa3bd4ad735a2a4	0.03855356099194765
44	0x3fd0498a28cd1a36	0.25448850616922714
45	0xbfc085ae2823ff1c	-0.12907959899893562
46	0x3fd2187cd18ba670	0.28274460280827096
47	0xbfc8f47db8691d23	-0.19496127609657163
48	0x3fc07745f65745e5	0.1286399319492794
49	0x3f94d7c680db6ad2	0.020354367842496064
50	0xbf8502e597127e00	-0.010259431527003038
51	0xbf9d7b8a1972f3ab	-0.02879157810524517
52	0x3fbc17d1f0f8750b	0.10973846562452054
53	0xbfdccba2024d2e03	-0.44992876267198784
54	0xbfcc67882ab32ea4	-0.22190954289395848
55	0x3fcbb2aca5049876	0.2163902097465244
56	0xbfce5a87441103c4	-0.23713770698125647
57	0x3fd9c788ec38e77a	0.4028036410196517
58	0x3fa5ee7eed71e1f5	0.042835203633277454
59	0x3fcf9fa28fc5b1b4	0.24705917377594988
60	0x3fcd65601c6e8adf	0.2296562327220135
61	0x3fcd19d854d3ad73	0.2273512281602553
62	0x3fc39471bab04195	0.1529676591458268
63	0x3fc7cbff76380d61	0.18591302177820082

linear_map_out2.mlp.3.bias f8 [8]
0	0x3fd4d16bddb513b2	0.3252820649252569
1	0xbfcb97f446bb1502	-0.2155747743001158
2	0xbfc04b1680fb99a1	-0.12729150102604783
3	0xbfb4a1b408da799f	-0.08059239593646915
4	0x3fc4475b46db832e	0.158427629087805
5	0xbf57f2cbecba908d	-0.0014616958095894667
6	0xbf9034c67f13bf19	-0.015826322084591646
7	0x3fc73c70153f8278	0.1815319160223401

linear_map_out2.mlp.4.weight f8 [1]
0	0x3fe5fc070f83aa38	0.687015085507773

linear_map_out2.mlp.6.weight f8 [8, 8]
0	0x3fb9301d01660ca6	0.09839040073534253
1	0x3fcdb283aecbfdb1	0.23201032671930258
2	0x3fc610cafac2819e	0.17238747829561601
3	0x3fd5b187aed50797	0.33896057198955404
4	0xbfcbbf46a38a4285	-0.21677477822642657
5	0x3fbe32403d48de6c	0.11795426841933371
6	0x3fc52876a9d813db	0.16529734891096734
7	0xbf9c4a48f1fe68d7	-0.027627124567154517
8	0x3fc97d674173df50	0.19913950630120292
9	0xbfda68bdadf9900d	-0.4126428793881594
10	0x3fa2ba207b0a4648	0.03657628538088581
11	0xbfcc4dcf71f90977	-0.2211245829112831
12	0xbfc985a1d2479199	-0.1993906285052958
13	0x3fd269270ea9621f	0.2876680033855638
14	0x3fb50d0eef40979f	0.08223050442810952
15	0xbfd5ad2e32c5f280	-0.33869509657214536
16	0x3fc1cab91a60c863	0.13899911678305718
17	0xbfc21eaf306205a4	-0.14156141149946422
18	0xbfb90f9d81f30ebd	-0.09789452002137984
19	0xbfc5dd1232777bcc	-0.17080905403324065
20	0x3fc8f003346d99d4	0.19482460079161845
21	0x3fd2fad527f880e5	0.2965596094454795
22	0x3fd47a51dcf801a5	0.31996580676061576
23	0xbfd87ae09ba6db16	-0.3824998397862357
24	0x3fcb63ef406cacca	0.21398726125457862
25	0x3f819edbe71e4563	0.008603780737561356
26	0x3fc4f062c6e38fd3	0.1635859938752434
27	0xbfa598a73b518da5	-0.04218027686217888
28	0x3fd250b42822d7d8	0.28617576522389987
29	0x3fd1b9dbd4a7b4ca	0.2769689156255707
30	0x3f817ac4e4568f16	0.008534944742514077
31	0xbf9829ca95538628	-0.023596921314384428
32	0x3fd12d4dc8be6404	0.268390127218993
33	0x3fd3eb38db88b9cf	0.31123181761622914
34	0x3fc95f7ad0e3d149	0.1982263107271456
35	0x3fd21db4101a2fc9	0.283062949871916
36	0x3fc3df5d87d0aee6	0.15525406962966953
37	0x3fd9f1194f1bf012	0.40534050679684797
38	0x3fbd373da9e6d930	0.11412415884010296
39	0x3f825ea4b50a1952	0.008969580435643696
40	0x3fd9cf9e5dffc216	0.4032970350226902
41	0x3fb040cc3deacfcf	0.06348873626376349
42	0xbfd5485399e39fba	-0.3325394633125104
43	0x3fbf44d2b3908ee3	0.12214390643981292
44	0x3fcda70a6e1864e0	0.23166017890688462
45	0x3fc1f4af7bb805e9	0.14027970829924577
46	0x3f8aee867f64e369	0.013150263560065505
47	0xbfd18e8632e86a71	-0.27432398768875205
48	0x3fce7842bc3753f5	0.23804506483307333
49	0x3fc1428d7bfce69b	0.13484352640243888
50	0xbfd1e63d95ae563b	-0.27967776887212253
51	0xbfd6a35d221996b0	-0.35372093515466485
52	0xbfc6743f39cea67f	-0.17542257616632992
53	0x3fcbe9e9820048ba	0.21807593200407444
54	0x3fd8a41e41b44ed8	0.385016979374297
55	0xbfcd7f9493cbc858	-0.23045594421961613
56	0xbfd1e969f33b8668	-0.2798714518849921
57	0xbfcc6c7acac396ee	-0.22206053639018059
58	0x3fb48bb16b8db679	0.08025654674357864
59	0x3fc4a723570c3a36	0.16135064840678276
60	0x3fc21740b958ecd2	0.14133462000049818
61	0xbfc983a3e45f67a7	-0.19932984019288577
62	0x3fb0831870b099b5	0.06450035811631134
63	0xbfd1e874b0e0c496	-0.2798129775356498

linear_map_out2.mlp.6.bias f8 [8]
0	0x3fbbc4297e1496f8	0.10846194580207313
1	0x3f974a6c4c7fd80b	0.022744838875915756
2	0xbf97ea8e7efbdef1	-0.023355700016479856
3	0xbfb60367611507eb	-0.08598943824929932
4	0x3fb812d909456d8c	0.09403759456966138
5	0xbf8bc9f2e0b820c3	-0.013568780405890718
6	0xbfa0fcc111efd923	-0.033178361358226625
7	0x3fc5e42d8a54a402	0.1710259366457479

linear_map_out2.mlp.7.weight f8 [1]
0	0x3fe6d55ab7a3fea8	0.7135442339640194

linear_map_out2.mlp.9.weight f8 [96, 8]
0	0xbfd1f1ae65bdc4f8	-0.2803760522429708
1	0xbfb4fac116768ff9	-0.08195120619217268
2	0xbfc5beeed0afa151	-0.1698893088316802
3	0xbfd021dad6afa809	-0.2520663353485593
4	0xbfe48bccfc6f186c	-0.6420655184126765
5	0xbfcbf6a44ad130f9	-0.21846440938168835
6	0xbfe0eb327ddeca10	-0.5287105997470594
7	0xbfa78448b5772aa7	-0.045931121970700865
8	0xbfb281eabab46bff	-0.07229487474653239
9	0xbfc42ffdd83e9340	-0.15771458681879302
10	0xbfd799ab0f43f936	-0.36875416270040107
11	0x3f41fbb6c6ea19f8	0.0005488054719798288
12	0xbfca5457369190e7	-0.2056988731811835
13	0xbfda627f35467280	-0.412261774088428
14	0xbfd3fff3c3ff72b1	-0.3124970830956882
15	0x3fbec560696f871f	0.12019922803986248
16	0xbfa8e9e0313b4884	-0.04865933037730577
17	0xbfe345adf7a21d6f	-0.6022558056437627
18	0xbfc1989835839f34	-0.13746931660647876
19	0x3f960ffa63767bef	0.021545326538781436
20	0xbfdd3c10e636526f	-0.4567911384740801
21	0xbfdb1d8cef27bd7a	-0.42367862086299335
22	0xbfd0852f73023449	-0.25812898856458283
23	0x3fd28dca5e80165c	0.28990420559452956
24	0x3f6f20f8c358e298	0.0037999018338975114
25	0xbfcae87e19b0cfde	-0.2102201104586347
26	0xbfc200834cafad8b	-0.14064065212674523
27	0x3fb669585fa03fb0	0.0875449403249593
28	0xbfc735fd09f6252f	-0.18133509622956853
29	0xbfe03139560d6631	-0.5060087853154923
30	0xbfc810e4c32da8b9	-0.18801555185502197
31	0x3fd86b72d9e7f344	0.3815581443775964
32	0xbfe30e3915f1e060	-0.5954862049684486
33	0xbfba9ba9d9304ea9	-0.10393773605783942
34	0xbfd9e4acfd6e3877	-0.40458225964619693
35	0x3fc01db6074b38fb	0.12590670925278133
36	0xbfde857b78735573	-0.4768971134447703
37	0xbfb87f1757303d96	-0.09568925741790787
38	0xbfd49a432506e2b7	-0.32191542259128475
39	0x3fd945f9dbed9589	0.39489599683141613
40	0xbfd853833ad57a10	-0.38009720559594573
41	0xbfe242199b588c6e	-0.5705688509082287
42	0xbf741e70d9499c36	-0.004911843123955475
43	0xbfc3028d6ef0bc5a	-0.14851539532671404
44	0xbfdff197c77c8a09	-0.49912065964795765
45	0xbfc5e9aaf5d92016	-0.1711934757643127
46	0xbfdb9f53651d94a1	-0.431599472757009
47	0x3fe050d8286d400e	0.5098686971268778
48	0xbfdda18156e108b6	-0.46298249706536454
49	0xbfdd10b64ecbb912	-0.454145028065697
50	0xbfa640f7e0e8d459	-0.04346441860654044
51	0x3fc6575c1dd5967e	0.17454101044420506
52	0xbfe3d123b02e0136	-0.6192797127733118
53	0xbfda420d79eedff5	-0.4102815333130814
54	0xbfe12ecde6b6fa19	-0.5369634157321485
55	0x3fc25fcda1314093	0.14354868288728947
56	0xbfd1d6b91d3279a4	-0.278730658066616
57	0xbfe5121495ef08e3	-0.6584570816414977
58	0xbfdf885aabbbc3bf	-0.49269739886136316
59	0xbfdbb5d365b07789	-0.43297276430700343
60	0xbfd48786a9238792	-0.32077185170612055
61	0xbfb59c65caddb107	-0.08441768839628959
62	0xbfe5a7ee28a2e3b6	-0.6767493051221354
63	0x3fdcca87bddf018d	0.4498614649019366
64	0xbfe4978aeb7a91d4	-0.6434988593287536
65	0xbfcf6eca42b05a06	-0.245568544924666
66	0xbfd8b590d716eafd	-0.3860818958743691
67	0xbfd10d14b696b104	-0.266423395451753
68	0xbfc37f967d73dd23	-0.15233117223372358
69	0xbfe0976a0f5f0603	-0.5184831905573336
70	0xbfe1a7e67b06a444	-0.5517456438875645
71	0x3fd7a76c332e539e	0.36959366796627957
72	0xbfd19fc0559d09b3	-0.27537544594465685
73	0xbfc6b84dc3fcf580	-0.17749950475437615
74	0xbfe0e351b0e084f3	-0.5277489142064539
75	0x3fc629f562c87d41	0.17315547297855896
76	0xbfe412a629a27719	-0.6272764981438029
77	0xbfdfd448db18be4b	-0.49733182331235487
78	0xbfdef8d294dc4dbd	-0.48393692528881244
79	0x3fd4a221a27fac17	0.3223957144643363
80	0xbfddf158e5c3cd2e	-0.46785566747640217
81	0xbfd5f7516ea355fe	-0.343220098538353
82	0xbfe2c3cd60d3cb31	-0.5864016429098681
83	0xbfd213d566231c91	-0.28246054624873645
84	0xbfd3f6d7566c7a0e	-0.31194098892038447
85	0xbfe21702c8771a92	-0.5653089442574404
86	0xbfb1c55e66da518c	-0.0694178582292066
87	0x3fd21b9f400be488	0.2829359174207373
88	0xbfcaa20eb4a7f29f	-0.20807060071083058
89	0xbfc68c3b3df06f68	-0.17615452312827107
90	0xbfc6f244622c85ec	-0.17926840585373272
91	0x3f93fe14cbcc9db9	0.019523930491372108
92	0xbfd34b9dc0b2dc53	-0.3014902479002945
93	0xbfc27f86d9c761b9	-0.1445168078778474
94	0xbfe136415e4519f5	-0.537872966881706
95	0xbfa4aeacd0200e93	-0.04039516487685293
96	0xbfe008a5208ca52b	-0.5010553012590767
97	0xbfe28d19bab6c094	-0.5797241827731505
98	0xbfc083c5b5b33a43	-0.12902137157512258
99	0xbfd027475070edf5	-0.2523973737295074
100	0xbfdc5b032938e2b6	-0.44305495286566143
101	0xbfdab4f9d329c7e1	-0.4172958910122571
102	0xbfc184e4d0ea0bbf	-0.13686809731379232
103	0x3fccd92bea567f79	0.22537754957465575
104	0xbfc5ecaa2bc41397	-0.1712849343968201
105	0xbfe4e34b26ebba4e	-0.652745796220026
106	0xbfcbcc760bf18687	-0.21717715819527347
107	0xbfc039678c4d9c81	-0.12675184584370316
108	0x3fa92f92fe34421f	0.049191087275293414
109	0xbfd6add85a4582c2	-0.35436066451624637
110	0xbfdd5be94f9abcf8	-0.4587348248850982
111	0x3fbe3ec8e0e12b9f	0.11814551820968554
112	0xbf9f7b4f39f775e3	-0.030743825829508863
113	0xbfb3bc4eafc2ccc3	-0.07709209242857455
114	0x3f880923600331a1	0.011736179702347029
115	0xbfd2c1338c51738d	-0.293042075185263
116	0xbfc6a6352f31128e	-0.17694725803643901
117	0xbfb53654c0d866d8	-0.08286027629983594
118	0xbfc1b6f593a9f4d6	-0.13839597425604805
119	0x3fe20aa0302ddce4	0.5637970868109758
120	0xbf87fed42ae12f64	-0.011716516073782386
121	0xbfc091359ab98be3	-0.12943143896981643
122	0x3fafe41a5e20f238	0.062287162771529514
123	0xbfda2e91ddebeab0	-0.40909239456201885
124	0xbfe3df40b7dad607	-0.6210025397219291
125	0xbfe092b5b089f05f	-0.517908901979819
126	0xbfc9a8d495ed03db	-0.20046479530904446
127	0x3fde0c42023bf568	0.46949815958199403
128	0xbfda283642a9efd5	-0.40870434293878805
129	0xbfd8ab6a1f61db51	-0.3854623133151352
130	0x3f6753e03eaa3be4	0.002847612360091999
131	0xbfdbb241333a07e9	-0.4327548027287081
132	0xbfd3501714674813	-0.3017633151295069
133	0xbfc31cf43e772185	-0.1493211083418481
134	0xbfc620bbc422dde8	-0.1728739459701807
135	0x3fcb25baeb9f6875	0.2120889330388455
136	0xbf9c56b641d9844c	-0.02767452980913658
137	0xbfe0a73a5bf89c6a	-0.5204135700522674
138	0xbfc320a4cc6ea6de	-0.14943370801966344
139	0x3fcb81c0890aa399	0.21489721957666744
140	0xbfdebc999480f230	-0.48026122572244656
141	0xbfe6e695068beaab	-0.7156472328054709
142	0xbf81d1314df1775f	-0.008699784461153546
143	0x3fdc738a918b54bc	0.44455208028132254
144	0x3fa3cf041fc0de51	0.03868878257383968
145	0xbfdbeb39472a3513	-0.4362319178552109
146	0x3fb1394ee51217f6	0.06728070347352841
147	0xbfb5c37844febc05	-0.08501388248872395
148	0xbfe2999cc1105c98	-0.5812515040187405
149	0xbfb29e165361d236	-0.07272471938797129
150	0xbfe2d5fbe76c5eae	-0.5886210937487328
151	0x3fd9bb40692403c9	0.40205393092770386
152	0xbfbd5db7f034cbd4	-0.11471128096017874
153	0xbfb734bb93702797	-0.09064838742793167
154	0xbfd8564836252284	-0.38026624000171005
155	0x3fa8a70926200a8e	0.04814938154597313
156	0xbfcb45bde6562c5d	-0.2130658507051945
157	0xbfe5d079d8416e84	-0.6816987251035731
158	0xbfc15c7be23296e0	-0.13563488526158718
159	0x3fbc564187cf15f9	0.11069116178176576
160	0xbfda83b12d8a938f	-0.41428784797090484
161	0xbfdb3084771bac7a	-0.42483626968050425
162	0xbfd6d8ff609a58a2	-0.35699448045614635
163	0xbfd04dc7816256cd	-0.2547472728268588
164	0xbfe22080af87232b	-0.5664676121024049
165	0xbfe5a90a16ca9b5e	-0.6768846936364346
166	0xbfe4fab8b8c6abf6	-0.6556056603343439
167	0x3fcde4958accd9d3	0.2335383346305223
168	0xbfc437f025d184c6	-0.15795709463694702
169	0xbfd99a93add177c7	-0.40005962347447305
170	0xbfd43a0e2f42ba22	-0.31604342093752014
171	0x3fa416b45c51167c	0.03923572184480137
172	0xbfe1ece9ee45ecfe	-0.5601701406261836
173	0xbfd9706b7f627adc	-0.3974865669241987
174	0xbfd8a9f6a148be18	-0.38537374258427937
175	0x3fdb9cb69a71fea3	0.4314400203947832
176	0xbfe126d7c0a7c39d	-0.5359915507125269
177	0xbfbd86c690c6c3b8	-0.1153377631624285
178	0xbfcdaaf4a203fe12	-0.23177965079229118
179	0x3fc8876b416a51af	0.19163265890223388
180	0x3fa57ee458212b2f	0.04198373390007359
181	0xbfd727a20c175315	-0.3617940061642895
182	0xbfe4e0c8c5dffc4a	-0.6524394860024441
183	0xbfb3b58094b3f292	-0.07698825483744035
184	0xbfddebafae3fa25c	-0.4675101472517207
185	0xbf992825ece1d791	-0.024567215521947686
186	0xbfda08f7b0601a16	-0.4067973349014279
187	0xbfda6a4b14cae1d4	-0.41273762732046504
188	0xbfe39940ce5a31f3	-0.6124576597517816
189	0xbfd98e9c86c271d7	-0.3993293109904505
190	0xbfe152a5ee6bb2d2	-0.5413388878492589
191	0x3fc13596bed1f2a5	0.13444790189159508
192	0x3f9562c48c93ea4a	0.020884581642329793
193	0xbfda5eaf5af19c7e	-0.41202911263685127
194	0xbfe37c9b643b9a0f	-0.6089608152076965
195	0xbfcdd073cc00bdc9	-0.23292396031454946
196	0x3fa413df53cf0204	0.0392141141705942
197	0xbfdd0ce38ae17475	-0.45391167223517154
198	0xbfe4e01bbdf340dd	-0.6523569784131059
199	0x3fe18d4e4a6a8402	0.5484992459715843
200	0xbfb532282eb2aee9	-0.08279658451163709
201	0xbfd83668f247e995	-0.3783209196114055
202	0xbfbcff25724b2c16	-0.1132682231938563
203	0xbfabcc848bcdeb0c	-0.054294721666300644
204	0xbfcdc74f5bb6e8fa	-0.23264495828863813
205	0xbfd5f33f6e0ff0ea	-0.3429716658427099
206	0xbfe31ce1431c1cc6	-0.5972753821123653
207	0x3fdefaf8fc48e225	0.48406815182855417
208	0xbfe08e9042f11edd	-0.5174027736147441
209	0xbfe2d908dd23c141	-0.5889934844144947
210	0xbfdeded398410fa5	-0.4823502528054127
211	0xbfd520bad48d9115	-0.33012266881111546
212	0xbfb4695613d721ea	-0.07973230347045726
213	0xbfe1a06321997fea	-0.5508285194628091
214	0xbfd633a516bdbb9e	-0.3469021532136426
215	0xbfc1f90cf8c757db	-0.140412923311202
216	0xbfd80cc8e5883835	-0.37578031935925377
217	0xbfe23197bb7b94cd	-0.5685537969372035
218	0xbfe357005ebf40a6	-0.6043702936676894
219	0xbfb7d9d93b66e677	-0.09316785526507397
220	0xbfb3231a52d45250	-0.07475437662316975
221	0xbfe3d8c27cdb8cb4	-0.6202099264741237
222	0xbfcc5fbdae21900c	-0.22167178156371425
223	0xbfb5efe3ef3640d6	-0.0856916865361684
224	0x3fb47c2f141034e4	0.08001989593340714
225	0xbfd1d6e6c62dfbf0	-0.2787415442798524
226	0xbfe43a31b4fc2a0a	-0.632103780256615
227	0xbfcba7aa0265ea8e	-0.21605420224280575
228	0xbf8557444c18f0d4	-0.010420354435261826
229	0xbfe3e7f17dc08598	-0.6220633941740514
230	0xbfe2fb461843554e	-0.5931730722319715
231	0xbfab35d0e878a7bb	-0.053144958856435186
232	0xbfc23770e17c1cee	-0.14231692323685458
233	0xbfd989ed16a7a858	-0.3990433427085285
234	0xbfdb35e28bfee82e	-0.4251638762613109
235	0x3fbdd5e8217367e4	0.11654520813627262
236	0x3f9cc87e055a10aa	0.02810856731095216
237	0xbfe3949cdf98dcc9	-0.6118912093287686
238	0xbfdf9510f12f6b64	-0.4934732775997672
239	0x3fdb6b98e9e8957b	0.42844221918706865
240	0xbfd4228606ef0d14	-0.31460714985969784
241	0xbfe01e2c4630ac16	-0.5036832209492583
242	0xbfd2e3c6238ca4c8	-0.29515222045536094
243	0xbf873f630886b6e8	-0.01135136956949219
244	0xbfd78c1acf0463be	-0.3679263135577989
245	0xbfb8c760caa81ebd	-0.09679226825403027
246	0xbfe617f20e5f8c5b	-0.6904230385520224
247	0x3fdf9551d6fc3141	0.4934887504066588
248	0xbfd0ef96857f882b	-0.26462328946047603
249	0xbfe421ac8ad0a953	-0.6291105948669532
250	0xbfba638202827d23	-0.10308086930534847
251	0xbfc2a5d3e30ec020	-0.14568565928266342
252	0xbfe35c2874e00ef1	-0.6049997599334046
253	0xbfe1a8ade66490ac	-0.551840734468461
254	0xbfe09e9da0352986	-0.5193622712188677
255	0xbfc1fce247aa69db	-0.14052990435887022

linear_map_out2.mlp.9.bias f8 [96]
0	0xbfc6f1747b4e5f03	-0.1792436220246075
1	0xbfcc47d5abcd9a3b	-0.22094221962761815
2	0xbfdfb27924e2853d	-0.4952681408122606
3	0xbfe146bb2d63a6ff	-0.5398841749676818
4	0xbfd5c835d987d9b7	-0.3403448700259121
5	0xbfd3930f2802adee	-0.30585078151008716
6	0xbfb40dc7ac34bf1e	-0.07833526567696622
7	0xbfd74641a46d0697	-0.3636631112786772
8	0xbfd0df0e786aeb22	-0.26361428985153357
9	0xbfdb68817b492639	-0.4282535270654964
10	0xbfcd68f43b9076a8	-0.22976544292844392
11	0xbfd76550d6f59dee	-0.3655588244641582
12	0xbfd333b5a076276f	-0.3000310961730212
13	0x3fadd1b13aa84bb0	0.05824045029671454
14	0xbfc47473685f8f41	-0.1598037967333941
15	0xbfd1744feef7046c	-0.2727241357461654
16	0xbfe2760b72f2d5a3	-0.5769097561921409
17	0xbfc71a99344fa66f	-0.18049922041182095
18	0xbfdd3e9ac4f932dc	-0.45694607959448574
19	0xbfd47886a3d574b5	-0.31985631942172726
20	0x3fb3de6fc8daba05	0.07761286405250452
21	0xbfd25a0460797612	-0.2867442075856569
22	0xbfde1161e828f5fc	-0.46981094047427496
23	0xbfd1a795348619cb	-0.2758534443786657
24	0xbfc891fcf2c10ab0	-0.19195520261026422
25	0xbfc0269ce5cd628a	-0.1261783716279477
26	0xbfde246a678e3e16	-0.47097263443808524
27	0xbfbdbbd12e1fcc40	-0.11614711166457514
28	0xbfe169bfb0f24eb6	-0.5441587882982819
29	0xbfc874146776ccc4	-0.1910424714274993
30	0xbfc64b210e6d6c38	-0.17416775898422698
31	0xbfc6c4ccf4754de4	-0.17788087784229767
32	0xbfc34c19008c7092	-0.15075981642519715
33	0xbfba7e981eee846c	-0.10349417452973037
34	0xbfdca0c459dfe4d8	-0.4473124387437344
35	0xbfc0550a9ba03d75	-0.12759525870249502
36	0xbfd39b8b8ac22b85	-0.30636871863014675
37	0xbfc0f683a81efbb9	-0.1325230189231357
38	0xbfdcdb41fd72dac5	-0.45088243246884147
39	0x3fa8324a15164ac2	0.047258677553278186
40	0xbfcb026ef9f15948	-0.21101176456677195
41	0xbfd0914b847aba69	-0.25886810243074493
42	0xbfd833fe89e52f23	-0.3781734797128015
43	0xbfbfadfcc5bdf039	-0.12374858691868064
44	0xbfd5e6135aba5158	-0.34216770038735467
45	0xbfdfc0a0e119b610	-0.4961321066137723
46	0xbfd0fe725b97bc30	-0.265530194707881
47	0xbfc12f0e535c93c8	-0.13424853392021263
48	0x3f99c9f16e1fdf5b	0.025184414240328006
49	0xbfb88e86f81fe194	-0.09592479284027028
50	0xbfc2e2a645bf13c0	-0.14754179387651156
51	0xbfe0691bc993431b	-0.5128306328789195
52	0xbfb47de43e10c8ae	-0.08004595294258607
53	0xbfdea61e744641c8	-0.478889096783885
54	0xbfd5cfd36371276b	-0.3408096762765271
55	0xbf9d4cdc74ead291	-0.028613514553131273
56	0xbfd754999db44ce3	-0.36453857804117556
57	0xbfd758f0ca7a52dd	-0.3648035027811554
58	0xbfc1da0dfd0730ae	-0.13946699957739866
59	0xbf928434d54bf25f	-0.01808245231494465
60	0xbfb846372c503725	-0.09482140380734146
61	0xbfcf2ccc69fe0e06	-0.24355464148912648
62	0xbfd307169b45e679	-0.29730763591178505
63	0xbfd3dcd4bd818a1b	-0.310353455604998
64	0xbfd529b277b4ba31	-0.3306699913981986
65	0xbfcac44707fcbcca	-0.20911491289141387
66	0xbfe05cf32b309c28	-0.511346420626869
67	0xbfb2ba8279a4c36b	-0.07315841169180508
68	0xbfd14ce14264a4bc	-0.2703173778887267
69	0xbfe21566633b5bbc	-0.5651122987863952
70	0xbfe1e4a11b9574bb	-0.5591588534113251
71	0xbfdf7f426910ad85	-0.49214229831951456
72	0xbfc6278b352437ea	-0.1730817803840517
73	0xbfc3164d90561a43	-0.14911813304589047
74	0xbfc57c5bc94073e5	-0.16785762144800667
75	0xbfd24f68d320ade9	-0.28609676950392654
76	0xbfc8f612ed6fcfaa	-0.19500958055107037
77	0xbfdff1bb6952800d	-0.4991291550195463
78	0x3fac901878b0068b	0.05578686211812308
79	0xbfd47fade97cc894	-0.3202929287100542
80	0xbf9e545d9bdfb30b	-0.02961870445135432
81	0x3f942f8065a8b90f	0.019712454037454082
82	0xbfdb572d9ad8b4cb	-0.4271959316418587
83	0xbfe12a47ee25d904	-0.5364112521481563
84	0xbfe02363f6e8e9ab	-0.5043201277215322
85	0xbfd6735fe81038c6	-0.3507919088596164
86	0xbfe114323a01f253	-0.533715356155492
87	0xbfe209f98f322afe	-0.5637176319881687
88	0xbfe12c1f9167c7f2	-0.5366361465405574
89	0xbfe313368696dfcb	-0.5960953358362472
90	0xbfe02add4da50d89	-0.5052324787615571
91	0xbfe097139123971f	-0.5184419474360061
92	0xbfc2639af191320b	-0.1436647109534451
93	0xbfd9201e634ad3af	-0.39258537003052657
94	0xbfd5e5a385a89eca	-0.34214103748898295
95	0xbfd575320b619924	-0.3352780448098136

vit_blocks.0.msa.q_map.0.weight f8 [4, 4]
0	0x3fa11a6946b826bd	0.03340462673447806
1	0xbfaba983577f39e0	-0.05402765696600276
2	0x3fcf71fc4804acf3	0.24566606060520932
3	0x3fb0d4dea0180760	0.0657481327871472
4	0x3fb0068e60b8baa7	0.06260003911368504
5	0x3f51d1397ddd23c6	0.0010874806825589152
6	0xbfc15f7d9b8e6136	-0.1357266435195556
7	0x3fd1706f8b61f0c7	0.27248753177242374
8	0xbfc20b72e0d7c001	-0.14097438791895914
9	0xbfadf2e4f532568c	-0.05849376195071185
10	0x3f472bc7c7c324ba	0.0007071233262873268
11	0x3f84a653b72df33d	0.01008286860246132
12	0x3fab20f8146745d0	0.052985908976221574
13	0xbfaae686f07ca7c4	-0.05254003224975137
14	0xbfc2507ca6ef9694	-0.14308126593748638
15	0x3fca56ae44bf7ffe	0.2057702861484358

vit_blocks.0.msa.q_map.0.bias f8 [4]
0	0x3f7f75f912bb9fc6	0.0076808671399035185
1	0xbfb96502f61d6ee3	-0.09919756420770968
2	0xbf746bb50ba87884	-0.004985530099047012
3	0x3f831eafe4e98c4c	0.009335874722813518

vit_blocks.0.msa.q_map.1.weight f8 [4, 4]
0	0xbf9b8f7b8a098848	-0.02691453008663583
1	0xbf436b3f715b84b4	-0.0005926189212141137
2	0xbfc98d458ea57e67	-0.1996237703815382
3	0xbfbbaaf85ac2f4e6	-0.10807754722459925
4	0x3f403336ea249a86	0.0004943864953802092
5	0xbfcdf0d74b8846a8	-0.23391238391973457
6	0x3f0a9403b31e47ed	5.0693858056352497e-05
7	0x3fccf2f2168caf5c	0.22616411305477413
8	0xbfb39d0fcb7a2e25	-0.07661532132822708
9	0xbf76b7b0653f5d5e	-0.005546273274340178
10	0xbf75901643def414	-0.005264365170600822
11	0x3f4524c662d30bef	0.000645253055744253
12	0xbfb499bcdd7acf59	-0.08047085196704752
13	0x3f93dac89f51ca03	0.019389281009759795
14	0x3fc58b6e3ff08527	0.16831758615539025
15	0xbf308bb85749cba9	-0.0002524685908504251

vit_blocks.0.msa.q_map.1.bias f8 [4]
0	0x3fa853bf8a95f01a	0.04751394812316807
1	0x3fc4d6c99cc10c4a	0.1628047957802628
2	0xbf823c74038e503b	-0.008904367788808645
3	0xbf9572a10faabb17	-0.020945087987168067

vit_blocks.0.msa.k_map.0.weight f8 [4, 4]
0	0x3f8855861710ff2c	0.01188187368290946
1	0x3f9dae21460ee477	0.02898456564046056
2	0x3fc9c9412559de48	0.2014542991998829
3	0x3fa76e0f6c02ee3a	0.04576156800746074
4	0x3fc3c6095d9c6cf3	0.15448109694339215
5	0x3f66828608645137	0.0027477853610752517
6	0xbfca6b44f749256d	-0.20639860224245457
7	0x3f71c4e22ee73447	0.0043381533891536156
8	0x3fa9a3ffb49cc1ea	0.05007933692684559
9	0xbf5206277256d6a3	-0.0011001000615186516
10	0x3f725e53045dfd93	0.0044844858983873635
11	0xbfbdf198b8a7c7f1	-0.11696772106350274
12	0xbfb1524fea7719ce	-0.06766223406075442
13	0xbfcf4cca630eb6cd	-0.24453096234122143
14	0xbfa256a55e6e5579	-0.03581730630609576
15	0xbf9084312565a356	-0.016129272372754265

vit_blocks.0.msa.k_map.0.bias f8 [4]
0	0x3e4327f7e681e98e	8.920266484010176e-09
1	0x3ddb40dc9f73ae6d	9.914716952213506e-11
2	0xbf407f01b90eb72c	-0.0005034216320518362
3	0x3f89376d7dda2d1b	0.01231275120087232

vit_blocks.0.msa.k_map.1.weight f8 [4, 4]
0	0x3fa0df71b4e2397e	0.032954743700531516
1	0xbfcdffc5986030de	-0.23436803760740238
2	0xbfd0563be46b45d0	-0.25526330286546983
3	0x3fd15d5cda888e05	0.27132340756563195
4	0xbfc3eb8127143a32	-0.15562452705531055
5	0xbf77485e686aec75	-0.005684250622546396
6	0xbfbecad4bb1d2107	-0.12028245514114043
7	0x3faa4608e548530d	0.05131557272776464
8	0xbfa7c48bedefc886	-0.04642140655040898
9	0x3f9bb56403967bc9	0.027059138030036487
10	0xbf627cd1d9bce110	-0.0022567843097044474
11	0x3f9db97d49b80804	0.029027898430292978
12	0x3f53cf007456e73c	0.0012090210378645347
13	0x3f96266288c7937c	0.021630801771510985
14	0xbf5c4e219340b492	-0.0017276122935172872
15	0xbf3bfec35920b2ec	-0.00042717236749716006

vit_blocks.0.msa.k_map.1.bias f8 [4]
0	0xbfcddc50b041a94c	-0.23328598600648787
1	0x3f54a5a67ad59bcf	0.0012601972369681196
2	0x3fbc6faf4472a077	0.11107917233550944
3	0xbeb15726f0819cb2	-1.0335706424282067e-06

vit_blocks.0.msa.v_map.0.weight f8 [4, 4]
0	0xbfd4e790444609fe	-0.3266335169538762
1	0xbfbbda16332b0644	-0.10879648923130342
2	0xbfccde549b9a53e5	-0.22553498838229227
3	0x3fc046c04bf37bc3	0.1271591540198341
4	0xbfc355c993375b45	-0.15105552376072687
5	0x3fc168d15f220b84	0.13601128716626587
6	0x3fda0e70945f0ea8	0.4071313332499167
7	0x3fa03344ab537534	0.03164114562398837
8	0x3f89b2fe09113506	0.012548432018002941
9	0xbfc58dfacdbf8b5f	-0.16839537664699386
10	0x3fcfe8df2c1da156	0.24929418233956352
11	0xbfda3433be2209c2	-0.4094361645476533
12	0xbfc0396641ddf69c	-0.12675169197239178
13	0x3fb399c8cfb204ba	0.07656531401336766
14	0xbfcc1f9801586899	-0.21971416536036228
15	0x3fda6f32142a55cc	0.4130368420531709

vit_blocks.0.msa.v_map.0.bias f8 [4]
0	0xbfbca176212fcfd8	-0.1118387061140419
1	0xbfabc1af9d83b3ea	-0.05421208188804612
2	0x3fdb73f6c23ba43a	0.428952874832763
3	0x3fdcf5373e91293c	0.4524667845731931

vit_blocks.0.msa.v_map.1.weight f8 [4, 4]
0	0x3fc5edcd46581051	0.17131963667646002
1	0xbfd928d2ade0a1bc	-0.3931166360876224
2	0x3fd08f44f87fdcfe	0.2587444712402912
3	0x3fcc293e22dd33e8	0.2200086279139264
4	0xbfca5de749921fc4	-0.20599070637058337
5	0xbfd873881c17fd79	-0.3820514940598155
6	0x3fd4c25a15b07e2f	0.32436229818447065
7	0xbfc6f5a0b61eea66	-0.1793709649335426
8	0x3fc6271ea1232226	0.17306883686093605
9	0x3fcb23e03bb10a62	0.21203234591128522
10	0xbfda05ada1e46786	-0.4065965729692994
11	0x3f6fe6d215061d66	0.0038942435423369613
12	0xbfc773ad2ba7fddb	-0.18321766502047762
13	0x3fd71bd0c0888027	0.3610727195937237
14	0xbfdab58339d55246	-0.4173286499765577
15	0xbfdcec0ae07d7cfb	-0.45190689013357116

vit_blocks.0.msa.v_map.1.bias f8 [4]
0	0xbfde77af5e5a9575	-0.4760549947189568
1	0xbefb1b0250f279b4	-2.5849823086171542e-05
2	0xbfa1f22a171e258b	-0.035050692865364295
3	0x3fb210546ba29754	0.07056167247591577

vit_blocks.0.norm1.weight f8 [1]
0	0xbfa062fc6fff41e4	-0.03200520388748254
