exp/exp_second_round/transformer_15minutes/model/transformer_emb_empty_token_96_783090.pth (torch, 2994 bytes, 1 tensors)

weight f8 [1, 97]
0	0x3fe765c1b629616c	0.7311714704365335
1	0xbfea4c429f9511bc	-0.8218091122476419
2	0xbfd55b2f2e993f2b	-0.33369044829031463
3	0x3fecdd1bdd1d19fb	0.9019908255220906
4	0xbfe25ba5452614dd	-0.5736872053681982
5	0xbfd043132f0cc992	-0.25409392924043417
6	0x3ff33e4d23974302	1.2027102842586719
7	0x3fb1996edbf64eb9	0.06874745245141413
8	0xbff4a039d364f1e6	-1.28911764694123
9	0xbff773b735897c36	-1.4657508937159611
10	0x400556e563fc9814	2.6674297152958477
11	0x3fef4ad26ca48763	0.9778835412910037
12	0x3fbb57fc538e095c	0.10681130447304582
13	0xbfe7be12fb1c3789	-0.7419524101730853
14	0xbfc51a417395d2c1	-0.16486375945864576
15	0xbfe243ab755e40c7	-0.5707604687068163
16	0x3fd056d12690d4e5	0.2552988888376844
17	0xbfd8e6b4fe53be49	-0.3890812381423286
18	0x3fef2621397f7f8e	0.9734045145996661
19	0x3fd75d6e03c05328	0.36507749906859255
20	0x3fd9bf1cc95bdda3	0.40228957809400806
21	0x3fe44cc46657780c	0.6343709944592333
22	0x3fdca7c431ca33c2	0.4477396475056673
23	0x3ff95820e049e101	1.5840157281182317
24	0x3fe03874effb10ff	0.5068916976092906
25	0xbf9be32cb5c303b9	-0.027233790010317203
26	0x3ff2ad55f3676583	1.1673182971920546
27	0xbfe69e29c4eb7ae9	-0.7068070264902789
28	0xbff01fd36a5f1883	-1.0077699809203586
29	0xbfed84d6ccb862b8	-0.9224657057230479
30	0xbfb7f7a262efe749	-0.09362234988648512
31	0x3fe4d8beeb97c40a	0.65145822538591
32	0x3ff9bb1bdd3760c9	1.6081808701765559
33	0x3fdddb03522fa1db	0.46649249101622353
34	0xbfde3b8079edb30b	-0.47238170535165186
35	0x3fefb0c53154aabe	0.9903284038058116
36	0xbff6913f6bcd46f2	-1.410460873700171
37	0xbfe40be8040a6624	-0.6264534071844463
38	0x3fd8de3d7271db35	0.3885644548058054
39	0xbff3f606f58ed27b	-1.247565230570358
40	0x3fe2389bf386997d	0.5694103008616335
41	0x3ffb1892a456005f	1.69349922364929
42	0xbfe6cf46a5b25568	-0.7128022419225717
43	0xbfdb6f35abb7de5d	-0.42866269845351274
44	0xbfd8598d20a02d53	-0.3804657763109464
45	0x3fce765b4828e682	0.23798695586610924
46	0xbfe2f1efa1c07cbb	-0.5920332106797085
47	0xbfe3e910b4d68ed4	-0.6222003490442725
48	0xbff4ef60f2b3bf5a	-1.3084420662452971
49	0x3fe79b51c4b8c22d	0.7377098886700587
50	0x3fcaf08a61795043	0.2104657150217709
51	0x3ff7d758818ac590	1.4900746402966867
52	0x3fc8fdcb63a3d273	0.19524519314986186
53	0x3fef33a6f6848f98	0.975055200080976
54	0x3fd152eec3cb6000	0.27068680878210216
55	0x3ffd1d45a24db57c	1.819646486280674
56	0x3ff4dee01c2fdbd0	1.3044129468014383
57	0xbffdc210a5fa3e24	-1.8598791583534728
58	0x3fd719321081deaf	0.36091281520883006
59	0x3feea56f8da56f27	0.9576947943237187
60	0xbff276b05abb1843	-1.1539767784284016
61	0x3fda1d9f7a4da991	0.4080580419892153
62	0x3fe621286d323553	0.6915475971924628
63	0x3fd3d8ad1dcc8aea	0.310099867916661
64	0x3ff3725e8e414d06	1.2154222065772173
65	0x3feb08123579bb37	0.8447352451747524
66	0xbfd89efab97fd8c1	-0.38470333209205526
67	0x3ffbf198134d54a0	1.7464829210269173
68	0xbfd021a981bac6e6	-0.25205457371622086
69	0xbfe6b84677fb61b2	-0.709994539584889
70	0x3fb7125cb1cba2d9	0.09012393322667424
71	0x3fdf56e6ba6d4717	0.4896790333342422
72	0xc00179db2f63e25e	-2.184500093684888
73	0x3fe8b1c5f51d4988	0.7717008387938202
74	0x3ff56fe2de544814	1.3398159680114121
75	0x3ff5724b2c27cf67	1.3404037213158178
76	0xbfe5267505f84f4b	-0.6609444729424266
77	0xbfe6d53721623bae	-0.7135272647882311
78	0x3fc1b40f23589028	0.13830746866108368
79	0xbfd78bae1a89976c	-0.36790039626645554
80	0x3ffd8b036ce07fda	1.846438813496198
81	0x3fff646496959512	1.9620099909018944
82	0xbfd89ec10b7137fd	-0.38468958012970217
83	0xbff6b87a450cd826	-1.4200384804985418
84	0xbfea2eb19ade565d	-0.8181999230170721
85	0xbfe89e14d3be366e	-0.7692970405202695
86	0x3fe5d96ee3d8787f	0.6827921342953828
87	0xbfe3dce593fc7da3	-0.6207149401051776
88	0x3fc15269a94d3d38	0.13532753721890756
89	0x3fd8b41d246d4d43	0.3859932761890443
90	0xbfc5575531453918	-0.16672768502980584
91	0xbffb86b3e25dd3b4	-1.7203863947336062
92	0xbfcc5ed212e303c0	-0.22164369508939608
93	0x3fea77cdc384aefc	0.8271244829861355
94	0xbfd29d17547d3492	-0.29083808184516
95	0xbfcdaf5d8f41e211	-0.23191422934520792
96	0xbff2fcc6508f3d32	-1.1867125651222747
