exp/exp_second_round/transformer_15minutes/model/transformer_emb_empty_token_96_963182.pth (torch, 2994 bytes, 1 tensors)

weight f8 [1, 97]
0	0xbfdacfd0334a5842	-0.4189339161761191
1	0xbfd471cbef4a6dfd	-0.3194455944846764
2	0xbfcf0bf638e016db	-0.2425525453292526
3	0x3ff7cdd336cbfc83	1.4877502575398303
4	0xbfe1b18e31c4fb40	-0.5529242488918058
5	0x3fe4b21d27176815	0.6467424167160539
6	0x3fea82406a7af81a	0.8283998565382291
7	0xbfc6167e1a554b7f	-0.1725614193515774
8	0xbff1ea5938454ccf	-1.119713992888865
9	0x3fede52d43190dcd	0.9342256842141353
10	0x3ff85ddc32c8ce38	1.5229150756612295
11	0xbffe20fbb9b7c745	-1.8830525641064508
12	0xbfe443222d640d9e	-0.6331950079478934
13	0xbff2b7211076a1b4	-1.169709266958404
14	0xc0003c373f7dc558	-2.0294022522217965
15	0x3fe4b27d994773ed	0.646788405774371
16	0xbfec6850b686fd6e	-0.8877337994562546
17	0x3fc89d774156c995	0.19230547609693063
18	0xbfe7b411ea183345	-0.7407311985167345
19	0x3fd868386d8233a9	0.3813611096782617
20	0x3ff66171816537be	1.3987898878581144
21	0x3fdb70b57991d858	0.42875420448343027
22	0x3ffde2e1a8b082fc	1.8678909863885442
23	0x3fef1fef9488b773	0.9726484204345368
24	0xbfdf5b854607f813	-0.48996097411134193
25	0xbfc50e616eaf4feb	-0.16450136093646903
26	0xbfcb8355055ff9f3	-0.21494543802687324
27	0xbf9f592538a41764	-0.030613500196543866
28	0x3fdba51eb2fc7894	0.4319531200325255
29	0xbfa3573c68955730	-0.03777493263866771
30	0xc00073df211fbf34	-2.056577929288233
31	0xbfc67798acd92c23	-0.17552479209766245
32	0x3ff33cdad2908974	1.2023571229152283
33	0x3fe9edebae4ea6eb	0.8102930454672025
34	0xbff1e0ae5264f037	-1.1173537462737053
35	0x3fdc11bd1a31a7c0	0.43858268316273197
36	0xbfaaa70e9c0478f9	-0.05205579428205626
37	0xbfcae6f66a4158c2	-0.21017341793294092
38	0x3f8414ed756154c4	0.009805541176471151
39	0xbfe01f9adc480d31	-0.50385802291604
40	0x3fe4830a9f2540d6	0.6409962757407139
41	0xbfbe6891e1346d67	-0.11878310917056965
42	0x3ffc18c6d2183d3b	1.7560489851783376
43	0xbffbfb198b52d0d1	-1.7488036577533885
44	0xbfc10ef37cbd3727	-0.13326877203729134
45	0x3ff8b9bc29f0bd4a	1.545345462636606
46	0x3fe294c0b1c3b7f5	0.5806582900966065
47	0x3ff4c84163876ce4	1.2988904846050042
48	0xbfc9c3fb4243b1e1	-0.2012933801228334
49	0x3fe9814c04dd5041	0.7970333189973716
50	0xbfb1bc3508f56ed1	-0.06927806347578815
51	0xbff934db9e733035	-1.5754047574473706
52	0xc00157dacca865fb	-2.1678977955714323
53	0x3fd54985fc40bb1c	0.33261251100604894
54	0xbfdcca91821d786b	-0.44986379343561705
55	0x3ff41595d6b2b0bc	1.2552698504105555
56	0x3fe2e8bbe1dcb372	0.5909099017495534
57	0x3ffb1c6a5c694831	1.6944373712363012
58	0xbfa26d29c5e03aff	-0.03598909893491075
59	0xbfed6ee885000967	-0.9197886083277752
60	0xbfe416bc738e36b3	-0.627775407499675
61	0xbfc8c4c7b0d340ba	-0.19350525030177385
62	0xbff7e5b57e600dac	-1.4935812889606082
63	0xbff031452b50f165	-1.0120288555181898
64	0xbfa9659d51fc5047	-0.04960338235665112
65	0x400058e7dc266901	2.043410987779794
66	0x3fc68dbe809bc783	0.1762006881686454
67	0xbff551e42c23ab9c	-1.3324929928009857
68	0xbfd9cec8fedb0297	-0.4032461632560084
69	0xbfb6bf95e0f2253c	-0.08886086217730321
70	0xbfed197638d0269b	-0.9093581304197927
71	0x3fb544790faedbf1	0.08307606346976094
72	0xc00162c3822cb9d6	-2.1732244653605717
73	0x3fe24ef45820773d	0.5721379967905943
74	0x3ff679036a6279d2	1.4045442729617332
75	0x3fd8a385aa942851	0.384980599003602
76	0xbfd260ba583c6476	-0.2871538030318058
77	0x3fce897eae96e6f6	0.23857100987316188
78	0x3fd5782bc5e5f7a1	0.33545965505606473
79	0x3fef0f50e1344670	0.9706196211356666
80	0x3fefeecf5d201d83	0.9979016131264163
81	0xbfd77a8f839a2138	-0.3668555054832896
82	0x3fbd1a16de0b36a9	0.11367934151641158
83	0x3ff75c7d96c9c25e	1.460080708519079
84	0xbfacace6789a035e	-0.05600662443339986
85	0xbfd09a756e64ab0f	-0.25942741184796686
86	0x3ffd2e1f34e5b285	1.8237602297114404
87	0x3fd27ee5fc17cd35	0.28899526232199274
88	0x3ffe95bfe072adc9	1.9115599410532573
89	0x3fd135feb1d4694c	0.26892058721718537
90	0xbfbe00e211e6b98b	-0.11720097481768314
91	0x3fc3ff35f61a0e56	0.15622591511429346
92	0x3fe86ecfb1991f36	0.763526770469048
93	0xbfcfe4c4b80fb4f2	-0.24916895854349935
94	0xbfbc564e99e4c4b5	-0.1106919408528196
95	0xbfe26f2e7482cacf	-0.5760719562152533
96	0xbfead8d580946355	-0.8389689933129413
