exp/exp_second_round/transformer_15minutes/model/transformer_encoder_96_16166.pth (torch, 154318 bytes, 66 tensors)

linear_map_in.mlp.0.weight f8 [24, 25]
000000 1a 7f 3e 81 10 03 9d 3f 21 3c f3 ee 98 3d b0 bf
       0.02833200253337429 -0.06343990167373238
000010 9d e6 05 a7 84 0d c2 3f a0 1b c4 23 b1 a3 92 3f
       0.14103754191801424 0.018202560241686094
000020 fa 95 76 51 07 8d b7 3f 08 e8 17 de 0a 73 c0 bf
       0.09199567545746126 -0.12851081699756173
000030 87 0c 5c db 7f 4b 78 3f b9 d7 d5 bc ad 92 ad 3f
       0.005931376877700185 0.05775969438666046
000040 00 92 b2 3d 8b 93 bf 3f c7 e9 2e 1f b1 ea b1 3f
       0.1233450914028893 0.0699873639231675
000050 db 9a 61 09 b0 05 af 3f 06 96 c1 89 1b 6d 8e 3f
       0.06059026827351995 0.014856543675885635
000060 de ee c5 4e 08 c4 bf bf 44 68 a7 da ce 2c c2 3f
       -0.12408496783421749 0.14199243236982018
000070 35 4d f8 8f 7e 02 b7 bf 1d 46 20 19 c1 57 a4 bf
       -0.08988181128397772 -0.03973201209749908
000080 5a 0e f2 aa 16 51 c4 bf b6 9e f1 3c 8a 80 be bf
       -0.15872462603521137 -0.1191488646305697
000090 12 fa 8f 7c e4 95 c6 3f 42 e0 05 3e 94 93 af 3f
       0.17644935686253455 0.06167281396022918
0000a0 6e ce 99 69 a4 57 7c 3f 6e 1e 88 05 6d 75 bf bf
       0.00691951964983027 -0.12288552651454562
0000b0 5d 39 7b 25 b3 5d be 3f 92 45 69 ff df dc c2 bf
       0.11861724534103275 -0.1473655697941863
0000c0 ca 74 3e 12 27 33 87 3f 54 fe fc 95 9e cf 8e bf
       0.011328034633886114 -0.015044440223959267
0000d0 7a 0b a6 7a 9f 69 c2 3f 5c 6f 70 3a 5f 7b c9 bf
       0.1438483570928744 -0.19907751420475506
0000e0 6a a8 16 6e 0e 9c bd bf 94 e2 cb 58 94 70 92 bf
       -0.11566248119075487 -0.018007581634238948
0000f0 22 50 85 71 71 46 c6 3f 33 bf 66 66 24 ad b7 3f
       0.17402475398068967 0.0924856901171978
000100 bd 68 3e 28 ef 81 b8 bf 12 6a 9b b3 b0 8f b9 bf
       -0.09573263866915034 -0.0998487890714517
000110 c8 80 05 f8 ab 59 c6 bf 57 a0 ce 1a 11 01 83 bf
       -0.17461156473564743 -0.009279378538693246
000120 3a 91 be 51 d5 6d 7e bf 21 59 44 be a3 b5 be 3f
       -0.0074289639268594835 0.11995910067739547
000130 ce 0b 4e 24 25 c7 8f bf c7 16 97 f9 45 4a c5 bf
       -0.015516557856022486 -0.1663291424467188
000140 6d 87 b8 35 e4 c4 b5 3f 6e 05 48 46 13 5e b0 bf
       0.08503557502311106 -0.0639354750237737
000150 c0 69 46 7f 8f 4a bd 3f 85 11 ca 96 1d 59 b3 bf
       0.11441895348835995 -0.0755785458696377
000160 97 37 4e 5e 32 25 b5 3f 90 cb fa 12 b5 4f ae 3f
       0.08259882738476985 0.05920186859784515
000170 24 34 1f 3e ab 3d ab bf 6e 16 46 30 45 ef a3 3f
       -0.05320487149547429 0.038934862273021106
000180 76 86 1c d6 6b 5f c0 bf 87 b7 3a 64 be 80 c0 bf
       -0.12791202501925952 -0.1289289464379488
000190 8b b9 22 55 b9 5e 97 bf 76 ea 62 72 e8 47 c4 bf
       -0.02282228071333629 -0.15844445786736444
0001a0 d3 ab cf ca d6 a3 ca bf 81 20 57 84 e8 2a b8 3f
       -0.2081249704636706 0.09440472823109937
0001b0 d4 93 55 5e 08 a6 b2 bf 46 d4 a8 74 f7 d4 c2 3f
       -0.07284595778544595 0.14712422558082688
0001c0 c5 b0 5f df 0f 4b bb bf ab a8 09 cd 0a 8a a8 bf
       -0.10661410525762267 -0.04792817833806969
0001d0 29 fe 74 08 42 66 c5 bf d0 f5 f0 d3 9d 02 be bf
       -0.16718316471995934 -0.11722742485377258
0001e0 77 85 e7 1e 63 d3 b0 3f 19 83 79 9a 1a 03 b9 3f
       0.06572551254750701 0.0977036120543854
0001f0 18 de 8e 27 26 62 c5 3f 18 b7 af 89 ca 9f c2 bf
       0.1670577710299177 -0.14550143931358472
000200 8e c6 cb c7 7a 91 c8 bf 87 16 4c ae 98 a2 9b 3f
       -0.19193968539871203 0.02698744357896612
000210 40 0f 44 fd 74 33 a0 bf 06 95 b5 82 c2 86 c5 3f
       -0.031642585674517054 0.16817504293718616
000220 fe 3d 7f c1 a5 24 93 bf 48 47 ba 8e fb 62 c2 bf
       -0.018694486556169558 -0.14364571065066856
000230 54 52 15 b4 f7 ea ba 3f ac 6f 0e 87 cb 86 b5 bf
       0.10514782091679226 -0.08408805892253096
000240 e4 e3 89 9b 2a e7 c5 3f e8 6f 51 d4 ee 6a b1 bf
       0.17111713976535647 -0.06803791698024464
000250 43 d0 6e 3e c0 90 ca 3f fb 09 87 4a 1b a5 c3 3f
       0.20754244850616219 0.15347615374601262
000260 c6 9e 89 42 f2 5c ac 3f 7b e1 05 7e bd 23 ba bf
       0.05539662420488649 -0.10210785223705969
000270 87 f0 11 e5 1e 7d bd 3f 80 3b 3d 7b bb 4f ac bf
       0.1151904401066891 -0.055295809549185115
000280 b9 0f 46 c4 1b db 89 bf 3b 33 4f 20 d0 74 c2 3f
       -0.012624947478577885 0.14418984963995193
000290 33 04 6b 26 d1 57 ab 3f f7 04 96 a2 5b 86 a0 bf
       0.053404365482045434 -0.03227506980602784
0002a0 7b 9c be 0d 31 dc bd 3f 85 e2 64 ad 5c 1a 9c bf
       0.11664110742150229 -0.02744431312859998
0002b0 66 7e 35 5f d4 1b 89 3f cb 0d b8 0f 1f 57 8c bf
       0.012260111957117913 -0.013838045756535152
0002c0 7d 80 66 ce 4d 70 b9 3f f6 47 af bf 2c d7 c4 3f
       0.09936987198898524 0.16281661376575557
0002d0 7f 39 88 da 60 1f bc bf 46 e6 60 7f 8a c8 a2 3f
       -0.1098537953878118 0.03668625645555017
0002e0 d5 c6 92 1a 10 07 c9 3f 3b 7f 31 bf 85 81 a0 3f
       0.19552804276968652 0.03223817786124391
0002f0 ae 2b 00 22 03 f2 b0 bf c9 44 37 fa 7e 6f c5 3f
       -0.06619281368345639 0.1674650880582134
000300 ab 07 3b 1c 14 62 98 3f f8 2a c8 01 ba 39 92 bf
       0.02381163999849149 -0.01779833446384324
000310 42 c3 72 d9 6e 4f 91 3f 54 01 b2 6a 5e 17 c7 bf
       0.01690457536887214 -0.18040065965397878
000320 4a ba a8 a8 2d 83 c5 3f d1 0e be 0c 68 49 bf 3f
       0.16806574569041494 0.1222138434514435
000330 b2 62 98 04 c4 c7 ac bf a6 e3 5d fa 69 21 c3 bf
       -0.05621159130186494 -0.1494572136396332
000340 2e 04 dd 17 69 ed c9 3f 63 ed 7a ce d1 d9 b7 3f
       0.2025576941032638 0.09316741267223487
000350 1c 8b 8f 15 a8 e5 92 bf cc 80 36 f6 e2 c1 ab 3f
       -0.01845419532390756 0.054213612132345185
000360 79 08 a4 76 2a 57 c9 3f 8a 9c 83 1f ad 5c c4 3f
       0.1979725913334425 0.15907825506949208
000370 2f 63 14 c3 d8 39 67 3f 48 b5 b5 cf 1d bd c4 3f
       0.0028352006562609926 0.1620213760574336
000380 be 9c ba 0f 01 20 a2 bf c4 fc 3e a9 69 f3 b1 3f
       -0.03540042225841365 0.07012043363555437
000390 1b ae c1 ff 2f 46 b6 3f fa 76 ff 43 ea 94 c6 3f
       0.0870084762006446 0.1764195282002488
0003a0 d1 16 9c ec 1b bf c9 3f 89 2b ca b3 ed b6 96 bf
       0.20114468625268114 -0.022182191942686145
0003b0 63 fb 3e bd 00 11 96 bf b0 82 24 52 3d f8 a8 bf
       -0.021549235869083982 -0.04876891734807509
0003c0 7c 10 6a e0 fb 39 bc bf d6 51 bf c6 98 70 bd bf
       -0.1102597639929303 -0.11499934055547753
0003d0 ed 4c 45 cf e8 10 c6 bf 1f 6b aa 0f 96 58 a6 3f
       -0.1723910343231191 0.04364460889083532
0003e0 d8 c3 ed a4 28 e9 ba bf 88 a9 00 d1 30 c6 c3 bf
       -0.1051202204378251 -0.15448579983906208
0003f0 c0 2e 2a 57 1a 2b b3 bf 0b d7 c2 28 35 ed 9c bf
       -0.07487644794508252 -0.028248625386104325
000400 71 5a 19 2f 95 da a0 bf cd 24 8f 01 3b 8f ae bf
       -0.03291765403689773 -0.05968651193649919
000410 ba 81 fb b2 19 45 c1 3f e0 fb 8c f0 3b 5a af 3f
       0.134921276468061 0.06123530684862266
000420 53 02 ea 88 38 91 a9 3f f2 d7 6c 28 2d 48 c2 bf
       0.04993607207598374 -0.14282764886746652
000430 4a f2 07 da b4 de ab bf 6b 16 c6 ba 89 92 b2 bf
       -0.05443349038612107 -0.07254849252611854
000440 d1 54 c9 1a 12 5e c2 3f 4c a1 7a 77 34 5b a5 bf
       0.1434958105843749 -0.041711463532296905
000450 92 3d 7b cd 24 f7 b6 bf ad c1 7e 55 76 3b bd bf
       -0.08970861450801795 -0.11418857180866011
000460 e6 19 74 55 3b f8 ba bf a5 7b a9 9a 5e c8 b5 3f
       -0.10535021625773985 0.08508864665917189
000470 1d d6 d6 a0 64 9d c0 bf 02 da ad 22 4a d3 b2 3f
       -0.12980325559117115 0.07353652331025987
000480 98 df d5 cd 3d 92 b5 bf ef 01 9b 08 5a 88 71 bf
       -0.08426271701125498 -0.004280425733384593
000490 cb 39 ba ba 4c 36 cc bf d3 aa 98 d4 00 ac b7 bf
       -0.22040709607649797 -0.09246831121769654
0004a0 dc 58 8d 97 39 9a b2 3f 51 66 c0 ea a2 49 ba 3f
       0.07266578626635883 0.10268610221137321
0004b0 22 6c 7f 03 f1 0c c2 3f b3 95 ab 33 bf e9 c0 3f
       0.14101994200504558 0.13213338873826572
0004c0 46 cf bd ab d1 c9 b6 bf 8d df 90 5a f8 7e be 3f
       -0.0890170139589915 0.11912491046029867
0004d0 b3 a1 d4 84 59 4e 6a bf 27 4a 51 36 ba 54 ca 3f
       -0.003211188165227885 0.20571067478393099
0004e0 9e 25 d3 44 67 24 a2 bf 91 7e 46 02 a2 93 c6 3f
       -0.03543398585459133 0.17638039694883337
0004f0 33 0a 02 79 56 6c c0 3f 88 c5 8a a6 15 9f b8 bf
       0.12830620678512758 -0.09617743793457667
000500 46 8f 1d 2e b2 a9 b7 3f bb 82 47 c8 c3 a4 c4 3f
       0.09243310571542648 0.161278221886297
000510 d9 40 c7 44 0c 1a bd bf b1 6f b8 26 4d 54 c2 3f
       -0.1136787097850659 0.143197673708412
000520 f4 2f c0 49 0e 19 ba bf 79 6c b7 2f ae 53 c9 3f
       -0.10194482136301969 0.19786622362048314
000530 f6 82 65 d7 a9 f6 c1 bf 64 ba 94 47 5f 32 a4 bf
       -0.14034007089050932 -0.039446809280310885
000540 8b cc d6 c4 b2 64 a5 bf 24 23 30 4d 13 57 c8 bf
       -0.04178389218159236 -0.19015733021685677
000550 24 14 68 24 d2 f7 c4 bf 07 6e 8b 5b b6 21 ac 3f
       -0.163812892700805 0.054944704699405426
000560 46 e7 e9 93 57 57 bc bf 3e 66 17 88 22 f7 bd bf
       -0.11070773469137149 -0.11705222914260902
000570 af 35 12 82 67 13 a2 bf 3c a8 4d 0a 5d ca ac 3f
       -0.035304293277572334 0.056231410510762164
000580 e1 0f 1c 68 4e aa b0 3f 56 ae 3e 24 ac c3 b1 3f
       0.06509866754282669 0.06939197430500008
000590 b8 1c f9 94 96 cd a3 bf 5a 3d 61 77 e1 ed 74 3f
       -0.03867788857001514 0.005109673240510782
0005a0 2e dd ed 9d 1e 90 a5 bf a8 73 b0 15 69 70 b7 bf
       -0.042115170267545174 -0.0915589979126269
0005b0 97 1c 4f 6c f4 cb b3 3f 8c f4 b8 3f 6a dd c2 bf
       0.07733085293067386 -0.14738205062341014
0005c0 ca 4e b9 f9 ec 20 a1 bf 50 f0 2b df 51 0f c3 bf
       -0.03345432804476685 -0.14890502354671975
0005d0 f7 f2 85 2c ca a5 b0 bf 9f 9a 40 a9 b3 61 c2 3f
       -0.06502975069993143 0.14360662235522612
0005e0 ba 5c 81 b8 80 ad b2 3f 0e 0f f2 e1 b3 6b 87 bf
       0.07295994286083643 -0.01143589528351854
0005f0 56 5b 97 04 68 95 b7 bf 2b fb 17 b9 38 e2 a1 bf
       -0.0921235095223499 -0.0349290586418561
000600 cf c6 83 eb ba 0e ca 3f fb 41 af b9 f9 5e a4 3f
       0.2035745286917092 0.039787105480744565
000610 f4 b2 e2 1a a0 14 91 3f 71 f9 39 b2 ba 32 99 3f
       0.016680242196048092 0.024607579353408796
000620 75 74 5d 83 f9 51 c2 bf 58 71 59 b5 e4 fe 92 bf
       -0.14312666811284527 -0.0185504661261445
000630 b9 57 ec bd 39 26 c2 3f db d9 83 9a ee 65 bb bf
       0.1417915513381425 -0.10702410957660595
000640 7a 14 8d e7 9b 02 c4 3f e3 97 15 75 21 8e b4 bf
       0.15632962042051074 -0.0802937422609769
000650 7c 92 61 ae 74 7e c3 bf ef 32 60 67 6b 1a 7e bf
       -0.1522966243238847 -0.007349414392604044
000660 aa 2b e8 03 f9 99 c4 bf 67 4d c1 40 6a 34 b2 3f
       -0.1609488743855228 0.07111229020056485
000670 07 14 8e 46 09 ef c5 bf fd 19 e1 4f 0e ce b7 3f
       -0.17135730691020987 0.09298791361025134
000680 26 e1 35 2c b0 32 a1 bf ce 48 07 7d 48 a7 a9 3f
       -0.03358984508207845 0.05010439420915845
000690 e4 b2 43 f6 f6 8c af bf 30 3a 8c f6 1e 85 b8 3f
       -0.06162235027463739 0.09578126448853008
0006a0 e6 17 ba 73 ca 9c c5 3f 32 c2 3d 5d 74 e9 b7 3f
       0.16884737635353914 0.0934059836997754
0006b0 a9 86 84 a8 de 21 c2 bf 53 42 75 a0 9a a8 88 bf
       -0.14165862301256496 -0.012040336629668113
0006c0 e0 ad 49 34 9b 74 c8 3f 38 ca 5b dd d9 33 a6 3f
       0.191058540850789 0.043364341994579225
0006d0 e4 02 fd 7b 6c 48 be 3f 11 15 e3 46 d4 20 c0 bf
       0.11829259898241734 -0.12600186787873516
0006e0 d9 d6 6e 90 23 cd b6 3f cc 6c f6 d7 47 f1 af bf
       0.08906767154880003 -0.06238770018827608
0006f0 c9 11 06 80 39 06 b0 bf a5 71 70 2a fb 97 a3 3f
       -0.06259498000696974 0.038268898897715155
000700 89 13 26 e8 2e 7b c2 3f 24 61 1b 2f 5b 54 ba 3f
       0.1443842538393734 0.10284967327186628
000710 95 21 96 1f 87 34 c1 3f 87 6d fc 76 82 e1 77 3f
       0.1344155220251763 0.005830297115405065
000720 77 3a 8c 67 cc ad b2 3f e7 74 cf 41 df b6 b6 bf
       0.07296445396443994 -0.08872790676783247
000730 53 90 66 64 b1 e7 c6 bf 38 b8 d7 47 78 2d b4 bf
       -0.17894570734381662 -0.07881881479235708
000740 86 ff ed 64 e0 b7 b5 3f a3 59 1f bf 03 2e b6 bf
       0.0848369833383896 -0.08663962760997505
000750 4a 79 f1 49 ed d3 bc 3f 30 17 65 b3 6b 2e 99 3f
       0.11260874800925538 0.02459114344062313
000760 e9 54 f6 25 3c ce a1 3f dc 69 37 44 21 a4 95 bf
       0.03477657283216635 -0.021133918560602413
000770 20 44 72 03 ed 63 cc bf 86 28 02 dd 1d a1 c1 bf
       -0.22179949444083125 -0.13772939006259238
000780 a9 b2 d9 af 04 c7 c1 bf 2b b9 4f ef fa 60 bb bf
       -0.13888605677074864 -0.10694855063022561
000790 f5 8b 41 e4 e9 ba b9 3f bc 66 37 fc 82 38 c4 bf
       0.1005083257928588 -0.1579745990300604
0007a0 49 d3 2b 52 2b eb a9 bf 05 17 8d a0 32 c6 9e bf
       -0.050622323780692265 -0.030052939461959322
0007b0 95 aa 43 24 dd ab c3 3f 44 43 9f b9 27 ba c1 3f
       0.15368236799925641 0.1384935051305779
0007c0 b8 26 7d d4 ec c1 c0 3f cd e1 09 05 f6 9d c1 bf
       0.13091812491830068 -0.13763308759713624
0007d0 22 16 dd e8 22 a2 c5 3f 00 05 a6 a6 74 79 c0 3f
       0.1690105092076673 0.12870653283247435
0007e0 18 16 a5 07 91 ac b3 3f 25 d3 08 96 a2 05 be 3f
       0.07685190617220206 0.11727348483038876
0007f0 55 5a e5 a1 ba 63 ba bf 4a 59 66 e5 89 ff b2 bf
       -0.10308424427544456 -0.0742117104585748

linear_map_in.mlp.0.bias f8 [24]
000000 d8 d8 61 7e 48 4a a4 3f a0 5b cf 81 3d e5 b1 3f
       0.03962923567535065 0.06990417880238775
000010 eb 27 12 f5 48 86 bf bf 01 9a 5c 0c d0 c1 ca bf
       -0.12314277632881925 -0.2090396938667283
000020 70 bb d6 69 71 f5 b3 3f 47 81 6a f1 e2 5e c8 3f
       0.07796391328768748 0.19039570606129017
000030 7d f8 cb ad d5 9a c0 bf aa b1 d6 a5 df 09 b8 bf
       -0.12972517954034748 -0.09390065954966667
000040 82 20 af 49 50 97 c8 bf d9 74 83 aa 88 18 b4 3f
       -0.19211772535186716 0.0784993568699578
000050 82 04 a1 cd 44 cb a4 3f 6c 5e fc dd 87 40 9f bf
       0.04061331758612942 -0.03051960270303626
000060 26 bd 18 8c 9d 0c a2 bf 32 87 72 89 fd f3 99 3f
       -0.035252498008384855 0.02534481192981914
000070 b3 73 b0 54 c9 fd c3 bf a0 98 d5 26 83 41 c0 bf
       -0.15618244776933707 -0.12699927707871428
000080 97 bf 3c 0b b7 d1 c5 3f 34 50 6e a8 39 dc c5 3f
       0.17046249436088765 0.17078324054875937
000090 cc 43 86 67 ae 5e ae bf 97 ae f6 c4 de 24 ab 3f
       -0.059316110741867684 0.05301567224827613
0000a0 5c 9c 7a 2d c3 7f c4 3f 45 81 81 c0 06 d6 c5 bf
       0.16014899941112304 -0.17059406661702262
0000b0 58 b7 df b0 8f 29 a7 3f 36 d3 fb 99 0d 68 ac bf
       0.045238962498713675 -0.05548136238750205

linear_map_in.mlp.1.weight f8 [1]
000000 44 b3 41 da 87 ad e0 3f
       0.5211829436135322

linear_map_in.mlp.3.weight f8 [24, 24]
000000 4d 4e bd 7c 2c 13 ca 3f 2c d5 bf ba a8 f1 c2 bf
       0.20371013727946022 -0.14799985045071062
000010 43 80 64 79 e3 b7 c0 bf 44 06 12 d2 00 6e cc bf
       -0.1306118338334291 -0.22210703141540666
000020 90 4c 8c 04 1d a5 a5 3f 9e 0b 9b c7 59 16 ce 3f
       0.04227533989446741 0.2350570892941421
000030 d5 c7 9e bf 92 e7 9e bf f0 15 90 96 71 bd c2 3f
       -0.03018025679165944 0.14640636302662768
000040 47 cf 9b f3 b5 54 ca bf 0c 6d fa 5d f0 5c 88 3f
       -0.20571016688301766 0.01189601694868838
000050 a1 42 bb 73 94 b6 cf bf 63 97 44 7a a0 2c bb 3f
       -0.247759396085276 0.10614970192963606
000060 64 d2 3a 04 df d1 70 3f f8 9b 5b 25 0a 34 cb bf
       0.004106398733416759 -0.2125256235514994
000070 e5 09 7c 16 e3 7b b3 3f b7 9b 98 a4 86 2a a1 3f
       0.07610911654413817 0.03352757224302343
000080 0c a9 a1 8a 64 41 c3 3f 38 37 fe e5 06 f0 b6 3f
       0.15043312806239617 0.08960002055229388
000090 00 b2 f5 fc b3 05 ba 3f 23 ef 05 e8 15 21 c1 3f
       0.10164952207350808 0.13382219151741834
0000a0 3c f3 ec e2 6b ba 89 3f 06 4e be 11 b9 bd b3 bf
       0.01256260191223079 -0.07711369212329808
0000b0 b7 78 2b f2 be 3d b4 3f 13 88 8b 5a 2e b7 be bf
       0.07906716739987273 -0.1199826212937583
0000c0 bb fa 96 c1 7b b6 bb 3f 7b 2e 6c db ca 93 bd bf
       0.10825322605431158 -0.11553638321873365
0000d0 dd e6 48 51 d4 75 b4 3f cb 23 83 b7 63 72 c3 bf
       0.07992293343059083 -0.15192839108047304
0000e0 ea 1f 9d 97 08 08 bc 3f 13 a3 6b a8 33 d6 bc bf
       0.10949758244998944 -0.11264345990970197
0000f0 9d 71 6e 53 18 1a b4 3f 0f fc 82 8b fa 73 a7 bf
       0.07852317845249109 -0.04580672219298531
000100 49 94 36 f6 4c 3f c3 3f 9b dd 85 fb 88 b2 a5 bf
       0.1503692819798366 -0.04237773962352805
000110 5b 9e d1 0d c2 05 b8 bf 2a 7e 4b e3 11 cf cb bf
       -0.09383786046384428 -0.21725677107223024
000120 eb 45 2e 8c ae 3a 98 3f 2f ae bb 52 79 b8 99 bf
       0.023661353403047796 -0.025117774653081234
000130 52 78 d7 7e 06 9c c1 bf 38 2c 5c 1e 68 a7 ce bf
       -0.13757401650849715 -0.23948384745048812
000140 c8 da a9 b2 60 02 b7 3f 7f a7 63 49 a2 d5 af bf
       0.08988003122235988 -0.06217677255501907
000150 18 ce d3 2f 91 6e 93 3f 44 42 97 16 e9 11 b7 bf
       0.018976467651510814 -0.09011704255613845
000160 53 47 ea c6 25 12 b4 bf 60 97 4b 2c 41 a7 b2 bf
       -0.07840190988852429 -0.07286460238864612
000170 8a 0f 98 79 fe 4f ad 3f 10 f9 3c 19 7a e6 a1 bf
       0.057250931113258366 -0.03496152456362911
000180 e1 58 9c 90 1a 6d 9a 3f 66 dd 40 07 cd b4 9e bf
       0.02580682284959657 -0.02998657566805942
000190 35 ad 7f 24 e3 1e b0 bf 59 84 3b 82 ca 76 b8 3f
       -0.06297130242426337 0.09556260756973368
0001a0 c9 f4 06 bb 81 1d c5 3f 6d 40 68 26 24 7a b9 3f
       0.16496297485529102 0.09951997697521771
0001b0 d1 b2 c5 96 fe b3 c8 3f fd b8 b5 08 c4 d4 b7 bf
       0.19299299585272547 -0.09309029781954688
0001c0 f9 e8 7f 63 71 0f 97 bf a6 0e a6 13 8c d8 c4 bf
       -0.02251984758184109 -0.1628584953251579
0001d0 c5 ce d3 8b f2 4a c7 3f f9 26 f7 72 ea c5 ba bf
       0.18197471454151617 -0.10458245569966697
0001e0 0e 7b 51 78 a7 04 c8 bf 96 8a 2f c3 89 2b 7d bf
       -0.18764203429142196 -0.0071215993257022405
0001f0 22 83 44 81 ea 1b c4 3f f3 9c bf 57 a5 b1 a9 bf
       0.15710192977805898 -0.05018345543049376
000200 cf 05 1c 8d d9 27 be bf 5b ee 8f fd 7a 65 a6 bf
       -0.117795559835961 -0.04374298424951625
000210 9d 0d ce 9a f5 96 be 3f fc 1a ab 6c 84 2d 7d bf
       0.11949095754066837 -0.007123486788890739
000220 2c 22 7d 9c 12 70 b0 3f b9 6f 83 af c2 f0 a8 bf
       0.06421009369399461 -0.048711856770494895
000230 84 db f3 20 92 a5 b2 3f 98 9a 58 b5 97 c7 c5 3f
       0.07283891014581739 0.1701535830954597
000240 27 9e c7 ee 42 82 b7 3f a5 34 5f e1 54 ab a6 bf
       0.09183138207992468 -0.04427590609666624
000250 e7 1c d1 49 22 86 b1 bf 03 82 0c 9d 12 37 b5 bf
       -0.06845297147912142 -0.08287159284783034
000260 d4 75 1c 82 d0 be c8 3f ce 5e c0 ad 45 00 c2 bf
       0.19332319596371283 -0.1406333063503013
000270 78 8c b2 c4 c6 a2 ba 3f 44 23 9a 6b 1f 39 b7 3f
       0.10404627134498579 0.09071537377361688
000280 48 28 21 3a 30 c3 b0 bf af c5 4b 8f 5e 65 c0 bf
       -0.06547833842447048 -0.1280935477912357
000290 5e 41 51 a9 c3 f8 89 bf 54 3f ae bf a8 7b b6 bf
       -0.01268151150193891 -0.08782438926413977
0002a0 21 e3 f5 27 85 ac 6e bf 8a 21 36 f0 47 cf c4 3f
       -0.0037443733887666674 0.1625757143886058
0002b0 84 0e 3c 1c 38 8c c1 3f 6c 12 f7 cc bc fd b4 3f
       0.1370916498054734 0.08199672702819222
0002c0 74 65 3d d9 de a7 a3 3f 51 d9 21 50 27 b5 c1 bf
       0.03839012529233346 -0.13834086811739124
0002d0 3e af 0a 84 ff a4 a6 3f fd 67 19 ff 94 28 bd 3f
       0.04422758566701511 0.1139004824448477
0002e0 99 09 29 35 58 7a c3 3f bd 53 9a 06 1d dd c3 bf
       0.15217115970342546 -0.15518534490970906
0002f0 5f ca bf 69 1f ec ae 3f f4 07 1b 14 d9 d9 b1 3f
       0.06039522329219404 0.06973034611567624
000300 20 43 46 07 14 b1 c4 bf 7e ff f7 30 e4 51 bf 3f
       -0.16165399890135124 0.12234331317449507
000310 44 3b 62 ea 48 89 c6 bf 02 ee ad 06 9c b4 a8 3f
       -0.17606460041539596 0.04825294095550349
000320 19 d8 43 cd 8c ae b6 3f c0 ed 93 e9 33 1f cb bf
       0.08860092173912938 -0.2118897333638028
000330 74 f9 a0 07 0a 22 a4 bf 27 ef b1 68 ce be a4 bf
       -0.039322198325396324 -0.040518236427457936
000340 42 bf c0 79 35 63 9a 3f ee d4 06 00 99 52 b8 bf
       0.025769076877792736 -0.09501034021998908
000350 fc 90 11 8a cf a8 bb 3f f8 01 e5 36 6e 0c c9 3f
       0.10804459687057383 0.19569184952162266
000360 b0 73 cd 3f d8 83 74 bf 14 ef 1f 1a a8 d0 c0 3f
       -0.0050085494266029346 0.13136769557592543
000370 5c 91 e0 50 35 8d c8 3f 75 67 00 52 0d 8d c8 bf
       0.19180933426936064 -0.19180456642134983
000380 2f d5 ed aa 68 15 a0 bf 20 92 19 c3 47 0d ca 3f
       -0.03141333662544309 0.20353028322564715
000390 07 50 a8 b7 42 23 c6 bf 6d 4b 4f c3 2b 94 b8 3f
       -0.17295106856965978 0.0960109092550689
0003a0 14 71 b8 f4 7f 42 c0 bf b4 76 21 79 41 64 c2 bf
       -0.12702941369287457 -0.14368456282220665
0003b0 ef df 1d bd c5 57 a7 3f aa ab 43 76 e7 66 c7 3f
       0.04559152539781041 0.18282788538576017
0003c0 ed ae 44 49 a6 c2 99 3f 5c dc 2b 82 1f 7b c2 3f
       0.02515659162706545 0.14438241821310072
0003d0 1b aa 10 e0 ce 1b 91 3f 2b 39 88 1f df 36 c2 bf
       0.016707642007682915 -0.1422995475736085
0003e0 25 3a 7d fe d3 6c bb 3f 1b 91 53 4a c4 e2 c2 bf
       0.1071293350516745 -0.14754537228794437
0003f0 e6 9a 65 0e 4f 85 bc bf 5b 27 93 ec 12 5e b8 3f
       -0.11140913106428804 0.0951854541373484
000400 76 ca 8e 25 57 c5 60 bf 76 0d 8e f0 d1 71 ca bf
       -0.002047224243562791 -0.2065985130867422
000410 09 ea b9 d2 b1 5c c1 bf 23 06 29 63 f5 03 bd bf
       -0.13564131535879678 -0.11334165259270228
000420 c1 cb a4 12 72 12 b3 bf b9 41 71 fa ee c7 a7 3f
       -0.07450020747346199 0.046447246619780676
000430 e0 97 58 95 69 2f bd bf b2 10 90 2b 57 ce 91 3f
       -0.11400470634597992 0.01738868907342867
000440 88 6f f6 cf 8c b8 c0 3f 3b 24 39 44 c3 90 c1 bf
       0.13063202051568745 -0.13723030883036977
000450 ce 45 88 57 a7 be c4 bf 9d a0 c7 ba 85 28 bf bf
       -0.16206828855551553 -0.1217120724683149
000460 ea f2 8f 9a 5c df b7 3f 9e 63 65 e4 de 94 c6 3f
       0.0932519795750967 0.17641817237997953
000470 9f 4b 7d 2e 22 67 9e 3f 5a 1f a8 75 51 73 ba 3f
       0.029690298163881242 0.10332211611250611
000480 37 18 44 74 1d cc bb 3f 3a 07 12 48 12 93 c7 3f
       0.10858329857373482 0.18417576331199276
000490 be 0c 1f 5a 4a 59 87 3f a6 72 e0 d6 22 b7 c1 bf
       0.011400776744159177 -0.13840136997250346
0004a0 c4 67 cf 89 b8 d7 b5 bf 02 a2 28 0f 26 38 c3 3f
       -0.0853228889895084 0.15015102138683295
0004b0 40 5d 88 a9 3f b6 b8 bf 5d b0 29 d6 f1 1d b7 bf
       -0.0965308941743972 -0.09030066946587696
0004c0 1d 01 09 0d 17 b1 c0 bf 36 ac b6 38 0d 39 b2 3f
       -0.13040435921176022 0.07118303904160048
0004d0 cd 0e 02 b1 f5 cd c3 3f 68 fd 8e 35 5a a3 c5 bf
       0.15472289221735594 -0.16904761901057985
0004e0 78 1f 60 07 b5 08 c6 3f 60 6b 97 78 00 d8 ac 3f
       0.17214072094088428 0.056335463257446206
0004f0 48 84 23 0d 65 4b c3 3f 36 92 6c 62 48 92 95 bf
       0.1507383646158209 -0.021065836913424195
000500 5e da df 4a ed 3d aa bf bc 59 5a 2f 90 7e b5 bf
       -0.051253714933342506 -0.08396245151593623
000510 ac bb fb 19 99 9a 77 3f f1 92 30 52 37 aa c3 bf
       0.0057626705672494775 -0.15363208306475643
000520 43 f2 36 d5 b2 83 7f 3f cb bd 5b 36 73 bc a8 3f
       0.007693956914803626 0.04831275976709611
000530 19 96 ab dd 41 94 c7 bf 2f fd 0b 21 10 51 b4 bf
       -0.184211953389579 -0.07936192328269408
000540 ec 2c 68 93 e8 02 8b bf 90 57 ab 62 a6 22 bb 3f
       -0.013189141272070569 0.10599746617239547
000550 87 36 29 9c 99 a6 bb bf 73 50 9b 37 92 24 ca 3f
       -0.10801086485408905 0.2042410632626602
000560 23 e1 24 5f 45 8c b0 bf 78 eb f7 3b 31 68 af bf
       -0.0646403653416923 -0.06134179932629186
000570 a4 0a c0 1f f6 02 c7 bf 1d 49 8d 24 ac e0 b2 bf
       -0.17977787542630097 -0.07374072925930304
000580 03 b6 cd 87 0f b5 c0 bf 2a e6 19 6c f8 27 ca bf
       -0.13052553301842815 -0.20434479978921277
000590 53 91 d7 da 78 42 7e bf 99 fa be c4 3f 98 7b bf
       -0.007387611474289751 -0.006736992927413831
0005a0 53 ed 40 ad c7 86 b5 3f 84 ca a3 2d 0d a4 cd 3f
       0.08408782939743746 0.23156895378595632
0005b0 0b 40 2f 12 e0 5e c4 3f 64 63 0f 5b e3 50 92 bf
       0.1591453636924601 -0.01788668864523703
0005c0 ee 0b 62 10 7b a0 c9 bf 34 47 78 fc b4 36 a7 bf
       -0.20020998287154107 -0.04533925611407455
0005d0 46 52 92 93 ec 75 c6 bf 73 22 c3 74 d8 0a c6 bf
       -0.17547375875132526 -0.17220597935945
0005e0 0d 6b 85 62 64 93 c2 bf fa a0 04 07 ad b9 85 3f
       -0.14512305079082247 0.010608054901766629
0005f0 26 e4 23 b9 7d 55 ab bf 7b d1 f8 6b fd 26 9c bf
       -0.05338662037861068 -0.02749248477467024
000600 6b b8 c4 3b ff 28 b3 3f 54 34 dd 35 34 16 c1 bf
       0.07484431466284185 -0.13349011068422334
000610 51 07 9b e2 de 21 b6 3f 9c e8 b4 84 95 7b b3 3f
       0.08645432503092577 0.07610449304493944
000620 89 52 de 71 33 aa c2 bf e9 32 9e 65 8f b7 ac bf
       -0.14581912097914465 -0.05608795276120821
000630 24 57 df 63 43 b5 c7 3f 1b bd bf db 3c 57 b2 bf
       0.18521921516974615 -0.07164364209142031
000640 4e 6f 36 f2 e0 cd c3 bf d7 c4 66 bd ee a9 c0 3f
       -0.1547204191855322 0.13018593071095694
000650 34 24 26 15 c7 77 c2 bf 2e 9b ae 4c 69 2f b9 bf
       -0.14428032429376147 -0.09837968942757122
000660 b7 00 2e 8c d3 c5 a5 3f 58 7f 76 3d 37 d6 5b bf
       0.04252492033174476 -0.0016990222410199953
000670 ec 4f ec b5 ca 70 7d bf 9b dc 21 b0 ee c6 b4 bf
       -0.007187644804407239 -0.0811604671488219
000680 c0 c2 43 34 68 8a ac 3f 0b b0 7d 2a 5d eb c2 3f
       0.05574346197125157 0.14780773710970183
000690 46 d0 09 fa 62 39 9d bf f8 4d 63 bf 10 bb c8 3f
       -0.028539225112084197 0.19320878357994764
0006a0 b0 53 da f4 eb ea 95 3f c5 4d 22 84 c7 03 c2 bf
       0.021403967685347858 -0.14074033691268376
0006b0 a4 2b 9f 50 14 56 bc bf 2f d2 89 b6 9b 88 c3 3f
       -0.1106884667234867 0.15260645306592965
0006c0 bd 4c 90 17 91 f2 9c 3f 79 e1 36 b2 d1 e9 b0 bf
       0.028269068778240525 -0.06606779671608888
0006d0 46 b4 0a 46 3e 4c b0 bf ca b1 c9 5f 99 4b a4 bf
       -0.06366337976460654 -0.039639275496344675
0006e0 a9 f1 16 f3 9d 75 c5 3f 60 6c 3d 81 39 be c0 bf
       0.16765188569651215 -0.13080519495528886
0006f0 b7 9c 0d 37 99 df c4 bf f0 10 d1 70 38 5f bb bf
       -0.16307368457930746 -0.10692169908822158
000700 cf 2a 04 04 13 05 b4 bf de ae 45 e3 15 4d c7 3f
       -0.07820242736867587 0.18203996274257056
000710 a1 8f 33 29 51 0c b7 3f f1 03 1c fd 4f bf c0 3f
       0.0900316930379277 0.1308383928190149
000720 9b 82 b1 a4 13 b2 99 3f 40 4b 89 19 23 b2 c2 bf
       0.025093371321761464 -0.1460613131226527
000730 4a a4 ea 9c e5 fb af 3f fa f0 55 51 de 38 b2 bf
       0.06246869602666345 -0.07118024335608544
000740 1a 6d 50 a8 55 f2 c8 3f bd 16 54 cb 8f 9e c7 bf
       0.19489546507325245 -0.18452641895435376
000750 e1 6f 65 ae 84 53 a5 3f 81 80 79 17 6e 32 be 3f
       0.04165281895504314 0.1179570014296605
000760 5d da 7c 70 d8 34 90 bf 91 44 f8 9e 15 7c 9d 3f
       -0.015826589456276675 0.028793657138582566
000770 07 d4 ce 56 da 70 ba bf ef 4e 96 bf 7f 60 92 3f
       -0.10328449839910557 0.01794623953681101
000780 f2 36 b5 74 b1 a5 90 bf af 74 31 70 f2 45 c7 3f
       -0.01625706934765154 0.18182211378272004
000790 c1 c1 f0 d0 66 01 bd bf a1 88 8f 7f b0 35 c9 3f
       -0.11330263711057055 0.19695097187565572
0007a0 36 83 1d 5b 2c 4a bd 3f 73 cb 32 97 f3 ba b1 bf
       0.11441304420942519 -0.06925890389793014
0007b0 8c ca 3b 7d d6 31 b4 bf 0a 3d 09 23 82 7a c0 3f
       -0.07888546521625467 0.12873865805384127
0007c0 63 ea e3 a8 b8 04 8d bf 4e b2 e7 ca d9 e4 aa 3f
       -0.014169161466715601 0.05252724267834151
0007d0 bc 4f 25 08 b5 98 b3 bf ba 17 3e 5a 70 6c c3 bf
       -0.07654887627478407 -0.15174679190039148
0007e0 42 56 f1 61 01 27 ad 3f 47 d7 50 24 4f 47 b1 bf
       0.05693821259107469 -0.06749434124580232
0007f0 8c d4 81 2f 9c fd c5 bf 91 e7 3d 84 c4 9a ae bf
       -0.1718020660370353 -0.0597745334079739

linear_map_in.mlp.3.bias f8 [24]
000000 c2 52 9a fc 15 03 c9 3f b6 6e d2 ea ae e7 c3 bf
       0.19540667375681237 -0.1555079123107725
000010 28 f6 e0 f7 22 e6 c2 bf cb 20 9a 6b 07 f6 bd bf
       -0.14764821151213536 -0.11703535439494599
000020 5a 73 b0 00 5f d1 ac bf b2 18 25 ed a5 76 ae 3f
       -0.05628487475789852 0.05949896354518226
000030 59 a6 be 0c 0d 79 c9 bf a3 ca b0 84 2c 27 9b bf
       -0.19900668260861457 -0.02651662406806089
000040 1e 4e 51 94 58 d7 c4 3f 5f d5 ab 26 88 94 b2 bf
       0.1628218387801192 -0.07257891601678555
000050 d6 4d e8 b8 75 31 90 bf 49 59 d2 5b 37 17 b4 3f
       -0.015813674364904738 0.07847925178279981
000060 c3 0d 49 e2 b7 09 c2 3f 52 b1 5f 40 a4 38 74 3f
       0.14092157887544773 0.00493683014608977
000070 c8 63 b6 81 4c 16 be 3f d3 63 8f 4d 16 ed be 3f
       0.11752775351341349 0.12080516236836951
000080 c9 92 20 86 ad 05 b8 3f 38 df 89 16 c5 f2 bf bf
       0.09383663677779021 -0.12479812431581372
000090 79 a1 a7 cd 23 0d b9 bf 5f b4 02 47 17 9f ba 3f
       -0.09785674830312087 0.10399003490120283
0000a0 7b b3 76 92 c3 4c 74 bf bf 08 ac d5 6a cc bb bf
       -0.0049560203109820745 -0.10858791081048745
0000b0 2d 60 6b 4e 60 b3 a7 3f 3a dc be 71 ea 1f bc bf
       0.04629040677326688 -0.10986199643126407

linear_map_in.mlp.4.weight f8 [1]
000000 bb 69 a5 24 6b 7a af 3f
       0.0614808542474807

linear_map_in.mlp.6.weight f8 [24, 24]
000000 e1 51 ca 7f 3a 27 bc 3f 89 06 3a 3d 26 0e b2 3f
       0.10997357959633504 0.07052840227881964
000010 65 1c 83 a3 61 84 b0 3f 35 bd 7a 5d 49 a3 85 3f
       0.06451997987743281 0.010565350690142064
000020 7d f0 19 c2 37 30 b0 bf f8 58 01 c0 15 0c b8 3f
       -0.06323574532319927 0.09393440187099944
000030 70 50 1d 9d 4c e6 94 3f f3 c3 ac 3c 68 22 c3 bf
       0.020409772004612525 -0.149487523676299
000040 8c a6 80 bb 75 68 c3 3f d2 a2 e2 cf 97 8d 73 bf
       0.1516253629245522 -0.004773705497577567
000050 3b c2 41 96 2d 5f c1 3f 64 80 95 fd 69 7e b7 3f
       0.13571710430871228 0.0917726749517001
000060 34 8a f0 e2 7a 8d c7 bf 97 be b9 a8 18 34 98 bf
       -0.18400512772594058 -0.023636231706801594
000070 d6 27 f8 ac 41 3d c1 bf 94 49 1d 11 4a 2e 9a 3f
       -0.13468190141457964 0.025567204756336517
000080 37 57 8a 82 23 53 c3 3f 91 e1 b0 a1 17 70 b7 bf
       0.15097469209711686 -0.0915541429284359
000090 b3 7e 9c 2c bd 6a b3 3f 1b cd 5f f8 3c 7b 9c bf
       0.07584745730536717 -0.027813866290626082
0000a0 49 a6 3a ee ed d2 bd bf e5 bd fe 77 06 ca b4 3f
       -0.11649977747097141 0.08120766095702654
0000b0 0b b0 39 52 72 a4 9b bf 19 05 63 9a fb 44 be bf
       -0.02699450137008345 -0.11824009436806583
0000c0 eb bb a3 91 08 34 cc bf 58 fb 09 c3 65 f9 b6 3f
       -0.22033793555553358 0.08974300395673873
0000d0 50 93 ec 87 5b 55 b4 3f ad ce 1a e9 b0 f3 99 bf
       0.07942745274028806 -0.025343670108397266
0000e0 5e 5b ea af c7 13 c2 3f 54 7d d5 63 8d 66 9e 3f
       0.1412286385500136 0.02968808099592242
0000f0 94 67 27 66 2f 8b c2 3f 97 ce 58 65 60 fd cc 3f
       0.14487259376511175 0.22648243855075087
000100 7d 19 ec f1 a0 16 c8 bf 39 f2 d0 76 42 4f 90 3f
       -0.18819057285891097 0.015927351476636018
000110 11 90 f0 09 b6 db 8b bf 6e 23 8a 7f 16 01 c4 bf
       -0.013602659395537871 -0.15628319957275089
000120 14 58 cc 5e 90 51 b1 bf 78 c1 c1 7f a3 8f c9 bf
       -0.0676508170548405 -0.1996960042774949
000130 e5 35 ed 43 f3 f7 cb bf 81 9b a0 28 28 ed 7d bf
       -0.21850434128502552 -0.007306248540806305
000140 75 ed 3d 5e 0b 16 a3 3f 55 4e de 33 61 6a b7 bf
       0.03727756047643541 -0.09146697536771715
000150 55 58 bb 23 cf c8 c6 bf 84 c5 60 a6 63 a0 b4 bf
       -0.17800320858686072 -0.08057234584773282
000160 de 81 90 f3 75 9a cb bf a1 ca c8 19 72 5a b2 bf
       -0.2156512679366775 -0.07169259194851431
000170 c1 2e fd 9e 35 80 b2 bf b1 03 51 82 af 44 a2 bf
       -0.07226882106368306 -0.03568027940537578
000180 c2 ce 53 84 14 04 9b bf 43 54 38 7a a9 93 c0 3f
       -0.02638275201475327 0.12950628726744826
000190 b8 e4 cb 0d ea 6f b0 3f d1 2b bf d1 8f 48 aa bf
       0.0642076762850533 -0.05133485255608828
0001a0 84 29 f7 06 da 7c a1 bf c8 98 9e 6e 6b a4 c8 bf
       -0.03415566763904379 -0.19251768971770944
0001b0 d3 21 3f b1 e0 8a b3 3f 43 28 c6 42 dd d6 b9 3f
       0.07633785559949695 0.10093481903291583
0001c0 80 88 c4 44 2b e8 c0 3f 27 aa 2d a9 6d be a7 bf
       0.13208523614691003 -0.04637472810903303
0001d0 5c af c7 b6 87 09 9e bf 49 c4 94 9b a7 cc c2 bf
       -0.029333229571349193 -0.14687056633695963
0001e0 87 ba 6c 3a 9d 5c b3 3f a2 64 4b 6a 48 16 c7 bf
       0.07563193012604517 -0.18036751928483336
0001f0 a3 47 94 84 b5 24 a5 3f 34 e7 e9 6e 16 38 c8 3f
       0.041295692857729514 0.18921165862757905
000200 73 65 22 7b a0 5b a5 3f 30 f1 02 78 56 23 83 3f
       0.041714682608651986 0.00934474519487391
000210 7a 6d 10 df dc 85 ad bf 61 ee d3 a0 cf 9d c5 bf
       -0.05766191695166874 -0.16887851097986853
000220 c7 49 d3 45 5b 47 c4 3f 3b 76 8b 9f 1e 56 c0 bf
       0.15842762860718393 -0.1276281622912608
000230 1c b6 f1 f4 31 0c c1 3f 4f 6f 7a 1d 5c 17 ca 3f
       0.1331846662537125 0.2038378852783986
000240 c0 36 cb 5e 70 1e bc bf 54 82 ab c7 f9 e8 bd 3f
       -0.10983946146299228 0.11683617710833377
000250 32 9f ad 5d 13 82 c3 3f 6f 05 e9 34 4f a7 c6 bf
       0.1524070937550675 -0.1769808777189996
000260 67 f0 d9 9d b0 6e ae bf 6f 1d b8 12 10 2f b5 bf
       -0.05943824698349048 -0.08274937111865709
000270 78 97 4b 87 e8 72 c6 3f 3f ac 86 d2 a2 59 ca 3f
       0.17538172346320002 0.20586047439187102
000280 55 3f 74 e6 5f 30 c7 3f 1f eb 24 c0 4b 5f a1 3f
       0.18116377594605618 0.03393017502317818
000290 43 37 fd 35 dc c2 bc 3f 10 9b 36 13 cf fe a6 bf
       0.11234833067029819 -0.04491278752839467
0002a0 79 5f 41 ed 4d c0 c2 3f e1 46 18 d3 b7 c4 a1 3f
       0.1464936645959332 0.034703964727794696
0002b0 78 60 d2 1d 99 2a b4 bf ac e0 be b0 65 82 c9 bf
       -0.07877499559470091 -0.19929190759808557
0002c0 24 15 41 38 3c 0f c1 3f 3a 1d de cc c8 9e b8 3f
       0.13327744242466466 0.09617285730029304
0002d0 2f 02 4c 94 04 12 b7 bf 90 ec 83 5a 80 0a b2 bf
       -0.09011868114976872 -0.07047273835989842
0002e0 55 32 f1 46 12 a3 c8 bf 89 e8 fe 3e c2 0e be 3f
       -0.1924765440366111 0.11741270101529912
0002f0 52 fa 1c 1d 73 e2 b3 bf de 86 76 6f 7f 77 c1 3f
       -0.077674097640718 0.13645928328064988
000300 76 e5 8e e0 a3 58 bf bf 39 e7 79 24 60 dd b6 3f
       -0.12244629127862602 0.08931542292148444
000310 b5 ad d4 54 3a d9 a5 3f 44 af 8b e5 c3 a5 ba 3f
       0.042672942023581774 0.10409187654630353
000320 ba cb c2 a9 b1 03 7b bf d7 9c 17 c2 d2 f1 c7 bf
       -0.00659531974467858 -0.18706736066017157
000330 90 1b b6 dd 70 07 b8 3f 0a 49 55 45 bb f0 a9 bf
       0.09386353886485055 -0.05066476079322697
000340 4c 80 ba 06 b3 06 c7 3f 4f 75 56 a5 3c f3 c4 bf
       0.17989194706479095 -0.16367300103312707
000350 e1 bf 94 1d ef 4a c5 bf d4 29 be 7a a1 c9 92 bf
       -0.16634930557620378 -0.018347285381915615
000360 b4 56 8f 8d bd 00 b2 bf 04 f8 4d 7c 0d 25 c1 bf
       -0.07032379823734908 -0.13394325799521323
000370 bf 9b 25 2c 34 85 cf 3f 12 84 f9 53 db f8 92 3f
       0.24625255733118753 0.018527438164145656
000380 59 e4 de aa 53 66 be 3f 19 70 e8 3b 5e 0b b9 3f
       0.11874888345381986 0.09782971346470538
000390 10 d6 bd 81 98 82 c5 3f 4d 9f cb 8c d0 79 c2 3f
       0.16804796538387778 0.14434248804831853
0003a0 cc ac e1 8e 54 6f cc 3f 8b 3e 4b d6 36 36 c6 3f
       0.22214753128660047 0.17352948630876983
0003b0 72 89 f4 15 25 e4 c9 3f 45 ce 85 e2 23 30 c1 3f
       0.20227492877991043 0.13428162155797643
0003c0 70 c0 ea 01 5c 20 be bf a1 b4 7a 81 48 27 bd 3f
       -0.11768126532365542 0.11388066445461444
0003d0 de ea c6 75 56 75 8a bf 7f 4b 34 c3 30 e6 c6 3f
       -0.012919116467732857 0.17889985591372334
0003e0 59 fb 2a 84 65 24 c0 bf 21 87 6e ca 5c ab bd bf
       -0.12611073449621804 -0.11589603368932135
0003f0 0a a0 12 27 92 bb c4 bf 1d 5e a6 a5 b6 3f 95 bf
       -0.16197420986031857 -0.020750860081163326
000400 03 21 fe 54 e1 94 b5 bf f5 c0 d1 8a 1b b2 b3 bf
       -0.08430298161522747 -0.07693645609993267
000410 d0 7e da f6 ca 97 ab 3f c3 16 c3 ad 82 3b af bf
       0.05389246238087042 -0.06100090380782099
000420 da 64 d7 48 fc b7 bb bf 4e 18 d5 3c 84 a9 c5 3f
       -0.1082761457286269 0.16923573465664038
000430 54 0d 2c 41 a4 91 c2 bf 96 74 fa 55 3d d8 c9 3f
       -0.14506962949972524 0.20191160867844776
000440 10 b2 cb 4c 62 7f c0 bf 2c 93 ab 34 27 2d a5 bf
       -0.12888745069302887 -0.04136011617609933
000450 d7 a1 b4 93 3e 71 ab bf 7b 88 c8 d7 b4 88 c7 3f
       -0.053598361521213604 0.18385944877906354
000460 ed c6 ad cd 6b 95 b4 3f 21 0f 93 46 6f 1f b0 bf
       0.08040498515563473 -0.0629796550084021
000470 24 52 ad 70 f3 fa c5 bf e5 f4 b2 50 01 4a c8 bf
       -0.17172091485794383 -0.18975845756896273
000480 5f 51 63 62 be fc ca 3f 48 4f 26 22 03 99 c1 bf
       0.21083812526797893 -0.13748206298316235
000490 b3 ca a7 60 e0 4c c5 3f f5 52 7e fc d8 c9 a9 bf
       0.16640858382705445 -0.05036809999652362
0004a0 f3 4d 6e 26 89 9e c5 bf eb 6e 10 ac 03 f0 c2 3f
       -0.16890062691219007 0.14794965650150202
0004b0 61 72 7b 40 2b 6c 68 bf 36 3e 72 f3 3c b4 c1 bf
       -0.0029812664759972106 -0.1383129299833727
0004c0 9e 51 bd ea 54 8f c5 bf 0c 00 7a f5 bd 84 b3 bf
       -0.16843663656130742 -0.07624423258857876
0004d0 72 1d 3b 83 87 2b 89 bf 59 a1 6e db f0 89 c1 3f
       -0.012290056888913912 0.1370221206136744
0004e0 33 bd 11 37 f4 01 cb 3f 57 ea d3 bb 7e 68 a1 3f
       0.21099713028841335 0.03400035898990399
0004f0 84 2a 23 19 4b f0 bd 3f c3 ec 6d cd e2 4f b7 3f
       0.1169478355761076 0.09106271281591476
000500 c1 3c 61 35 19 f3 a2 bf 82 4e fe a7 37 7a be bf
       -0.03701094414338391 -0.1190523896350957
000510 d9 23 f3 35 47 85 ca 3f 09 c0 e9 2d de ab c3 3f
       0.20719232687250047 0.15368249170160223
000520 82 26 55 ca 6e 61 b1 3f 69 f4 17 16 73 25 b0 3f
       0.06789295615922167 0.06307143487352253
000530 88 a7 76 89 02 ca c1 3f b9 83 ba 1b f9 9f b6 bf
       0.1389773532112566 -0.08837849547354794
000540 07 32 b6 36 49 65 c2 3f ff 89 84 a9 48 54 bf bf
       0.14371600314588326 -0.12237981928459617
000550 60 64 de a4 d9 50 b9 3f d9 0e cd e0 b0 4f a4 3f
       0.09888992571940625 0.039670493546990655
000560 c8 77 89 d5 ce 19 b7 3f 51 9a 00 cd 01 d3 c7 3f
       0.09023754800133965 0.18612692365532493
000570 32 2c cc 00 9c 80 c5 3f b8 7e 54 cd a2 ab c4 3f
       0.1679873470205578 0.16148791337854163
000580 8a 17 f8 67 8a 95 b3 bf 37 5b 40 e7 ca 7e cb bf
       -0.07650055921848611 -0.21480690280506007
000590 34 10 93 6e f9 15 96 3f 06 d5 ff 5c 6f 00 c6 3f
       0.021568200467996415 0.1718882755373345
0005a0 2e 7d d0 25 4f 38 64 3f dd 4e b6 17 ca 7a bb 3f
       0.0024682565549622093 0.10734236792478265
0005b0 7b b9 cc e0 81 46 b3 bf fe bb 38 11 97 6b c1 3f
       -0.07529460657381108 0.13609588948153822
0005c0 68 7b 58 be 65 1b c2 3f 14 0b db cd 57 8e c0 3f
       0.14146110338421214 0.1293439631609422
0005d0 a3 22 c6 70 c3 5c c5 3f 3e 4f f7 c9 75 49 c1 3f
       0.1668934155134326 0.13505432473777462
0005e0 4d a4 3a c8 1a f4 c8 3f 58 4c 9b 59 e5 cb a4 3f
       0.1949494817429546 0.04061810225325563
0005f0 dd 09 51 7b 11 be c8 bf 5f 31 78 7e 89 98 c4 bf
       -0.19330042382541893 -0.1609050624396202
000600 ea 12 4e 1f 8a 0f c3 bf 30 d8 09 df df c4 c5 bf
       -0.14891172913134848 -0.1700706328444439
000610 51 76 a7 d9 d8 d8 c9 3f 49 ed a9 3e 5e 19 b6 3f
       0.20193014743465423 0.0863245871532189
000620 03 c5 f1 b1 c3 4f c9 3f dd 46 07 40 45 cd c5 3f
       0.19774671734516155 0.17032685877216283
000630 6d 9f 41 19 60 7b c3 3f 24 76 58 e2 83 d4 a3 bf
       0.15220261796207116 -0.03873073709494815
000640 c7 22 a0 9e 59 96 c4 bf ed 52 74 7a 13 b1 c8 bf
       -0.16083832021128883 -0.1929039333268955
000650 0a 3e 4a 5f 27 e2 87 3f 4f 3d ef b9 d2 e1 ca bf
       0.011661822886963175 -0.2100165756114429
000660 e7 24 fc c3 19 73 c4 3f f4 00 fd 27 f3 d5 c0 3f
       0.15976259297921233 0.13152923061898714
000670 f7 5a bb f8 32 0c bf bf 97 b1 09 5c 2b 6f c1 3f
       -0.12127989361338708 0.13620512002979687
000680 dc db ef 8c aa 2b c3 bf 1d 06 c8 c9 45 1e bf bf
       -0.14977008706747952 -0.12155567337324454
000690 72 cf 49 11 71 a9 af bf 90 cc 5b e4 3d 12 b9 bf
       -0.061839612350836584 -0.09793459725533382
0006a0 03 61 10 62 94 a0 b1 bf 65 87 5c 38 12 17 b0 bf
       -0.0688565005697264 -0.06285203815471403
0006b0 8f 0a a7 45 8a ee b9 bf d7 65 3d 76 52 e8 a3 bf
       -0.10129608345509154 -0.03888185208661426
0006c0 c5 c3 23 5d 26 ef ac bf 03 ff 71 39 b6 b2 c0 bf
       -0.056512068624108326 -0.1304538517469994
0006d0 e0 72 84 e2 2c 8c 7a 3f 52 bb b2 49 64 fd 92 3f
       0.006481337863331688 0.018544737814120645
0006e0 dd 12 d1 c2 6e 7d ca bf a9 36 62 18 b6 2e cb bf
       -0.20695290100606814 -0.21236301603896848
0006f0 a7 47 29 38 9f 87 c7 3f bb 55 fb 0d 40 8b cc bf
       0.18382635347603335 -0.22299957926467848
000700 5d 35 6f 8f 81 08 a1 3f f7 c5 f1 35 80 3d c4 bf
       0.03326802135380078 -0.1581268561745188
000710 40 77 72 a2 d7 8c c4 bf 80 52 a7 91 f1 41 c0 3f
       -0.16054816658009408 0.12701243984215083
000720 d2 41 85 ae ac da a0 bf aa 76 53 ea 33 4f c6 bf
       -0.0329183543241275 -0.1742920774622026
000730 6b be d2 0d ba 05 c4 bf 39 8b 9a 9f f3 8a bf 3f
       -0.15642476725541896 0.12321398397993456
000740 9d 55 35 f4 fe 97 a5 3f b3 a8 3b b5 13 65 b2 3f
       0.04217526179369744 0.07185481238016926
000750 74 bf 09 b5 cc ab 9d 3f 3e f1 59 1f 60 17 b5 bf
       0.028975676107108453 -0.08238793149388798
000760 1e 43 b3 df 34 76 c2 3f fb d4 35 18 b2 56 c5 3f
       0.1442323772703497 0.1667082422460807
000770 36 5e fc 75 46 aa a7 3f 59 03 9c 64 b4 36 c1 bf
       0.04622097196823598 -0.134481953740784
000780 dd f9 12 ec df fc c2 3f 2d d1 99 77 9c ce b6 bf
       0.14834212328965082 -0.08909013671820239
000790 93 1a 28 c5 d8 42 cd bf e8 c8 e0 47 c7 07 c1 bf
       -0.22860250117101497 -0.13304987916632816
0007a0 fb a0 24 16 0d 87 ca bf 7f 4e 20 2a 2a 70 b8 3f
       -0.20724643307881493 0.0954614975783503
0007b0 2f 16 ef bf fa bd c2 3f 64 80 58 11 5f d7 c6 bf
       0.14642271396421466 -0.17844761225660755
0007c0 4d c1 2d b4 0f 62 a7 3f 88 24 ae a1 e8 02 aa 3f
       0.045670023674463246 0.05080344174991419
0007d0 7c dc bd b6 73 1a ad bf da 92 de 4b dc b0 c0 3f
       -0.056842437798814566 0.1303973551231568
0007e0 77 2c 6a fe fb 32 c2 3f 45 c1 bb f1 2f d2 ba bf
       0.14218091890902304 -0.1047697034043767
0007f0 a6 29 4a 61 8d ab c2 3f 3f e6 8e ed 83 00 bd bf
       0.14586035967324767 -0.11328911351929437

linear_map_in.mlp.6.bias f8 [24]
000000 82 85 04 69 da 14 c9 3f 54 9d 18 68 2a 74 b9 3f
       0.19594888809028183 0.09942879716310432
000010 b6 5c c0 15 fb d4 b0 bf 9a 73 8b 0a 74 5c b8 bf
       -0.0657498291114845 -0.09516072518768084
000020 d9 88 b8 97 d6 4c ab bf 39 c6 96 8a 91 bd 4c bf
       -0.053320604343996165 -0.0008770905162036109
000030 1f 20 6b fa 18 77 72 bf ae 8b af 99 8f 9e c8 3f
       -0.004508111544687692 0.19233889583764835
000040 08 39 7f 7a 8f fb b4 3f f5 d0 a3 69 d9 b5 b0 3f
       0.08196350803993735 0.06527479962443634
000050 a2 32 63 a1 69 1b c0 3f cc 34 fd eb 53 7c b9 bf
       0.1258365667366848 -0.09955334197475735
000060 5f 07 94 8b 6e 48 95 3f bb 3f 9b 7a 67 75 bd bf
       0.02078411795537904 -0.11507269614526099
000070 50 26 21 e3 bf ef b0 3f ca 2f 6c be 9f 4d 83 3f
       0.06615828795579515 0.009425399779068661
000080 45 2d 85 99 bf f6 c4 3f 9b 39 3e 42 88 cc 98 3f
       0.1637801646814784 0.024217728655963815
000090 65 c7 56 08 9a 29 c9 3f f3 42 da 8d cd f2 b1 3f
       0.196582082816856 0.0701111289329324
0000a0 a8 88 47 ce ac 3b b7 bf 99 fb 3a bc 1a 65 b0 bf
       -0.09075431858176108 -0.06404273124188221
0000b0 08 41 7a bb e6 c2 bc bf d9 f3 3d dc 39 cf a4 3f
       -0.1123489577969431 0.0406435090398884

linear_map_in.mlp.7.weight f8 [1]
000000 6b 3e bd c6 45 44 e2 3f
       0.5708340531945856
