exp/exp_second_round/transformer_15minutes/model/transformer_emb_empty_token_96_963182.pth (torch, 2994 bytes, 1 tensors)

weight f8 [1, 97]
00000000: d538 31cb 80a1 dbbf 8f60 ceac 61fb e4bf
00000010: 7b4c 82e5 d772 f6bf f2d4 dfd0 21cb b0bf
00000020: 0bc3 8bed 90e1 ecbf 963a 3b19 8916 db3f
00000030: 1249 aece f460 f1bf b7ad 0f42 6594 f4bf
00000040: b696 38a7 6fd5 e0bf f261 a84f 1e68 babf
00000050: ec97 2124 17c1 e13f 8092 d0cc 72a9 00c0
00000060: af95 aa99 b661 e7bf f83c a90a fdb6 d2bf
00000070: d67d 30b6 3c89 d73f 2269 97cf d4f3 d33f
00000080: 7d36 522d 259b c33f 3e7f f9eb 6497 09c0
00000090: 9a28 cb2e de61 d9bf edf9 8529 60d6 e9bf
000000a0: 3757 bfe9 0bc0 e03f 8e1f 5784 b40d ec3f
000000b0: 1edf b91f 35ab 08c0 3930 b883 2891 f7bf
000000c0: 8fc7 b2da 89b8 d43f bb17 133d 1799 0140
000000d0: 3222 77ec ec59 ef3f 6796 c0c8 d7fe f53f
000000e0: fb12 c75f 7372 e93f f4c2 1ce9 0e16 f3bf
000000f0: fb4d ff43 0f29 eebf a657 9f6b a1a6 c2bf
00000100: b41c adb4 ae70 ae3f 2827 77b4 90bb f0bf
00000110: 674c 0d6f 8f04 e63f fd70 f984 0e1e f1bf
00000120: f53d d546 a197 e43f 8a2f 8cc0 e613 d3bf
00000130: 3d9f 833c 905d e9bf e9b0 0059 3d30 c4bf
00000140: dad4 1dc8 2aa7 db3f 5c53 518b 5ecf f63f
00000150: 0e22 b642 0739 e63f c653 b2d0 02b2 c5bf
00000160: 42b5 7b95 214c f9bf c488 aa97 bc05 c93f
00000170: 32c5 9bbd e9b7 f9bf 1136 153b 7465 f83f
00000180: 1099 46e5 c5fc cabf a5e9 93e0 eec7 f0bf
00000190: 4b98 ccd8 df6b f43f f2d0 f21e d641 edbf
000001a0: 1751 831f b818 e8bf d15b 9565 31f8 d1bf
000001b0: f6f3 0207 73a8 e63f 5fde fdb6 40a8 bcbf
000001c0: 1da3 f234 c402 fa3f 434c 17b9 7323 eebf
000001d0: b6e1 0b2b 67e0 f53f 9af3 d9c9 ebce eb3f
000001e0: dfc5 a808 d70c efbf e2f3 eede 9168 c6bf
000001f0: af98 4513 b97e d1bf 4109 09ef ee79 e5bf
00000200: 3b2f 1996 31ef a13f 03f9 7cfe ef4c e2bf
00000210: 9e42 042d 353e d3bf c927 2f76 a6bd dabf
00000220: 5532 2e4f e251 c53f 6438 3f8f 5dbb f9bf
00000230: a18d ca18 2ea7 eb3f e47f 6c3a 8cdb eabf
00000240: 231c 11cc cae9 e93f e4e2 2b63 e97b f23f
00000250: 9c3b 4f45 b30e d6bf 8380 2b1e aff6 e03f
00000260: 452d 8c87 d5a2 cebf 10de b36e 79ae 99bf
00000270: 7f5d 81e8 6553 d03f 8fe9 3de8 0759 ea3f
00000280: a404 9103 a11c f1bf da71 e2b2 11c8 f1bf
00000290: b8ab f671 ecf1 fc3f b131 9afe e689 b23f
000002a0: c15e 9434 0772 e7bf c5a7 6e52 703c 9ebf
000002b0: c41c 879a cdde e53f 9f50 7a27 c70b c9bf
000002c0: 5e2d b182 8fe1 bdbf 149a f8f6 6a40 e9bf
000002d0: d0d1 a30b ca1a c03f ae99 95c2 b572 e03f
000002e0: 7d71 13ca 4944 debf 0ab1 74bf d92e c83f
000002f0: 41f9 951e 8928 ed3f 14b3 b85a 0da2 f2bf
00000300: 7dec 92b8 9c08 f1bf
-0.43173236697192624 -0.655686223518403 -1.403037926215602 -0.06559954976531282 -0.9025349273270832 0.4232504602813746 -1.0861709664791914 -1.28622937970327
-0.5260542169605376 -0.10315122074860719 0.5548206048667885 -2.0827384949828343 -0.7306778909011679 -0.2924187282669233 0.3677512911981159 0.3117572810421213
0.1531721564573906 -3.198922961761041 -0.39659838266073566 -0.8074189005854443 0.5234431805972467 0.8766729912540414 -3.0835974196051117 -1.472939028290979
0.3237633357740543 2.1997513553096417 0.979727231832902 1.3747175065886041 0.7952210302979376 -1.1928853136016047 -0.9425121620246836 -0.1457101607799675
0.059453448825075667 -1.04579229826272 0.6880566758139935 -1.0698380655585986 0.643509519906671 -0.2980896835658703 -0.7926713163296665 -0.1577221569617742
0.4320780710471134 1.4256272737595372 0.6944614699323794 -0.16949496450675222 -1.5810867156208848 0.1954875698621149 -1.6074006468373452 1.5247690494464943
-0.21083902068239313 -1.0488117954797442 1.2763365238875106 -0.9142866711104303 -0.7530174842345642 -0.28077349586731964 0.7080626618331951 -0.11194233386583495
1.6256753986619465 -0.9418276419695605 1.367285888814974 0.8690089170846591 -0.9703173798681596 -0.17506621728344302 -0.273359555072953 -0.6711344402940896
0.0350280280805166 -0.5718917818519745 -0.30067185779720684 -0.41782533208299505 0.16656140199883632 -1.6082435222229146 0.8641577228740297 -0.8393002644625054
0.8097890840225584 1.1552518724330918 -0.34464723366266425 0.5301127995735587 -0.23934430235417828 -0.025079629308463025 0.2550902147827045 0.8233680282567536
-1.0694894923511038 -1.1113450038602566 1.8090633823110078 0.07241672244908305 -0.73266945142219 -0.02952743056417952 0.6834476488228565 -0.19567193439127537
-0.1167230314323908 -0.7891135047582929 0.1258175427279995 0.5140026855922792 -0.47291798337916885 0.1889297661631491 0.9111981961612302 -1.164563516979972
-1.0646025857847967
