exp/mmd_vit_exp_30_small/model/small_60m_encoder_25_101556.pth (torch, 843390 bytes, 88 tensors)

linear_map_in.mlp.0.weight f8 [42, 25]
00000000: 4f4a 2a83 0d75 c33f f258 a6ab 1289 b53f
00000010: 69ac 90e7 6d07 983f 85cf 02cc 43ae ccbf
00000020: 1b6a 8c99 cfb0 b03f f5af 5ae5 fead 95bf
00000030: 2e53 8eb5 c77a be3f 8615 c0a0 4223 ae3f
00000040: 0afc 142e ebfe b7bf 4c6c c595 f038 cbbf
00000050: 7947 64b2 4963 cdbf 0cc7 041b a5de ad3f
00000060: a961 6a51 ab6a bf3f 4387 6a8c 3034 c33f
00000070: 5b33 a7ef 52d9 c0bf 3596 511c 6f41 b83f
00000080: 54be 291e 6170 cbbf 4841 ff7e 0e5f a03f
00000090: a04f 8a52 9df6 ba3f ec56 5660 85a8 c8bf
000000a0: ae11 f912 b9b1 c13f 1c09 8e6e 4a16 a53f
000000b0: 3cf1 b2ea 308a bf3f 8471 8846 ccf9 b9bf
000000c0: ed9b 2f1e 75cd a13f 209a 215f c87c c13f
000000d0: 033f b791 0560 96bf ef16 54f5 dcdb a83f
000000e0: 3fe4 84d8 f009 bebf 5f07 f061 57c4 a03f
000000f0: 21c7 39c8 6735 b03f cf76 749d bcd8 c2bf
00000100: b829 ce59 c386 bdbf 6074 921f 9f74 af3f
00000110: 7715 4aa1 9694 c5bf d116 ce89 b452 ad3f
00000120: 5cff 4dcc d88f bd3f 84b7 92b8 8581 963f
00000130: a363 a987 db4f a03f d712 d7c0 fe0c b43f
00000140: 4685 6863 53de bd3f 1c99 4c55 fdd0 91bf
00000150: 8ca6 a0a8 d2ca a63f a572 7a0f 3f21 c3bf
00000160: 44b7 d6f0 3a29 593f 139b 24f5 1180 c5bf
00000170: c50a 2d26 0bed b1bf 52a7 b960 e349 c33f
00000180: 2d52 e432 9d41 c13f edcd db59 3f90 7e3f
00000190: c212 abfa 8726 b5bf cc1a faec cde7 c6bf
000001a0: 2867 7934 481a b9bf d59b d2e8 c6e4 b6bf
000001b0: c459 cf9a cce5 b6bf fe0c 7a28 87da b5bf
000001c0: 60ad 6c12 6c46 b1bf ab60 6775 99a1 b7bf
000001d0: 6b69 61cc a3eb c73f 6811 0d86 5ab6 c8bf
000001e0: c47a e9ba d648 8c3f 0f82 64ac d00f b7bf
000001f0: 6a77 261f 82ab 943f 2b78 2997 0b8c 953f
00000200: 0cb6 3f8e 2754 bdbf efa9 9dc4 3fb4 b53f
00000210: d476 eb0b 12ec c2bf c709 8e3e ff3b c73f
00000220: 50e3 99e2 d35c 963f 8cb0 2fa8 8ff3 6cbf
00000230: 52a2 51f7 d4af c5bf 793f 6a38 f647 c63f
00000240: be6f 3665 de60 b23f cea9 1eb7 acd8 98bf
00000250: ae20 48f1 1cc4 c1bf 35d0 e87e 8bf6 cabf
00000260: e05f 329d 214f b1bf d51d eff9 f4d8 b2bf
00000270: d270 27c7 eb9d b33f 573b 81c0 0bac c4bf
00000280: 0043 1061 59e1 c9bf d15b 3558 6718 963f
00000290: fe55 e332 a83b bb3f 18b0 c391 a418 c03f
000002a0: c54e aac1 c025 c73f e16c da86 687b babf
000002b0: ba45 96c7 8c80 afbf 8216 746f 38af bbbf
000002c0: fde3 ba52 4f61 92bf bc23 3621 04e5 a4bf
000002d0: afc0 8544 51b8 a8bf ca46 101f 7d07 8a3f
000002e0: 6dde cd4b 1570 c53f a1a4 4ab1 e6a6 ae3f
000002f0: d430 09cb bdd8 c8bf 8080 b66d 680b be3f
00000300: 3218 beb7 3296 c0bf 565d 72cb aac2 c23f
00000310: 353d 1810 33b1 c63f 95f7 420e 2bd8 643f
00000320: 2e05 4de3 b8c6 bbbf 289c d3c2 de30 c5bf
00000330: e133 a81a 7d67 aabf 8a8d f067 55d1 c3bf
00000340: eba0 b797 7464 c53f 2b98 460d 2aed a53f
00000350: 996d 16ec e0f2 703f fc68 601f 1132 973f
00000360: 93a5 a910 5617 c6bf bde7 8505 8065 aabf
00000370: 2a4a 5e85 42ac ca3f 20bb b70b 5d6b c53f
00000380: fdad 0bef e69c 99bf 70f9 a1e5 d9c4 b0bf
00000390: 856a 8239 a382 aabf ff49 4a01 eab6 b1bf
000003a0: d29d c873 500d c2bf 6e1d 5b12 df9f a53f
000003b0: e623 c96d 6c7a c6bf c150 e839 cb51 973f
000003c0: 4ce1 df18 0c9f 6fbf 1e38 4006 33c0 8a3f
000003d0: 8bfd fc22 0a88 c33f bef7 f897 f51c c2bf
000003e0: d4d0 3078 6cef b4bf 5022 1127 2d58 b3bf
000003f0: de68 364e 4c82 bcbf bacd 634b d643 c0bf
00000400: 8abe de59 e390 c4bf 10ca 1159 edaf 9c3f
00000410: b440 a37f cd2a b4bf e352 f61c f496 c1bf
00000420: bfb7 81b1 1ef0 c33f be13 33d2 8042 bebf
00000430: e0eb 96f5 86b3 c53f 5ac0 728a c4e3 8b3f
00000440: 11fc 48a0 7c79 b33f 4aa9 7247 84b1 c2bf
00000450: 986c 1b1b e893 c83f 238b 5db9 1eb4 9abf
00000460: 4e25 bb6f 9c84 433f e862 5f37 447c c7bf
00000470: c4cf 307d 22eb af3f d83b e30a 7f7b a03f
00000480: c864 14fa ba1c c6bf f80b f268 dc61 923f
00000490: 75f3 ae12 34d5 bb3f 26ed fc97 b131 bf3f
000004a0: 1cbb 8ad6 69f2 c53f 8f6a 2081 a932 a33f
000004b0: 450c bc99 e03b b8bf 288c 85a7 4170 b2bf
000004c0: 721a 91b8 5dfc a8bf 90ce 9554 a486 903f
000004d0: 20d2 bb54 e1fc c5bf 3a7c cf72 e4f7 c8bf
000004e0: bba8 0454 805c c43f fce4 22cd 293e b23f
000004f0: 1f50 9195 cc0c 913f 9de4 a1d6 816c b93f
00000500: 0bde bdd3 e48e c8bf f062 a985 16c1 bf3f
00000510: fb9f ce5f 1a51 c5bf 4a18 64c4 89ac bcbf
00000520: 271e de6d b8ac b3bf f8bd 045e ecba bb3f
00000530: 4ffa 22af 7f23 c33f f197 4ca0 3cf6 3c3f
00000540: 7998 5d05 27d4 a8bf daf5 12f8 3e9b 9fbf
00000550: fa99 44cf 6ed6 c23f d15c 8665 eab4 bb3f
00000560: c6b7 c461 3346 c2bf e20c a580 afef a3bf
00000570: e23d 9de4 0088 bb3f 3ba3 bf5a e2b2 bf3f
00000580: a4d7 6c94 f60e c1bf e36e bb75 25d0 cabf
00000590: e9ad 4dfa cdbb b2bf a77f 5994 5ad7 c23f
000005a0: 9940 7abb b500 b5bf 7da7 1c21 8f21 c53f
000005b0: c219 fa75 8874 993f 3b46 b6b9 5953 b83f
000005c0: 0f41 c7d1 7584 c03f bb98 e15b 80a2 b1bf
000005d0: 67d0 5202 b041 c03f 6480 d9ba 99e3 c1bf
000005e0: 57a2 5f56 0eef a6bf 8060 b475 fbc7 babf
000005f0: 6d02 f936 4273 cabf bfb0 e33b 8b2f b03f
00000600: 65ca 3471 fca4 b8bf aae1 ccac efff c0bf
00000610: 1f21 25ec 4a54 b93f f1d4 e34f f37f b5bf
00000620: 4af1 e7ce d43f 3dbf 1154 43f7 d5ef b0bf
00000630: 1d79 e2ef 6899 b43f bad7 2112 55e8 bebf
00000640: ce26 5029 0069 c43f ecb3 6dc9 4d35 8d3f
00000650: 9065 a1c4 9f66 ba3f 7af2 8c3f 18ba c8bf
00000660: 2dee 16b6 06f5 c8bf f2a7 512d dfaa 9b3f
00000670: e1c0 ca5d 590b 8e3f aafe 2de7 f4ff bdbf
00000680: b862 18e0 7660 82bf 6132 616a 7ced b63f
00000690: db45 6c41 cbdd b2bf 9f12 1ff0 4947 c33f
000006a0: e5de 82f7 78bd b1bf 0b06 45db 8d60 c53f
000006b0: 9b7c 3b45 940e c0bf fdf9 112e eda0 b5bf
000006c0: b86b e699 04c3 aabf f59a 24d7 3351 bdbf
000006d0: 0053 9350 f257 b4bf 6eac 6f93 8dd6 bdbf
000006e0: 5d94 739f 0890 c4bf 7dd1 ca12 a42c c7bf
000006f0: 9b6d 51d0 6277 923f 74a0 e83c 4bea bd3f
00000700: c5d3 74fa 7ca2 ba3f 70f4 a816 8d11 c4bf
00000710: 9213 06c5 b007 cabf d128 776c eb57 b9bf
00000720: 2345 e3ce 847e be3f 83ed b9a1 1ba7 a53f
00000730: c527 dd27 9448 b3bf 647a 441b 2149 7dbf
00000740: fc6c 2684 e766 a53f c7ba 1e9d 1072 c63f
00000750: 4779 6853 23ad c9bf b7a1 abd6 e3fc b7bf
00000760: f3df 040f 9f16 c53f 50ce 6794 0628 9ebf
00000770: 1d33 014a ae6f 7f3f 4527 b63a 9c7a c43f
00000780: 4de6 96e4 a4bf b73f 56b2 e639 b835 b83f
00000790: b690 7373 70cd a63f 8e2f 1ac1 93cf b5bf
000007a0: 0f77 3e8b 5774 c3bf 7ea9 8a56 5842 913f
000007b0: 45cf 7b19 b0ea c43f 2c84 4086 16e6 b23f
000007c0: 4f1d 9adc 7493 96bf fdb2 9582 c8fc b2bf
000007d0: 18ee 44a2 a7cc b63f 713d 4b32 fb1b b7bf
000007e0: a436 d3dd b645 c3bf cf73 50d2 c316 c3bf
000007f0: 01dc fc2f 449a 8cbf df4e b209 bea9 c9bf
0.15200966743994335 0.08412281695050064 0.023465840586294116 -0.224068140616165 0.0651979207872632 -0.021171553372070624 0.11906097586172557 0.058862764475672555
-0.09373350024269214 -0.2126751643471344 -0.22959252558262813 0.05833927111451773 0.12272139299091712 0.15003020149475263 -0.13163220121205196 0.0947484439980933
-0.21436704609685597 0.031975224497389265 0.10532553925651067 -0.19264285282104454 0.13823617388164905 0.041185689921819896 0.12320237855869193 -0.1014678642463363
0.03477064126473537 0.13662056584435422 -0.02185066892508215 0.048552422473262406 -0.11733918462859182 0.032747965531611405 0.06331490171740174 -0.1472392815421046
-0.11533757154953761 0.06143662701035946 -0.1685970580621576 0.05727161581220986 0.1154761790075986 0.021978463545273566 0.031859264669669395 0.07832328994761482
0.11667367150268601 -0.01739879449009961 0.044516165813843406 -0.14945209747101731 0.0015357089608687017 -0.16797089071152324 -0.07002324754743501 0.15069238875303853
0.13481488213496232 0.007461783852466192 -0.08261918897467083 -0.17894910880223447 -0.09805728226765764 -0.08942835983417237 -0.08944395808735012 -0.08536572206689994
-0.06748080682580371 -0.09230956188491983 0.1868786571456654 -0.1930649904771926 0.013810803965666259 -0.09008506974033302 0.020185502196560824 0.02104204282874648
-0.11456534598229257 0.0847816329020714 -0.1478292997552929 0.18151846460757623 0.021838484483370835 -0.0035341077614159996 -0.16942846370808923 0.17407109980240046
0.07179059954654485 -0.024264048268074316 -0.1387973955281771 -0.2106489534068047 -0.06761369788944149 -0.07362300016313068 0.07662843334350392 -0.1615004243817235
-0.20218960990361978 0.02157746768838448 0.10637904398330275 0.12575204007532714 0.1808396287566351 -0.10344556133570705 -0.06152763306011928 -0.10814240189582772
-0.017949332642022132 -0.040809754423271255 -0.04828123055892896 0.012709596167073473 0.16748300744415037 0.05986710466579238 -0.19411442197668427 0.11736157110726886
-0.12958368274502302 0.14656577047274294 0.17728269849656333 0.0025444832736800185 -0.10850101041161928 -0.16555389893548633 -0.05157080603030529 -0.15482585501841256
0.16712815673896073 0.042825044746948336 0.004137877085124053 0.02265192750938015 -0.17258716405494265 -0.05155563418789153 0.20838195335507353 0.16733897277978205
-0.025012596454798686 -0.06550371032969848 -0.05177793576259141 -0.06919729739664858 -0.14103131917475636 0.042235346785271285 -0.17561107025747374 0.022772956284897065
-0.0038600193283821246 0.013061903599034305 0.15258909901056614 -0.141508769231164 -0.08177831587164813 -0.07556421474249331 -0.11136319074140341 -0.12707022362847714
-0.1606716336077521 0.028014858781213958 -0.07877811781077321 -0.13741923727197677 0.1557653776866896 -0.11820225841354579 0.1695412348907146 0.013618026232819758
0.07607249177179677 -0.14604238022486477 0.19201375316228986 -0.026077728332334914 0.0005956424569940973 -0.18347981170406702 0.0623408105679171 0.03219220168977416
-0.17275178156777415 0.017951434998860066 0.10872197586190942 0.12185201607365012 0.17146037078551835 0.03749589635136374 -0.09466365578923426 -0.07202539768108862
-0.048800400524261614 0.0161386181475352 -0.1717797912348411 -0.19506507497769282 0.1590729151005855 0.07126103647432908 0.016650387410052866 0.09931193819092461
-0.1918607744116659 0.12404003871177927 -0.16653756788332416 -0.11200772328092615 -0.07685425455394378 0.10832097335218538 0.14952083636849742 0.00044192295199463246
-0.04849359455583708 -0.030865653887976886 0.1471689712572724 0.10822930315622449 -0.14276735566948967 -0.03893803067560399 0.10754399854089727 0.12382330623189557
-0.1332691406948331 -0.2094771218170229 -0.07317817078517631 0.14719707721360217 -0.08204208209122256 0.16508664242547502 0.024858600807897487 0.09502182754501913
0.12904236548502765 -0.06888582461542374 0.12700462449504643 -0.13975831626430868 -0.04479260258068923 -0.10461398719451331 -0.20664241489614046 0.06322546207565248
-0.0962674881346089 -0.13281055390849633 0.09894245400676425 -0.08398361874045059 -0.0004463095237097382 -0.06615960394567845 0.08046584946211906 -0.12073260967903723
0.15945436494103266 0.014261825284586714 0.10312841940448991 -0.19317916014724174 -0.1949776066884267 0.027019011632013652 0.014670084166340693 -0.11718683856997339
-0.008973053659290783 0.08956124875221284 -0.07369680735816735 0.15061306214024214 -0.06929737131838072 0.1670090981152018 -0.1254449213074381 -0.08448679327737092
-0.05226911905921078 -0.11452030184282676 -0.07946695773291523 -0.11655506944195945 -0.16064555917469905 -0.18104983251181386 0.01803354641411446 0.11685629117039459
0.1040418731179918 -0.15678561788982703 -0.20335969562816253 -0.09899779699404411 0.11911802340479886 0.0422905573768402 -0.07532621358146148 -0.007149819681471745
0.04180072296295553 0.17535598441960173 -0.20059625218068275 -0.09370254507996988 0.1647528479895751 -0.02944956093592871 0.007674866501542946 0.15999176852010968
0.09276800709530982 0.09456969655611522 0.044536127179328686 -0.08519862617884952 -0.15198797511123316 0.016854648859103254 0.16341210598295156 0.07382336404454354
-0.02204687687347234 -0.07416966617683936 0.08906028472568328 -0.09027070978048869 -0.15056501227666275 -0.14913223046542476 -0.013966114725560532 -0.20049262498343176

linear_map_in.mlp.0.bias f8 [42]
00000000: 6ea4 9aa6 cb8e c7bf 7465 061a ee84 c83f
00000010: 0509 2ca0 1059 c03f abd9 f4c4 751d c2bf
00000020: 0745 6f4b 5f22 c9bf 859e ca56 97f4 c3bf
00000030: dae5 2d78 1b5a 933f 4f7b 3633 9a2a bf3f
00000040: d860 10a4 1fe2 ca3f 2a94 eac3 66b4 c63f
00000050: 618e 84ca 6815 b9bf 0c00 55d6 9656 b4bf
00000060: cd41 6a9d a665 c3bf 05a0 63db fa91 bfbf
00000070: 31cd 3a96 9935 9b3f 14ee d86c 1c0a b2bf
00000080: 9b14 c3bf 581f b0bf 78f2 e892 53bf c73f
00000090: 328f 2068 d512 babf 4c5b d549 5fc2 bc3f
000000a0: 1ad6 0c57 b1c7 c2bf ee4c 12f4 1c9d bfbf
000000b0: cb56 2323 3dd0 c03f e844 ad07 d1f3 b13f
000000c0: 7d7b 861f 65f5 b3bf b07d 8c8e eaaa c3bf
000000d0: 8a95 96a3 8b0d 943f 0a1d 8521 41bc 2bbf
000000e0: 8fed 42cf 1f22 a83f 5e2b e700 23ad bdbf
000000f0: 8015 0f61 324a 853f 2f32 9e13 ee16 b2bf
00000100: 0529 4f8d c939 c3bf cf73 0698 9742 c13f
00000110: 3964 e103 2f60 c73f 1c22 b7be a90e b2bf
00000120: acb1 0cb6 6b9a 96bf 2487 4562 8dbb b9bf
00000130: b35b 9559 c24d a8bf fcb0 1d38 772d bf3f
00000140: 1eb7 7edb 4148 c3bf 41fa 7d65 fb66 c63f
-0.1840452731605952 0.19155670424224136 0.1277180463876634 -0.1415240489674948 -0.19636145766575216 -0.15590183008065508 0.018898419580613758 0.12174381017983403
0.21002574454246914 0.1773804146406815 -0.09798293060571829 -0.07944624645915627 -0.15153963743479296 -0.12332122665577579 0.02657165507725984 -0.0704667821636849
-0.06297831231775534 0.18552632020318405 -0.10184987823646166 0.11234088471006237 -0.14671913862700664 -0.12349110564018748 0.13135494437908898 0.07012659490034745
-0.07796318072949578 -0.15365344963445926 0.019582921847946667 -0.000211604071191675 0.04713534741446345 -0.11592310688062699 0.010395425402644376 -0.07066238383249222
-0.15020102882255784 0.13484473155122464 0.1826227921435775 -0.07053624063622305 -0.022073443399834566 -0.10051807069023916 -0.04746825545833335 0.12178750152606094
-0.1506426164391365 0.1750177617613691

linear_map_in.mlp.1.weight f8 [1]
00000000: fc28 edba 81e3 da3f
0.4201359105542364

linear_map_in.mlp.3.weight f8 [42, 42]
00000000: 43b2 b116 10d1 b3bf 344d a553 b4c4 b5bf
00000010: 76eb ce13 925c af3f b782 5e64 fcfe a1bf
00000020: 868e c1f5 229c c03f 452e 1219 68bb 9a3f
00000030: e594 50b1 ed2c 95bf 7a4d 4074 775c c0bf
00000040: b0ab b808 562d c4bf e98c d1d6 062a b13f
00000050: b246 104c 0a97 b8bf d69b 3836 934a a1bf
00000060: 7fe7 0a5e dbc2 b73f 2225 3c19 c079 8d3f
00000070: 2b6e 3413 c9f9 a3bf ee0a 349d ae72 b93f
00000080: 1493 33bd bace a6bf 91b5 6505 05f9 c03f
00000090: 978b 3be4 4f6f c03f 3969 5e74 9ecc b63f
000000a0: a985 20d2 91d9 bebf cf96 1966 cccd b63f
000000b0: 9a66 9d56 6143 a73f c094 50ec 88c0 923f
000000c0: 8b3e 81b0 7b86 bebf 136b 9b35 288e a23f
000000d0: 13aa 91cd 8f72 aabf 557c 4999 9282 c23f
000000e0: f34e aa39 1f9e b3bf ff96 8e9a b058 c23f
000000f0: 67b1 e3a8 77c5 943f 9ece f5d6 cddc b2bf
00000100: fb8f 1223 d8d6 bdbf 007c 39e5 73b1 b43f
00000110: 52eb d2b7 944d 90bf 5853 7f6a 10f3 9b3f
00000120: b263 6459 60c0 b83f 56dc b7b3 2bf8 7b3f
00000130: 0635 30ea 1cd0 bc3f 64bf 7670 5545 84bf
00000140: 92c1 e670 3121 b4bf a973 19b4 d0e2 b7bf
00000150: 3e2c 1636 e658 a9bf 1b03 e4e5 0004 c23f
00000160: 72d8 53c1 3f0e 8dbf 7d9b 03ed b440 a73f
00000170: dc76 407f ab09 c43f b07b 2298 33e6 b73f
00000180: c67c 0672 9b3c a83f 4fca ddb4 525f bebf
00000190: 64b3 b568 5e70 943f d34c 32a8 072a c1bf
000001a0: 70ad 9eb1 a3d6 bd3f 2172 2d6f c704 a9bf
000001b0: 3fa7 25d6 e5ab bf3f 30b7 14d8 3715 b0bf
000001c0: ee0c f6d7 ccc2 b63f 56c9 c7b7 af91 c2bf
000001d0: 9f03 ad8d 915b c13f d745 e96d 5388 b3bf
000001e0: 6815 b764 cee4 c3bf 5179 0170 691d a0bf
000001f0: 3276 41eb d61a b03f 28eb ca76 e028 b13f
00000200: af9f 5b1c 8b6a a9bf b074 771c c29e a33f
00000210: 919e ac7b af40 bdbf 3cd5 2941 6f4e be3f
00000220: 10d3 292b 96b3 c3bf 3c31 e0c5 4521 c13f
00000230: e4ca cb4e 4210 7e3f 04e4 1188 9457 b0bf
00000240: 303c 7d9c dedc 63bf 8795 1e85 c370 c7bf
00000250: 42ed 9d0e 0626 c1bf f170 5734 b488 bbbf
00000260: e9cd 48f5 b261 b0bf d4cd 8edb 1788 c2bf
00000270: 0dac 072c ac47 abbf 7acf 1ef9 7200 c1bf
00000280: 685d 446b ce83 993f b92a e81c c5cc bb3f
00000290: 2cf9 1155 8e46 9a3f 3cea ab31 b6bb 99bf
000002a0: fde0 b123 c81a b2bf 5a59 aec6 3576 98bf
000002b0: b87b 41b1 4938 b9bf 620f c67e 1c18 b0bf
000002c0: a1eb 38d6 4f84 c23f 25b1 7d3b 371b bb3f
000002d0: ace7 b5c6 57ba aabf c159 3551 8e96 b5bf
000002e0: 45fd e7fa 1fad acbf e2e5 be4a c778 b43f
000002f0: 29d8 2ce2 3ec9 9c3f d24e 4dc2 9f69 b93f
00000300: cc26 7666 041d bf3f dfef 1248 545e c13f
00000310: f58e c4fa 00dc 48bf 3bc3 8330 485c ba3f
00000320: bfa3 adfb 958e b53f b75b 847a 3d6c c2bf
00000330: 8222 03a1 a21a bc3f 19d7 f80f 3699 51bf
00000340: c1c0 2771 2b1a 903f 1cbf e0bc acd5 a2bf
00000350: 81e0 cf11 c336 b6bf 45a7 0119 f7f5 c13f
00000360: b276 13e0 a839 b2bf 1653 65ac be3e af3f
00000370: 204c 08b1 abd6 97bf f1fc 8c64 ee7a c0bf
00000380: 7073 ce08 fc21 b03f 5d48 cc74 f949 bd3f
00000390: b460 b2ad 0061 853f e9dd 4bbc 7582 74bf
000003a0: 7c50 6251 6412 bb3f fba9 9280 15d0 b0bf
000003b0: 0bb1 0d6e f90a 9ebf a6cf 3ff3 c0c2 89bf
000003c0: 2ae8 f40d 965e a43f 2531 6a41 08e4 b43f
000003d0: c6f2 15a2 652a bf3f 4ae0 41d1 86b5 94bf
000003e0: 37b8 8541 13b3 b4bf 408d f105 472f ba3f
000003f0: adb6 70ca e31c 983f 9c67 16ee 079d ae3f
00000400: 315e 92b4 6571 a43f ddbe ec1a 9a06 aebf
00000410: 7451 9da8 14b7 a6bf 67f8 bef5 37c0 a8bf
00000420: 0577 c91a e67a a93f e057 bace e49b a73f
00000430: d25b fb13 69e4 aa3f 116e a6a8 0c8d adbf
00000440: 0b24 8c56 154e 9cbf f3b1 f239 5aa0 c6bf
00000450: 37a8 366b 52bc 78bf c0b9 77ac 669a bfbf
00000460: fead c169 3d67 8e3f f596 5c34 fa7a b43f
00000470: baac abe9 a211 b13f a03a 5471 f964 a3bf
00000480: a579 01c0 3114 bb3f 2053 f9dc 7bf0 acbf
00000490: f5af 80c8 8d1d a83f 2e52 ae6e 0d62 b03f
000004a0: 1048 fcf4 5509 a6bf a545 9ecf bee0 873f
000004b0: 89e7 01c0 51aa a53f 645a 0775 e78e 763f
000004c0: 49b2 99ac 42de 8ebf cf4e 1065 f32b b0bf
000004d0: 630a f9f5 5d8d 72bf 032e 2020 db4c c2bf
000004e0: 5dcc 9c5f c67b 903f 93b5 d292 ae2f 7a3f
000004f0: 9823 870f 5b47 963f 625c d86c 2b38 babf
00000500: 4e14 b0e1 10a3 b6bf 51e3 a0ab 0a42 a9bf
00000510: 98ed ba51 2d7f c2bf 327b 2f4a 8e9c c3bf
00000520: 47fb df29 ffc6 babf 30ab 0102 80ab ab3f
00000530: 9217 ce88 7590 c3bf 3fd9 69df a6d9 c93f
00000540: 4a7c 74bf 39d9 b63f d9d1 22bc 64d8 b9bf
00000550: 6b00 a841 8dec b23f 67a2 1e44 afdf b8bf
00000560: 2056 4d66 e2a3 c4bf 6462 3929 70f8 ad3f
00000570: 3d91 e912 855c c03f aa2d 7bc1 aab9 b1bf
00000580: a65c 4c01 56f4 c23f aab0 ae2a 242a bcbf
00000590: 2d77 442a db44 c1bf 46d6 e30a fc25 73bf
000005a0: 3740 b99a e903 923f 9bd4 7006 8753 97bf
000005b0: aff3 c391 35b6 80bf aba5 029a 3323 a43f
000005c0: 1019 b1dc 3ee5 b6bf 1af3 fda4 7cd0 c43f
000005d0: a820 b140 9238 b5bf fd8f b707 9a5f 90bf
000005e0: 037d eb7e 69f2 a33f 28e3 5ee1 21a5 45bf
000005f0: 2090 3991 0998 adbf 5bf9 49c6 4496 a3bf
00000600: 3dbf 5946 b65b b43f c8b9 d28c c340 74bf
00000610: d0d7 ab84 a629 c13f 56a6 abb1 ea27 b93f
00000620: 229c 52d9 0a08 bf3f 5528 4391 0e8c b83f
00000630: fe2d 8e62 5345 c13f b1d9 198d 12f9 b1bf
00000640: c4ed 8202 4cdf b53f 0033 ce16 0039 afbf
00000650: 5dd5 f18d f424 a6bf e24c ce0d f538 c3bf
00000660: 2ea3 6e9f e4ad aabf 96e5 d413 71b4 b5bf
00000670: 69b2 b7bf c83c 973f 525a 442b bcb3 a83f
00000680: 4ae6 be86 fe52 b03f d1ab 5c57 e0e4 8ebf
00000690: 71bb 9482 60e7 c3bf 7b99 c2f1 8797 c63f
000006a0: 75d0 12bb 006f bb3f 83a3 57bb db8c b6bf
000006b0: a6d6 04b2 381c b0bf 6d52 807f 4493 bcbf
000006c0: 0c5b b34e 1a49 b53f 0195 4695 586c c03f
000006d0: b172 fea3 d7fc b03f 6af8 1018 075e c03f
000006e0: 7658 d2c8 649c b43f 8f79 3f5b 3e9a c1bf
000006f0: c4a4 00fd c340 b03f eaf8 a385 bfce c1bf
00000700: d46b d29e 0cc0 abbf 1190 ef5c 70b1 c0bf
00000710: 65ff 9eb1 4adb b1bf d39b 63f3 1ec0 a13f
00000720: 53a8 54a8 3e25 b13f dc39 a125 f6a0 953f
00000730: 92f6 e38e 4182 b93f a01c 2c25 3220 bc3f
00000740: 5bca 455b 8a95 a8bf a96c 080c 82e6 bbbf
00000750: ef86 d9af a1e9 c5bf b279 03b4 19b0 c7bf
00000760: 8faf 8731 deb2 a73f 0bfd c35b cdbe c1bf
00000770: fb2b cefc 299d b73f 4597 b160 871b c6bf
00000780: c8c4 8a74 4b29 b9bf 259e dbca 310f c5bf
00000790: 4ee8 44aa 0323 a03f 4812 74ad ebb7 ba3f
000007a0: 8008 dc7c 9419 bbbf 80f0 053b a106 9abf
000007b0: ba96 505d 4457 a5bf a621 58a6 20cd b33f
000007c0: 179e 2b43 f2b9 a8bf 8dac 1fa8 a654 b2bf
000007d0: 1450 4054 e7f9 bcbf 17e9 b9df 7a9f b33f
000007e0: c17b 5726 58ca c6bf daf0 0de9 92f4 86bf
000007f0: 3ecb c91a 0167 9d3f 8a84 27a4 320d b3bf
-0.07740879587226694 -0.0850327209675939 0.061253132741930935 -0.03514851308068983 0.12976490974243776 0.02610552456876138 -0.020679201075968563 -0.1278218572266317
-0.15763354707573063 0.0670475267848364 -0.09605469090481725 -0.03377208744887354 0.0928170303913287 0.014392376680478384 -0.03901508674081485 0.09940615976305953
-0.044545970531350815 0.13259947551288723 0.12839697498483524 0.0890597375968455 -0.12050734882406879 0.08907773487734548 0.045435945342160625 0.01831258718825235
-0.11923955020142267 0.036240822357021106 -0.05165528664004539 0.14460976109237103 -0.07663149984210431 0.14333159968116857 0.020284528430168616 -0.07368170259524695
-0.11655951362860144 0.0808327135687108 -0.01592094776126924 0.027294403553088514 0.09668543035912938 0.00682847090819568 0.11255055158126845 -0.009897868628143854
-0.07863148695356006 -0.09330467602690241 -0.04950637254940958 0.14074717736368644 -0.014187334144008388 0.0454155482601015 0.15654510224788154 0.09335634674287863
0.04733739630614191 -0.11864201465304201 0.019959902897812923 -0.13409515106886846 0.11655638777181365 -0.04886458618304724 0.12371670225334429 -0.06282376313603488
0.0889099147080292 -0.14507099603322143 0.13560695092931227 -0.0762989180887169 -0.15542011182530335 -0.03147439472444325 0.06290953868434526 0.06702998066149901
-0.049640986644419065 0.03832060430043194 -0.11426827210800129 0.11838431683448375 -0.15391804797732123 0.13382789766218106 0.007339724554855851 -0.06383636781710328
-0.0024246547581366004 -0.18312877655004575 -0.13397289003101248 -0.10755468633528033 -0.06399076927555537 -0.14477823467824058 -0.05328119313693245 -0.13282620586471322
0.024916863724766897 0.10859329181418333 0.025659774725221116 -0.02513012579127348 -0.07072115775543249 -0.023888435603646264 -0.09851513459714922 -0.06286790938434941
0.14466283760142765 0.1058840294114743 -0.052202933317814754 -0.08432855112673733 -0.05600833833522726 0.07996793341489863 0.02811144118751244 0.09926794522953777
0.12153651715757546 0.13569119948613115 -0.0007586483748451544 0.10297061142388213 0.08420693773736242 -0.14392822725559792 0.10978142195666332 -0.0010741260483774827
0.015724829465342042 -0.03678645902289032 -0.08677310166229014 0.14031876297968374 -0.07119231672865103 0.06102557997170359 -0.02327984111805048 -0.1287515631647476
0.06301856245995707 0.11441001035226024 0.010438924122624683 -0.005007228760170326 0.1057493876163011 -0.06567510975825279 -0.029338738767749322 -0.01257849447572552
0.0397841350590656 0.08160449597398108 0.12174067694827348 -0.02022371914105773 -0.08085747098604733 0.10228389639955981 0.02354770587060411 0.05979180127469805
0.03992765263791077 -0.05864411905929299 -0.044365544874980595 -0.04834151148632842 0.049765768785375676 0.046111250148143546 0.05252388352317151 -0.05771674689023255
-0.027641614348826987 -0.1767685683202128 -0.006038972805450674 -0.12344972334515258 0.014845351972517126 0.08000148561822214 0.06667535977219333 -0.03787974842463382
0.10577689111366924 -0.05652224609790424 0.047100477910447504 0.06399616195842192 -0.04303997626824707 0.011659136496549769 0.04231505841103373 0.005507377747980689
-0.015072365658135871 -0.06317063538909483 -0.004529349359986587 -0.1429704577316074 0.016097163758967848 0.006393129279940085 0.02175657541536999 -0.10241958052971392
-0.08842568883854193 -0.04933198304246978 -0.1445061348984893 -0.15321520445191933 -0.10459894916855915 0.054042816395698856 -0.1528460424416918 0.201954707230195
0.08925209926791058 -0.1009581527058069 0.07392199376045176 -0.09716315663411877 -0.16125135417193892 0.05853605750298099 0.12782348082976994 -0.06923930381451862
0.14808154166596416 -0.11001802484560366 -0.13491382182922376 -0.00467489675633243 0.017593050068455986 -0.022779569404708693 -0.008160036574276079 0.039331066656198864
-0.08943550956709978 0.16261251503228707 -0.08289445952789498 -0.015989691468249124 0.03895883249583145 -0.0006605544501701909 -0.05780057809604977 -0.038255833821483086
0.07952441422980612 -0.004944576137104702 0.13408357122506098 0.0982653316274534 0.12121646695833069 0.09588709875529962 0.13492815315508716 -0.07020679421279998
0.08543849049868074 -0.06098175314318688 -0.043250696494321096 -0.15017569707979478 -0.05210794874375889 -0.08478457197352038 0.022692810727607347 0.048246269494644736
0.06376639165582634 -0.015084984460903702 -0.1554985654451815 0.17649936012930909 0.10716251914237936 -0.08808682750499312 -0.06293062540211256 -0.11162212479423213
0.08314670964623988 0.12830645836690027 0.06635806802519074 0.12786949801551667 0.08051137831566443 -0.13751964049783935 0.06348824431246941 -0.13912195229926932
-0.054199594867177986 -0.13041500604515524 -0.06975237690403231 0.03466889115389162 0.06697455987583227 0.02112183193849569 0.09964380014931809 0.10986627013709205
-0.04801590313117706 -0.10898602288982552 -0.17119237028514742 -0.18506165780759215 0.046286529108186085 -0.13863532047978597 0.09224188253408265 -0.1727151128899839
-0.0982863578344847 -0.1645261993901254 0.0315171380375011 0.1043689058752274 -0.1058590702851081 -0.02541591570614843 -0.041681419745413575 0.07734874783648724
-0.048293657969960595 -0.07160417179663821 -0.11318822676577184 0.07665222131791825 -0.1780500590529908 -0.011208675133950786 0.028713242778802377 -0.074420132710218

linear_map_in.mlp.3.bias f8 [42]
00000000: a3e4 1548 bb32 b6bf f5df 6c3e 3ff1 b9bf
00000010: 46cf 696e b5ba 8c3f 99cb a130 fcd1 b03f
00000020: ca04 b36f bdf0 583f 45cc 6dfe 731a b9bf
00000030: cd46 8527 19e4 b6bf 7055 7804 bdd2 c13f
00000040: f8a2 6531 2143 a33f e7e1 0968 682d ae3f
00000050: 81b0 220d c5ca c03f 63e5 bed0 4ac0 a53f
00000060: 00c1 55bf d962 b9bf 8ed3 b628 f257 aabf
00000070: 3303 1396 bbb3 b8bf fca5 0e84 d9b1 a83f
00000080: ab02 10ec 2159 b7bf 6419 b387 b89e b7bf
00000090: b9fa 0b44 f1ec 8b3f da76 11bb c334 c4bf
000000a0: c576 def4 1d96 c3bf 38d2 c82e 14e8 a7bf
000000b0: f7b5 a2de 9964 b83f a258 0b1c a227 6a3f
000000c0: 7653 4553 4706 bdbf 642f e31a 1fb0 c23f
000000d0: 650c 201e 5b19 c13f 3179 5e04 bd8d bdbf
000000e0: 2200 bb1c 963b aa3f a526 52bd 0f96 bcbf
000000f0: f2d4 66e4 ab04 b63f 7750 ca79 e995 c23f
00000100: c490 9912 2c59 c03f f413 0b39 d666 b83f
00000110: fba1 71f9 c64e b23f 7d2c 7f1f a02d c2bf
00000120: d0c2 49c5 1d2a c33f 8677 6a96 5406 b23f
00000130: a063 c770 17b7 c13f db94 5a59 59ad bb3f
00000140: 6d67 a110 9436 993f 17b7 b34e fc65 b0bf
-0.08671160230541601 -0.10133738779120434 0.014027993614241684 0.06570411860756876 0.0015222406353106338 -0.09805989228861829 -0.08941800322397882 0.13924372404350605
0.03762153366080229 0.05894018430712205 0.13118804112798801 0.0424826984230531 -0.09916459008468692 -0.05145222422598926 -0.09649250425264881 0.04823188530947317
-0.09120380414243338 -0.09226563752154032 0.013635525597689978 -0.15786024698439044 -0.15301870781416063 -0.04669249602412545 0.09528505025328814 0.0031927267267333895
-0.11337705405214912 0.14599980175841687 0.13358630152660847 -0.11544400555292068 0.051235857970368906 -0.11166475650875414 0.08600878072941834 0.1451999516181137
0.1277213183231024 0.09531916515977895 0.07151454534471917 -0.1420173791687808 0.14972278722009102 0.07040909454596375 0.13840001112728562 0.10811384612550816
0.024622262492222036 -0.06405617639003612

linear_map_in.mlp.4.weight f8 [1]
00000000: ef45 607c f9cc e43f
0.6500213078708706

linear_map_in.mlp.6.weight f8 [42, 42]
00000000: 0669 8c63 bd08 adbf d6ea 0a5d 94c5 c3bf
00000010: 4f19 2633 77b9 b63f 262b 8b58 03a5 973f
00000020: dd6b 3b73 4354 b43f 18ef b70f 0840 b8bf
00000030: 9518 47e4 9b24 b93f 23bc c9fb 44c0 9d3f
00000040: 66ba 1d8f f604 c1bf 15e3 1a09 16ed b0bf
00000050: 19b1 a8fb fc0e 833f 223e f131 7e5c bebf
00000060: d42b 6d93 86e8 b6bf 3368 1f6d d781 b43f
00000070: 769d b4e1 b6e3 b43f 0cc0 5615 d207 be3f
00000080: 4c81 d9f6 c3b2 a83f 9134 6fb9 670f ae3f
00000090: 3b5d 5e8c bbc3 b6bf 831f 8cd3 ca01 babf
000000a0: cc0a c8ad 072a 8c3f a2d9 9b0b be1b c53f
000000b0: b4a7 beea 957a abbf 689b d476 30e6 b0bf
000000c0: a8c2 a64c dbd2 b23f e69d 7da6 eb1d a93f
000000d0: c11b 8f78 6499 bc3f d03d d81b a523 b9bf
000000e0: 7bfe ef26 b4ce b03f 8c2c f9cb 8998 87bf
000000f0: b8d9 1142 08b4 a5bf 3012 f962 6b13 b7bf
00000100: bdb5 e244 4dfb ab3f d709 2a8b a0ae a43f
00000110: 8e77 42bb 39c2 553f 9352 7d36 f7fc a93f
00000120: d977 26e7 99d1 a7bf 75ad ebf7 0181 b6bf
00000130: dc44 8366 5511 bfbf 34bd e8f3 d9dd bc3f
00000140: 3686 5f44 d6ab a2bf ef0f 048e 7641 c03f
00000150: e64c 847e 3c2f c1bf 7f69 d1f5 55e3 bdbf
00000160: d44c a9d4 7999 bd3f cf18 cdb8 9820 b0bf
00000170: 7108 0af5 d98e a2bf 612a 198a a378 9f3f
00000180: ccf0 f90d 8c54 bcbf 1718 47ab e575 a93f
00000190: 9689 808f c598 c0bf eb23 bf66 6562 a53f
000001a0: 3227 b770 96ab a13f 4c59 7ca4 489a c0bf
000001b0: 6c9e 6e9e 7a98 bbbf 212a defa a455 9f3f
000001c0: f9a6 e577 e6c8 c4bf 6f9c d561 ef0b b1bf
000001d0: 1757 376a 0703 adbf 1b10 2d7e a9ac a73f
000001e0: 5579 083f 5712 38bf 805f 1b8c 5abf b8bf
000001f0: 5558 af41 8db6 c2bf a3ba f7ca 992b bc3f
00000200: 2155 5b0b 34cf bbbf 2234 cf9e 4407 afbf
00000210: e3f6 3fa3 baf5 c23f 83b4 e040 b801 b5bf
00000220: 0d79 b88a 9720 b63f c005 68c9 ecd1 c03f
00000230: cdaa 48ca e160 b8bf 0807 2df1 784a c13f
00000240: 0369 7e3d 7d36 c2bf bba6 16e2 9e84 aa3f
00000250: 5950 da3e f4a7 b1bf 5b31 da3f 4add c03f
00000260: 1d89 dfee 13b1 4ebf bbb8 fa73 167c afbf
00000270: 6320 8037 53f6 873f 4ee9 a099 8855 bb3f
00000280: ef5e ac03 ca84 a4bf a899 6fa9 e96e b8bf
00000290: b0ad 0a79 009f 99bf ccb1 69de 4f33 a3bf
000002a0: d28b fea2 f567 abbf fcb2 4ff4 1519 c2bf
000002b0: 2645 11c8 6d42 bb3f 6893 727c e801 bc3f
000002c0: 7e29 5d14 a720 b6bf aa73 a891 5e37 b83f
000002d0: 4b96 06ca c111 b23f 1d83 c479 39df c33f
000002e0: 15a3 0429 9f01 80bf a282 7c20 9b8c a43f
000002f0: 6347 469d 276e babf 9dc6 583f 31f7 713f
00000300: 6e02 fcd6 e065 bcbf d73e 2c7a b907 c13f
00000310: 0611 63fe 8bdc b23f 010b 98f0 4815 7a3f
00000320: 4334 b1b7 b954 c4bf 92f0 6156 8023 bf3f
00000330: 3640 fadc 0981 b73f f9ab 0c57 74e1 c3bf
00000340: bd99 ccc8 d4d4 a3bf 884c 16e0 9654 973f
00000350: 5758 c8f2 2622 b7bf ea1a 40a4 12ad b2bf
00000360: 7d84 144b 4a8d c3bf a6d8 6326 c109 a73f
00000370: 79be ab4c eb51 9a3f 6785 b721 5514 b53f
00000380: 7a37 5ce8 ab33 c1bf 1727 66e0 07dc 6cbf
00000390: d667 660a 3a45 b6bf 1ab0 0aae 9c18 693f
000003a0: 848d 4828 eb1f aebf 0b2e 520e 031d 613f
000003b0: d8b0 f025 00dd be3f a58c d0fd 4d86 a53f
000003c0: 8300 1d6f c927 ab3f ea12 d050 9769 aa3f
000003d0: fdd6 6614 fd94 aabf d4c9 cdf9 55e1 afbf
000003e0: 7b27 9ee5 3eee b9bf 9677 7c45 79a1 bdbf
000003f0: 565d 8dd5 001e c03f b49e 7e1a abab b7bf
00000400: 39e0 4ade 4252 b53f 6e74 39cf 201d c33f
00000410: 56e1 c142 0f8c c4bf 9f70 b8b2 0ff4 bb3f
00000420: c547 5445 6f17 b83f 9a1a 1f0b d352 b43f
00000430: 1106 32f3 3961 c13f b6eb 7820 40d6 a2bf
00000440: 627e 92ae e1b0 b63f fc67 1ddf 2fd1 b8bf
00000450: 8fb7 466e 2651 b4bf 84f7 2e94 f576 bbbf
00000460: d7f6 b220 af89 b1bf 8b06 8e7a 43c9 b73f
00000470: da07 4596 dcf7 b2bf 99fe 5c5a 926b ab3f
00000480: 1f08 c68c 1a00 b63f 7911 1f96 b746 bc3f
00000490: a060 f05a de69 ba3f 59a5 3df6 8011 a23f
000004a0: 0259 ac47 29b5 b2bf 0157 4151 10ed b93f
000004b0: a2d6 547e 9271 b8bf 1152 4312 f008 b43f
000004c0: db0d a988 bd6f 9e3f daef 25d9 7acb c23f
000004d0: 929e 3bab 96df b13f 48db c282 f059 a43f
000004e0: b7b1 8606 e240 963f 0e16 48f9 cf58 b63f
000004f0: c24c 0416 3e14 7b3f 2c8d 11f8 c244 b0bf
00000500: 0048 82d0 19ae b7bf a4ec 43b0 458a b8bf
00000510: 7908 aab0 7502 bc3f 68a2 b45e c0c6 81bf
00000520: fc43 08ae 509f b6bf 60a3 7494 529f a53f
00000530: f4b5 a75e 685f bbbf 4a87 79be 2aba c0bf
00000540: b0e7 0f76 be0d c2bf a27a d03d 3c86 b2bf
00000550: 0d53 d593 b27c bbbf ccd7 9f41 29c8 8d3f
00000560: 12c5 f663 de92 a2bf 463a 7c2b ec9d bdbf
00000570: a0fb cb3e f4af babf 4b56 7091 033f c2bf
00000580: 001c 6028 2439 bd3f b6c3 f111 d120 a7bf
00000590: 02bd f9bf b1a0 acbf 5701 7ef2 ee39 9c3f
000005a0: 9848 630f 15bf bd3f 1618 b7a4 7e0e bdbf
000005b0: 225c 3b92 b6eb ac3f 70d0 78aa 0cc5 b43f
000005c0: f199 b9eb fc01 c33f e9d3 cd82 e95d ba3f
000005d0: 3fe1 c01b 20f7 53bf 25d8 bd12 0857 b3bf
000005e0: 3789 4bfc 8ec8 b03f 1711 cf81 7cc2 b23f
000005f0: 51f6 5742 08c6 a0bf 6d0c f06e 681e ba3f
00000600: 4d2c 65d4 c635 c03f 71bc e9da 6205 bdbf
00000610: 5715 6392 778a babf 4af4 9a67 63db bc3f
00000620: 916b b0d2 c4d5 bd3f 694c 04bc ce7e c13f
00000630: af24 54fd 4a1f af3f e294 a94f b0b7 a03f
00000640: beea f15f 3ed6 b4bf 6eae 6e4e 750f b8bf
00000650: 7e49 bc67 5234 813f 03a9 7795 2acd c0bf
00000660: 63e9 2d3b aa33 c03f b3e3 b78f 3170 a23f
00000670: 0c77 3c6f 9660 b63f 342c 10a3 242f b43f
00000680: 6ad6 4dc8 78e0 a5bf ba02 e0d5 253e b4bf
00000690: 46d8 22ab e6b0 b2bf 57c7 6dcb 1843 a73f
000006a0: 2c37 ad73 0323 c4bf 670a 3110 ef0f c23f
000006b0: 8048 009e 9267 b43f f322 3bd7 f707 bb3f
000006c0: 32c9 76e4 c728 bb3f be25 b912 76e6 9f3f
000006d0: 9727 d62e 22a6 bfbf 390f c73b 3096 a23f
000006e0: cd48 1c3f 53ff c03f 6c04 586c 0a20 b93f
000006f0: f0f8 5239 eb00 b7bf c162 5b74 1bdc be3f
00000700: 47f9 ecea 5eb7 b93f e86e 40be 352a 753f
00000710: fdac 59cf 905f c0bf 8c26 e3c4 9417 c2bf
00000720: 58ed 19eb b147 9f3f 36be 3376 ba48 ba3f
00000730: 11a1 9070 0203 913f 59c7 919f d3ca aa3f
00000740: 0f9f 3ac8 5870 bdbf abfd b62f 841a be3f
00000750: 6ae2 99ce 1e8b b6bf 228c dcac 405e c33f
00000760: 0ec6 ec80 6d13 7f3f daa5 4676 af96 b5bf
00000770: 8796 1fa3 8c99 bf3f 10af e13b e135 873f
00000780: 825c 9ef0 6038 c3bf aa40 1d28 e3f0 78bf
00000790: a258 2195 9af6 b53f 1323 6e49 5e3c c13f
000007a0: 7d71 2c85 dbf7 a2bf 8790 5bc1 4bc5 b43f
000007b0: bbcd 2be5 fbdb 95bf b339 dab4 9e54 bb3f
000007c0: 6a11 74e8 ce35 84bf e8db 7e48 8fe8 be3f
000007d0: f45a b075 ae07 b53f 4cd2 a3c0 7012 bb3f
000007e0: ec5b 7ab1 1d5f 82bf 633a 82b2 db62 973f
000007f0: a0c3 5d72 76ca 9bbf 07fc b3c2 a241 c63f
-0.056707304384149324 -0.15446714919183674 0.08876748083830431 0.02309041240622913 0.07941075862201737 -0.09472704299690482 0.0982148582762384 0.02905376230995328
-0.1329639624413687 -0.06611764642992697 0.00930593150140928 -0.1185988304071022 -0.08948556041029515 0.08010622419479389 0.0815996457136999 0.11730683346718268
0.04823887241650712 0.05871128214457955 -0.08892414261787433 -0.10158984818201415 0.013752040854347135 0.16490912978015354 -0.05366962900673347 -0.06601241017470516
0.0735299169671274 0.049056400369234684 0.11171558326087362 -0.09820014886667328 0.06565404844877236 -0.011521412408134667 -0.04238916212573279 -0.09014006773311034
0.05465165582550522 0.04039479922086613 0.0013280452522290462 0.05075809993892224 -0.0465210051217892 -0.08790600111722376 -0.1213582396769825 0.11276018338025012
-0.036467262121516006 0.12699777540558396 -0.13425403764322325 -0.1167501187459603 0.11562310640265433 -0.06299738418337884 -0.036246119653711946 0.030733638099528785
-0.11066508618563659 0.04972760883133292 -0.12966222292841384 0.04176632765990703 0.03451223493500634 -0.12970836669473795 -0.10779539459201154 0.03060014516044352
-0.16238098959302485 -0.06658836496863939 -0.056663734165040384 0.04623918214068131 -0.00036730413470022666 -0.09666982575015304 -0.14619603831551112 0.11004029469743641
-0.10863042142166936 -0.06060232580748727 0.14812405558762184 -0.08205749114923049 0.08643481384976699 0.1314064010075935 -0.0952283018929549 0.13508521820227082
-0.1422878790152212 0.0517930651652256 -0.0689690259408179 0.13175323598660324 -0.0009366366700727411 -0.061493589074744524 0.011700296527138393 0.10677388907143845
-0.04007560057487846 -0.09544239412898625 -0.025020606410789348 -0.037500854396828126 -0.05352752318074007 -0.1413905566145316 0.10648237356624132 0.10940411604185629
-0.08643573996702078 0.09459487014869575 0.07058345014828508 0.1552497715538487 -0.007815593184731942 0.04013523837625611 -0.10324332799635054 0.00438613164219395
-0.11092953919070123 0.13304823365660098 0.07367777786845772 0.006367955132648318 -0.15883561581941494 0.12163545712422977 0.09181272168120888 -0.1553178238912947
-0.03873314810907711 0.022783620288077816 -0.09036487033185502 -0.0729533816339473 -0.15274933496496948 0.04499629586818914 0.02570312171422848 0.08234150002637862
-0.13438938947404805 -0.003522887596038592 -0.08699381593615327 0.003063493743260548 -0.05883726946583592 0.002089029282222437 0.12055970121645332 0.04204028819392506
0.05303792458880798 0.051586845984308585 -0.05191794275326165 -0.062266051047931065 -0.1012915907469089 -0.11574514337959693 0.1259156267867449 -0.09246320149270099
0.08328645636618227 0.14932642095928678 -0.1605242801631543 0.10919283021252334 0.09410758440597451 0.07938879987259853 0.13577961325431478 -0.036790851558599
0.08863649856584169 -0.09694194028034525 -0.07936325256625153 -0.10728392474899634 -0.0685071425277458 0.09291478864727247 -0.07409456890766766 0.05355508187358033
0.08593908249716307 0.11045405783722186 0.10317792625608257 0.03528979307049935 -0.0730768012984733 0.1012735556008373 -0.09548297485602089 0.07826137967942538
0.029723130670630354 0.1468347130102064 0.06981794052591742 0.03974868389325664 0.02173188366730169 0.08729266963936075 0.006611101649713182 -0.063549218715299
-0.09250031796025837 -0.09585986665108465 0.1094125324544012 -0.008679869547067301 -0.08836845635256901 0.042231159803413076 -0.10692455588260669 -0.13068136501811473
-0.14104443325760263 -0.07236076840534136 -0.10737148389064206 0.014541933360287994 -0.036276769354467345 -0.11569095670368154 -0.10424734624028398 -0.14254803277497027
0.11415315614441113 -0.04517224639938126 -0.05591350048495693 0.027564748335408975 0.11619693399123532 -0.11350242158286536 0.05648584876114905 0.08113173639213911
0.14849816808710117 0.10299548572022811 -0.0012185872610768892 -0.07554674584920969 0.0655602804140799 0.0732801262775563 -0.03276086625917841 0.10202648838462532
0.12664113398418167 -0.11336343617016255 -0.10367533992674303 0.11272259978700663 0.11654310363557686 0.13668235950953836 0.0607856210936658 0.03265143368188618
-0.08139409868628442 -0.09398587384083054 0.008400577345615497 -0.13126117990697858 0.12657668962112742 0.03601221923231126 0.08741131034591038 0.07884434681925329
-0.04272820897214731 -0.07907330009039529 -0.07301179578902958 0.045433783371562945 -0.15731852672836888 0.14111126223186263 0.07970539433907398 0.10559033398306976
0.10609101608023222 0.031152577297950172 -0.12362874644727949 0.03630209665018786 0.1327919061810178 0.09814515252220851 -0.08985777043833187 0.12054607001062846
0.10045426593294336 0.005167207655201379 -0.127916432614576 -0.14134463895452531 0.030546932196086146 0.10267224679750417 0.01661304294626215 0.05232869456166495
-0.11499552620318475 0.11759210743820485 -0.08806030792210043 0.15131386223319604 0.007586887119758424 -0.0843305267104805 0.12343672735695509 0.01133323635095665
-0.15015804051356346 -0.0060891030605746774 0.08579412594676453 0.1346547945543298 -0.03704725266126994 0.08113549681326236 -0.021346984732145673 0.1067599479231152
-0.009868256062426101 0.12073607940588682 0.08214846013320792 0.10575012877581819 -0.008970481852243105 0.02283805157690678 -0.02713952134166997 0.17387804514871183

linear_map_in.mlp.6.bias f8 [42]
00000000: 3804 cf0e a0da 96bf 4e5e 1e4d f083 10bf
00000010: f2f7 100f 66b4 a73f 79a5 93f1 9659 b7bf
00000020: f841 7e9d c6ea b03f c080 1514 3b7b bf3f
00000030: 6c52 a1cf 3c20 c0bf 2bdb 1f6e 4889 96bf
00000040: 9cef 35c7 9f82 c03f 4f71 5b56 495d 85bf
00000050: 8d57 cfc2 af5d a7bf f374 f318 850a b63f
00000060: 8f14 a6a3 c037 82bf bdd1 4d2d 8644 a03f
00000070: dd44 3394 82ba a3bf f376 cf63 881d bbbf
00000080: b318 79bb d608 a4bf 4877 c771 abae a73f
00000090: 5e19 7bd4 5038 773f cf3a 960a aac5 bd3f
000000a0: 4f7d 3cc5 9cdc c13f fed8 0cf1 e8c7 a33f
000000b0: 3a2b e686 658d c33f eb9a 263e d7ac a9bf
000000c0: 2840 163c 677f c33f 6568 4821 d213 b2bf
000000d0: 07e9 8546 7b06 a43f dce1 bbc5 8317 99bf
000000e0: adba d856 7644 a33f 5408 76d2 08a7 adbf
000000f0: 3244 1330 a3f6 9dbf 4b2c 8128 f04c c33f
00000100: c22d 7362 1471 bfbf b6cd 01b8 2af5 723f
00000110: a208 1a5f d07b b83f 682c 8d20 3e05 ba3f
00000120: 6cc6 a8b3 fa33 c03f 88d4 2e51 b174 903f
00000130: 15c7 29ce 8e38 c0bf 2823 e2c1 da8d b0bf
00000140: b665 5541 2f06 a2bf 86bc f102 510c b6bf
-0.022318364051674616 -6.300119573975882e-05 0.04629820760645477 -0.09121077916974753 0.06608239502953228 0.12297410240489892 -0.12598381174270246 -0.022008067819082527
0.1289863321979937 -0.010431836078560379 -0.045636646776684754 0.08609802111773827 -0.008895401949084806 0.03177279761340255 -0.03853233393750497 -0.10591938435342367
-0.03912993467797445 0.04625449909120377 0.0056689412519460285 0.11629736669986389 0.13954505568197326 0.03863456671244768 0.15275258147115683 -0.0501467955939939
0.1523255389588496 -0.07061494171685608 0.03911195026280905 -0.02450376409885445 0.037631700612441456 -0.057914996806190416 -0.02926115971496674 0.15078546502840803
-0.12281920817911554 0.004628340597366989 0.09563925096338946 0.10164249701226569 0.12658628246713322 0.0160701471138123 -0.12672600809633452 -0.06466452821235846
-0.03520343468216984 -0.08612543413049609

linear_map_in.mlp.7.weight f8 [1]
00000000: 9c79 be8e 7011 bd3f
0.11354735836946478
