exp/mmd_vit_exp_30_small/model/small_60m_encoder_25_34074.pth (torch, 304290 bytes, 88 tensors)

linear_map_in.mlp.0.weight f8 [24, 25]
0.02864815029213141 -0.18258991159966456 -0.10767970810738318 0.025204334314002187 -0.18462092752088305 -0.1117058986001585 0.0731214832290057 -0.012635917193476367
-0.12098219947907138 0.07969044292038233 0.12435360534204405 0.18652217477115365 -0.07510880646603961 -0.07386805596455269 -0.15830047295161484 -0.1358548609790528
-0.13806227395824303 0.023886222135217766 -0.07660421255235605 -0.0708935869154987 0.17885017559959138 -0.08037378980388238 0.1513532926451261 -0.033146018828362524
0.14842904673651527 0.26570967379145566 0.06072145129467829 -0.003254601761322319 -0.05499012962037344 -0.06960427585328008 0.11853292748971155 0.1504345502254033
-0.11116229071555263 -0.04766815620614706 0.06307646948074515 -0.047247432395853724 -0.08726166971167462 0.162592934047336 -0.13764740158320357 -0.1041338305154779
0.12192851297571686 -0.013051537148198882 0.0690887057279461 -0.04310149662478291 0.17892611436643338 0.06624867036853607 0.16637344637996607 0.04767586531325867
0.24878322837763953 0.16068261400290115 0.11335713820456657 -0.1062119550263782 0.02127107394320955 0.13709053692986342 0.06856606196696317 0.04793151679352079
0.09984064661113305 0.14089405505432723 -0.10029873046356154 -0.012841888659066818 0.12036937472755116 -0.0785206134729618 -0.1372325652746095 0.16206265389944158
-0.007608379725988983 -0.07446777804944092 0.07900735236836967 -0.09815112545052722 0.10398813135209617 -0.1335126331017951 0.11134402256662006 -0.1378988787140363
0.10472930453759274 0.07804339284314339 0.12899088454263283 0.075282274428089 0.1137094010531554 -0.09363968186723047 0.03342277547524185 -0.13837848082788445
0.07393775261661763 -0.13647853021840753 -0.05450146996104278 -0.14423600376466625 0.1101553217675823 0.08232443775866398 -0.07876321158492403 0.09865511615746292
-0.12932770357853607 -0.1203344446997178 0.1279976028565957 0.06145949811216129 -0.08019525126437016 -0.02298301773333496 -0.0008196267898861128 0.10449074013731269
0.018587894783770067 0.0138239573798075 -0.0847676532050499 0.1770977704613427 0.08576385974910265 0.05750892270199105 -0.05875267124168537 -0.08982062112985938
0.019223708865437145 -0.04632266067533042 -0.08638998265999938 -0.07604014717656084 0.1752103535268385 -0.01659227757069259 -0.012010758092039962 0.08959715224587769
0.10111020232221414 -0.024872867941425653 -0.09762284840773196 0.09346646020118987 -0.02289366598732042 0.0761529341752084 0.13732672112102817 0.06276051039383995
-0.06221085588143828 -0.14579647231001763 0.09850549948996679 0.008479322971894476 0.18361169249452003 -0.12165775503406613 -0.058486336293557706 0.08199973933836226
0.12611486405472408 0.008200210345889929 -0.18214458529591585 0.03934225186162289 -0.06778436806823915 -0.11017741839420248 0.022625479264804824 -0.13231265896101585
-0.1326976679185097 0.12400243436884448 -0.15934216572032303 0.13111692042179748 0.0076838166587002415 0.1247947316436889 0.014031367499524364 -0.22828881938944756
-0.029009291701527117 -0.1830344610575315 0.03354736673929901 0.16320737438006658 -0.1995934300808585 -0.20505261152945428 -0.2141396361016006 0.16144554550838158
-0.07130270764505536 0.28461008477158156 0.18171022039586168 0.017869325467938117 0.17653763164984357 -0.10156263567189838 0.043099428852416806 0.05285008770937959
0.10950653740787214 0.2840472648207332 0.14225471944971682 -0.03483327437273597 -0.14394149232848982 0.11475323301616012 0.19453514286392498 0.22206049358798566
0.19330384877711954 -0.030201155512435046 0.07216144857080092 0.09132009898053663 0.18123875183655785 -0.08820620953184154 0.14665484495211353 0.05865739896188853
0.19533027952826287 0.09680360498300593 -0.15653836194324222 0.026259378055581917 0.15623796743251273 0.20989708523673356 0.09966291142433883 -0.00604403835487561
-0.09944919254760064 -0.01373698318143083 -0.049553599854820884 -0.05852978966189389 -0.11109568130497419 -0.09374103539283532 -0.07590129135637795 -0.08287965247226252
0.09748287805914942 -0.027332270676284916 0.042369175604013536 -0.10284329312515267 -0.04943026237717103 0.12622583114413363 0.12868703926330882 0.09069172053111384
0.10629806225134524 0.03612706239661133 0.014391672086657988 -0.0641230902635563 0.09477430439616273 0.03552077837810765 -0.19022517039189385 -0.16184804234441963
-0.07054940634384928 0.13445503787434906 0.11401569077333897 0.007841596599242318 0.14115727925244143 0.05955916541209156 0.117902536442273 0.06341796136304814
-0.034639933151929564 0.0020329420870355093 0.16523102062161887 -0.10914616982937499 -0.08796571515810293 -0.007048935194842095 -0.035127012653864226 0.10904886853776273
0.15014365128667662 0.11161046176094878 0.0486259708979053 -0.17825280361906912 0.028126632750520717 0.10181838264383175 -0.1886056893134699 -0.18415119656029946
0.08957920649687198 -0.021087416004700214 0.008322263732759813 0.08877406224073157 0.02406058484085106 0.06392242847308706 -0.04275085349377369 0.023820629292480695
-0.04267814289714528 -0.05141943675331956 -0.19770189510619915 0.07960616648592926 -0.13408057833205692 -0.23082974614404697 -0.13830983442133554 -0.23750888308603557
0.21348235628528728 -0.06643511469794865 0.1220400455269919 -0.16976362191846858 0.060897807309550876 -0.2392936518546018 -0.035951249674978834 0.03189549210445272
00000000: 3fe4 61d2 f055 9d3f 2936 7331 1b5f c7bf
00000010: eb97 c3b8 e590 bbbf 6a65 623e 2acf 993f
00000020: 2200 ee96 a8a1 c7bf 840a 42fd c198 bcbf
00000030: 0185 1aeb 16b8 b23f 4ebc ce18 dce0 89bf
00000040: 8e27 297e b0f8 bebf 7a94 25c6 9766 b43f
00000050: f571 154c a3d5 bf3f b179 4f68 f5df c73f
00000060: abc9 69ab 543a b3bf e73b 9654 04e9 b2bf
00000070: cf5e 229d 3043 c4bf 262e 742c b163 c1bf
00000080: 5524 bb4b 06ac c1bf e83f 953b a175 983f
00000090: 90f0 a56b 559c b3bf dd56 4c05 1526 b2bf
000000a0: dcc3 8a03 90e4 c63f f4ca a96e 6093 b4bf
000000b0: fcbf 0671 8b5f c33f 9d88 b8d5 83f8 a0bf
000000c0: c140 c116 b9ff c23f 7f91 ca25 6301 d13f
000000d0: 9cdd f3ce e116 af3f 1d55 0b04 65a9 6abf
000000e0: 2305 a590 aa27 acbf 169c 73f8 95d1 b1bf
000000f0: 6f44 1187 2c58 be3f b40a b478 7041 c33f
00000100: 59f7 2bc3 2175 bcbf 509a eee7 f567 a8bf
00000110: 2523 918d c725 b03f 719a ebc1 d030 a8bf
00000120: 9222 9be1 c756 b6bf 90a1 2563 d8cf c43f
00000130: 45f1 1618 6e9e c1bf 8a9f 78c4 83a8 babf
00000140: d23c aeff b436 bf3f 565c b6a9 c3ba 8abf
00000150: ffde 9f23 ccaf b13f 60fe d23c 6611 a6bf
00000160: 0156 cd08 0de7 c63f 9ee7 a240 acf5 b03f
00000170: 43f8 8f9f b94b c53f b66b a894 f868 a83f
00000180: f36e d6fa 20d8 cf3f f7d0 1676 3f91 c43f
00000190: fd54 5b31 f904 bd3f 0c53 48e9 b430 bbbf
000001a0: 335e bf9b 15c8 953f 5138 5ac6 2e8c c13f
000001b0: 5b7c c3a1 8b8d b13f 5dd5 26d2 7a8a a83f
000001c0: 839d 0118 288f b93f 525f 54ff d008 c23f
000001d0: 59db 2b77 2dad b9bf 5cfd 791e d94c 8abf
000001e0: b011 e5ff 86d0 be3f 58a0 ed4a ed19 b4bf
000001f0: 257b e631 d690 c1bf 3656 3313 78be c43f
00000200: 3829 94e1 f629 7fbf af00 54ff 5110 b3bf
00000210: 72d1 906a d339 b43f d327 e0a1 6e20 b9bf
00000220: e853 5457 f79e ba3f 1135 6324 f116 c1bf
00000230: 235a 87b7 0a81 bc3f 79ad 1da3 aba6 c1bf
00000240: 1efa eb29 8acf ba3f 5d20 eedb a6fa b33f
00000250: 3fde 4bf7 c582 c03f 911b a3fa b245 b33f
00000260: 8f63 c52e 0f1c bd3f ef43 3a2b c5f8 b7bf
00000270: 5e26 373f ca1c a13f 5e1e d0d4 62b6 c1bf
00000280: b198 6da5 95ed b23f 6975 f2e3 2078 c1bf
00000290: 111a 22de 9de7 abbf c398 894b 5376 c2bf
000002a0: 0cdd 78a0 2333 bc3f cbc5 d5df 3613 b53f
000002b0: f69a e269 d329 b4bf f0b8 7a31 7641 b93f
000002c0: 8815 ab68 cf8d c0bf ca4e 91f8 3cce bebf
000002d0: 0924 1eb7 3962 c03f 6932 d78c 9e77 af3f
000002e0: cc97 790d ad87 b4bf 35bc 1c36 dc88 97bf
000002f0: ca4f f520 87db 4abf 4ce5 9fb7 e7bf ba3f
00000300: 3787 ca80 b408 933f 56d3 c726 bc4f 8c3f
00000310: 633c 463a 55b3 b5bf c5b9 29c6 23ab c63f
00000320: a316 cdcc 9ef4 b53f b26b 773c cf71 ad3f
00000330: 7044 1283 d414 aebf d357 42f6 7bfe b6bf
00000340: 681d 8a43 61af 933f 8018 5491 9ab7 a7bf
00000350: 4d09 3a66 a71d b6bf 516d 4ef9 5d77 b3bf
00000360: 56c0 28f9 4a6d c63f bf0d 21e6 90fd 90bf
00000370: 2cd2 a4a9 1899 88bf 86f5 b5c6 d6ef b63f
00000380: f10e 44b4 5be2 b93f 08f0 76e9 4578 99bf
00000390: 41ea 409d cffd b8bf 6045 d6fd 6aed b73f
000003a0: 36ea cdea 6f71 97bf e7e6 c639 c27e b33f
000003b0: 1476 0a08 ec93 c13f fc2e 9fa3 1211 b03f
000003c0: a213 efee 19da afbf 02cb 3874 75a9 c2bf
000003d0: f019 c90a a837 b93f 0621 da76 9b5d 813f
000003e0: 94ad 3683 9680 c73f 7514 2d6f f624 bfbf
000003f0: 8091 49cb ebf1 adbf 6121 bd56 effd b43f
00000400: 81c7 5328 8824 c03f c91e 0c9a 45cb 803f
00000410: 01a6 7e86 8350 c7bf 227e 31ea aa24 a43f
00000420: 267a 08fc 505a b1bf 58c4 c258 9634 bcbf
00000430: 79a1 fe35 222b 973f 74cc 8a07 9fef c0bf
00000440: 7194 fbb7 3cfc c0bf 2613 3da0 9fbe bf3f
00000450: b540 52f7 5265 c4bf 31f9 9472 70c8 c03f
00000460: 9e09 1fd4 1079 7f3f e66b 1f2b 8cf2 bf3f
00000470: 359a 3a44 7abc 8c3f f4f9 a86a 9138 cdbf
00000480: e37f 8d9c 9cb4 9dbf 133c 2458 ac6d c7bf
00000490: 0d40 06d6 1e2d a13f 47d6 b6af fae3 c43f
000004a0: cccc 580b 478c c9bf 2b3c 3dfa 293f cabf
000004b0: 31b7 ea76 ed68 cbbf 6e8d 0565 3faa c43f
000004c0: aca6 73ed e440 b2bf b02a 8d37 0d37 d23f
000004d0: ab7e f9ce 4742 c73f 0e0c f221 564c 923f
000004e0: 0b85 39fd c898 c63f 70d4 b446 0200 babf
000004f0: 3179 cbda 2011 a63f 7ee3 9aac 2a0f ab3f
00000500: 6471 ddd4 9e08 bc3f 5b17 3b94 d42d d23f
00000510: f97c de13 6735 c23f 7fab 7cbc aad5 a1bf
00000520: 5f4d 0bc1 ac6c c2bf 2728 eac6 7760 bd3f
00000530: b6f9 420e 87e6 c83f 85d5 d86e 7a6c cc3f
00000540: f225 5836 2ebe c83f 38c6 e83c 0ded 9ebf
00000550: 64c1 a435 2c79 b23f 59c1 9606 c160 b73f
00000560: bef3 f3d7 d432 c73f 574e 3ea1 ae94 b6bf
00000570: 8344 6f01 96c5 c23f 7662 6bb4 5708 ae3f
00000580: dc07 3f25 9500 c93f 2373 89fd 1ec8 b83f
00000590: 2ccd 8ef4 7209 c4bf ed1c d907 bde3 9a3f
000005a0: 6011 4210 9bff c33f 140a 4f5e e8dd ca3f
000005b0: f211 3131 8283 b93f c88e 1e31 a2c1 78bf
000005c0: 6f05 9b95 8075 b9bf 545f 14ac 2222 8cbf
000005d0: c011 8de5 165f a9bf 5b12 e1d8 9df7 adbf
000005e0: 1284 ee3d c470 bcbf 1a2f 4e99 69ff b7bf
000005f0: 338d 195c 446e b3bf 5b49 dfd4 9937 b5bf
00000600: cd1a 2f4d a3f4 b83f 9262 b8a2 fdfc 9bbf
00000610: cfca 279f 69b1 a53f 84e1 9524 f053 babf
00000620: aa6f af60 ec4e a9bf 1b55 5604 2b28 c03f
00000630: 9009 8720 d178 c03f 97f8 b295 9237 b73f
00000640: 4369 ff8c 5936 bb3f 2eed fc0e 3f7f a23f
00000650: a45b 9387 6179 8d3f cdb5 99ef 5e6a b0bf
00000660: 87f6 e1f9 2043 b83f 73c4 ec8a c72f a23f
00000670: 72c7 da62 4c59 c8bf 643c 65c8 6fb7 c4bf
00000680: 95c1 ffa0 860f b2bf 63f4 399b d235 c13f
00000690: f132 1adf 2130 bd3f ba90 8947 410f 803f
000006a0: 42a4 fd14 7111 c23f 2975 3ef7 897e ae3f
000006b0: 1090 2252 dc2e be3f 4285 08d6 283c b03f
000006c0: 1cdc 0b48 53bc a1bf d64d e978 63a7 603f
000006d0: 0c62 ed42 4a26 c53f a19c e6dd 00f1 bbbf
000006e0: 39f7 c5cd eb84 b6bf a2b1 2222 58df 7cbf
000006f0: b4ea 1bf5 2afc a1bf 2716 096c a0ea bb3f
00000700: 1439 fd3b e837 c33f 9f9c 27d3 8092 bc3f
00000710: dd49 7cd5 80e5 a83f 4f6b fbe4 fcd0 c6bf
00000720: f987 3d5f 3acd 9c3f 343d 96ff c410 ba3f
00000730: 156f b831 3b24 c8bf dd74 5f33 4492 c7bf
00000740: 1642 4eb2 a9ee b63f a1ab 6388 f097 95bf
00000750: 0bb4 7c54 430b 813f 3f98 0e9e e5b9 b63f
00000760: 426d 0e84 56a3 983f c1d6 c563 385d b03f
00000770: 3b81 439b 70e3 a5bf b218 205f 6f64 983f
00000780: 0898 fed7 e8d9 a5bf 58ef 77fe a553 aabf
00000790: fb4e ebb2 4b4e c9bf 8bf3 9dd9 1161 b43f
000007a0: 8183 7b69 8d29 c1bf 21fb 5041 d48b cdbf
000007b0: 0e04 c7fb 22b4 c1bf e497 aeea b066 cebf
000007c0: 9a58 42cd 6353 cb3f db06 ef44 e401 b1bf
000007d0: 713d 5734 043e bf3f c75c 187a d0ba c5bf
000007e0: b3d3 9555 ff2d af3f ef8e 6da4 2ca1 cebf
000007f0: 4b6f 35c3 3368 a2bf 7cf7 f41e 9b54 a03f

linear_map_in.mlp.0.bias f8 [24]
0.05098980510726692 -0.19327024195622164 -0.12747190493312066 -0.20984318032611313 -0.23855842567555605 -0.022629912444930626 -0.1257734013073175 0.1543502556012665
0.03224596195074384 0.026568057039273545 -0.12396775060009435 0.014330850660872455 -0.06496090281897278 0.1424147646432339 0.0755867229770024 0.04235497508459076
-0.09509983667255381 -0.13851286130465057 -0.16983124530324925 -0.10312482145586656 -0.16799238889156937 -0.07641656967047195 -0.15702957911880056 -0.03536406099198753
00000000: b0f1 baf2 551b aa3f 2bf9 3e4c 14bd c8bf
00000010: 8c5c 6cd7 ff50 c0bf 5707 652e 24dc cabf
00000020: f31a 3b1e 1589 cebf 2104 73b7 4b2c 97bf
00000030: 982a a9c2 5719 c0bf 25e5 f7c9 bfc1 c33f
00000040: a554 03f0 8a82 a03f 9b63 6820 a834 9b3f
00000050: f809 96ba 59bc bfbf b567 4c37 7e59 8d3f
00000060: 8d49 2019 47a1 b0bf e91b 4ea2 a53a c23f
00000070: 8fb2 32c7 a659 b33f 3357 9f21 8daf a53f
00000080: 4612 5d80 7658 b8bf 6c7e b018 caba c1bf
00000090: e54c 35be 07bd c5bf 990c 8f67 6366 babf
000000a0: fa12 224c c680 c5bf 5070 9b4b 0990 b3bf
000000b0: 40f2 6895 8b19 c4bf d123 d4fa 3c1b a2bf

linear_map_in.mlp.1.weight f8 [1]
0.9155934321521476
00000000: ebd3 f098 8a4c ed3f

linear_map_in.mlp.3.weight f8 [24, 24]
0.0530319055880711 -0.011970859546858255 0.10680644021169115 -0.22684396803230777 0.07523310949829701 0.01898896668282596 0.07988039523151531 -0.1521495216215128
0.12593046810387076 0.12227190406862874 0.09836772444220615 -0.16789169811001223 -0.17911077094957056 0.09385485175408624 0.0062942790577283185 0.0862821964275611
0.12679944674687244 -0.14008443219398012 -0.30027359931231107 0.01018007409711801 0.010576678637106558 -0.009341944886962657 -0.17860279562359807 -0.061047385600567966
0.10316028268562885 0.07412136933253917 0.12575758372217175 -0.1134142500302736 0.1817127827485627 -0.009160060527673219 0.20004535264822607 -0.1253375742170756
0.16698850511136254 0.1205073464409751 -0.11767756155910879 -0.07525591486202708 -0.004289745691440258 -0.056043815188754224 0.14634442755901125 0.009176756384553581
-0.1386838555323593 0.12362195265666673 -0.022371044907818948 -0.02872826334353776 -0.052424967008528854 0.11901636496002606 -0.00819646962918755 -0.10630021480728997
-0.031075159886206707 0.19878139056895977 0.00958840192092008 0.06776827792469838 0.22930983977820996 -0.05807452688722968 1.7625587430599398e-05 -0.16707519182258848
-0.12486274613805286 -0.020066455688730438 0.15439124357092832 0.17910287627057833 -0.048722019806634986 -0.05680756083487366 0.0899907684680126 -0.09891572366692693
0.13753426616873715 -0.03559427513310649 -0.017987614780456462 -0.010386266546797142 -0.0492853074043815 0.1048137502434783 0.19092963430306503 0.045410094014432634
0.004243907251462545 0.17823821585734992 0.15332362646135836 0.2552710945712305 0.1555210113994407 0.05065784608976464 0.18413209547155157 0.00981432991436628
-0.1344250222550544 0.16606390290840595 0.07049612618497965 -0.06200090655630932 0.046580959970402076 -0.1046030300408637 0.20251654059015153 0.14946621220241643
-0.04026215096505922 -0.11205796824891251 -0.11017169817005126 0.11908357051286837 -0.06889315043647681 0.11180896767732126 -0.014928348533677383 -0.03248872470479079
-0.10236697630011224 -0.20166489181461916 -0.14974602172939952 -0.04157872277612831 0.10202717334302754 -0.11917479536828363 -0.042033253786870936 0.12598960000196252
0.11402855987664973 -0.1812535561546582 -0.00934634195348123 0.19650440828263044 0.1200702528107427 -0.03245526176240743 -0.005722853316158782 -0.17841255206072734
-0.03857102776899932 0.0741993172531795 -0.11733808664431371 -0.017333174369306495 -0.14597257487421048 0.00012500534835759144 -0.11930016608792106 -0.02886882108463353
-0.07961489165930356 -0.02215330358499501 0.09850301452881578 0.17633605988892762 0.012044712734253896 0.1133184438234549 -0.14918496128461523 -0.22295269729298509
-0.08262335200278123 0.012476706755205222 0.012726344552840857 0.009996485900614294 -0.0845367265555277 0.1147137922969774 -0.0392880413863592 -0.1563583960118102
0.016888542959300895 -0.05650450050732549 0.2545682029965301 -0.15963499067588988 0.029382221581738175 0.002933080169688386 0.02223102524091507 -0.1370990364380817
0.10160184180084858 -0.053800413672772635 -0.050192889610440224 -0.023160679447034593 -0.1321685344668826 -0.06519162649467058 0.017395072585544253 -0.07001571566963596
0.15627448930222126 0.12875874849404695 -0.09553230082125276 0.018864017943824644 -0.10952188110190031 0.0707070922914065 0.19169058415763687 0.148886471316816
0.05573747836682665 -0.09321016030362124 0.09829498255355786 -0.15989752575297186 -0.15558430126852923 0.1395439949576125 0.10011236445593323 -0.01762962124859096
-0.17395553893525675 -0.1991834873153606 -0.19833337964934686 0.05151500922387722 -0.17051351740929246 -0.17256194557627616 0.030898587227139417 0.1618414142611069
-0.10759773528504384 0.04317781143586843 0.05739198529264624 0.004704983475639065 0.015089224693725518 0.05109371364690468 0.10209880226277336 0.06615258355370501
0.10341456970676546 -0.04347811835517519 0.0017984526349217869 -0.025469068012690044 -0.061470872184055975 0.05034316003105387 -0.19227876436356625 0.10780446739040923
-0.184031116329173 -0.07958928729128029 0.19488675468553304 0.19517894587749568 0.15591333131702392 -0.05976388158011382 -0.008761704761430324 0.07987653252577519
-0.23031119633644517 0.1769016256176759 -0.18155589138484124 -0.10926534665578372 -0.0021531268312381785 0.19279121985400696 -0.26619663295329177 0.1521634618677373
0.17418439402506622 -0.1711002793328855 -0.1700524961478551 0.006935111330984428 0.24177436761355428 0.08608632696830372 -0.09898996206453498 0.16583257002231827
0.07381850774046585 -0.0944431053884342 0.03641622231516791 0.056974680852413494 -0.0948677335420339 0.11973564266796 0.16660478432236217 -0.11760016715807682
-0.015828999292822728 0.13679443754336934 0.22690309162989034 0.09022969595729581 0.01151249367376574 -0.19708481820505055 -0.08875766456491033 0.0689707662938536
-0.06766345428255423 0.24396549157836436 0.28503481931073227 0.1466761803868934 -0.018447629908389853 -0.13739184284395464 0.04007084156014051 -0.12967021395836056
-0.10994186010360457 -0.13014259097116285 0.036252272931175604 0.2018868448888956 -0.0981924023241368 0.023253086576310603 0.18038671171635678 -0.0017427251704929844
0.08345092496563165 0.13743433049922224 -0.0851269497180031 -0.1721914649758684 -0.20662266343364039 -0.102476600413648 -0.023512826318471534 0.1929357480936261
00000000: 0b68 4a78 ff26 ab3f b1f3 1192 2d84 88bf
00000010: d71d b6b7 aa57 bb3f 502f ff1f 3909 cdbf
00000020: 621f df20 7a42 b33f 70df 8cfb d771 933f
00000030: c564 1ca5 0a73 b43f 62b4 bbb1 a279 c3bf
00000040: 84bd 0955 7d1e c03f d7c4 3125 364d bf3f
00000050: 3412 768f a02e b93f 1782 53a4 797d c5bf
00000060: 027d cb0b 1aed c6bf 7fcf da1e df06 b83f
00000070: 2c07 47ab 07c8 793f 0228 e20b 9716 b63f
00000080: fedf 76da f63a c03f 03d7 7963 49ee c1bf
00000090: 6782 39c2 ae37 d3bf 5b38 8b6a 4ad9 843f
000000a0: 4afd c5c6 39a9 853f 5e10 2a9e de21 83bf
000000b0: 29b9 16d7 74dc c6bf 9c4c 5259 9a41 afbf
000000c0: 1282 6158 b668 ba3f 65ce 3739 9ef9 b23f
000000d0: 55c5 a712 d318 c03f c7c7 c75e b708 bdbf
000000e0: 17ca 954d 5d42 c73f 2678 2a83 82c2 82bf
000000f0: 33a3 ab0b 169b c93f bc74 1cc7 0f0b c0bf
00000100: 0470 211c e15f c53f 6c48 e4c7 91d9 be3f
00000110: ef90 5ede 1d20 bebf 2fb8 29bd f843 b3bf
00000120: 890c 3fd7 1f92 71bf cfed c162 c6b1 acbf
00000130: 7dad 2809 6abb c23f aaac 7064 43cb 823f
00000140: 6851 ff7f 64c0 c1bf 1661 ba33 b0a5 bf3f
00000150: 8395 0669 6fe8 96bf 891f 201e f16a 9dbf
00000160: 234d 97fd 71d7 aabf 452e 3143 db77 be3f
00000170: 5209 0088 4fc9 80bf adb3 27aa 7d36 bbbf
00000180: c787 b7ad 2ad2 9fbf e206 c629 ab71 c93f
00000190: 1cbb 5e85 15a3 833f bd8f 6409 4359 b13f
000001a0: f4cb 3f5b 065a cd3f ae32 6cc3 f1bb adbf
000001b0: 30a2 3825 557b f23e bdeb 6c4a b862 c5bf
000001c0: fbd4 2643 01f7 bfbf 3e0b b80b 4d8c 94bf
000001d0: 2284 f69e 17c3 c33f 45d0 19d2 d7ec c63f
000001e0: 6841 54b3 17f2 a8bf 7a12 e76f e115 adbf
000001f0: e213 838f a209 b73f f1a9 3576 8a52 b9bf
00000200: 3a15 a30b b99a c13f aa37 3eaf 6939 a2bf
00000210: f044 dc64 586b 92bf 2113 2b19 6545 85bf
00000220: 9c43 f37e ec3b a9bf 9283 77ed 12d5 ba3f
00000230: a69e 95db 6170 c83f 408a 66e9 fd3f a73f
00000240: aaf9 a22d 0f62 713f 399a 0086 82d0 c63f
00000250: 1586 adcc 1ba0 c33f 310b b392 5c56 d03f
00000260: 9e95 e6cc 1ce8 c33f ff90 7b40 d3ef a93f
00000270: a2dd 18f8 a391 c73f 8c67 1d10 8919 843f
00000280: 6dbd 2cd1 d634 c1bf 1ad4 04fc 9441 c53f
00000290: 9d8c 75bc 080c b23f 73a1 f633 95be afbf
000002a0: d9d9 60a7 75d9 a73f 2988 16a1 43c7 babf
000002b0: c3eb 5ddf 0fec c93f 9118 a276 b521 c33f
000002c0: ebb5 529b 3d9d a4bf 14a2 e2bc d4af bcbf
000002d0: 9acc 9560 3634 bcbf 63fb d7c8 427c be3f
000002e0: 0807 0b44 fba2 b1bf 7ed8 9233 839f bc3f
000002f0: 2d2b e205 c192 8ebf ce0f 31b4 5ca2 a0bf
00000300: 5e3e 66df b834 babf 722e 8cb9 27d0 c9bf
00000310: 0f56 04ad e02a c3bf 14db 106d ce49 a5bf
00000320: bdc6 cfec 731e ba3f d440 9d48 3d82 bebf
00000330: 2ed9 b7f4 6185 a5bf a280 d25d 6d20 c03f
00000340: a0ed 7ac7 f930 bd3f 00e6 fb07 5133 c7bf
00000350: a72f 38c8 2c24 83bf 52ff 8b73 0e27 c93f
00000360: 616a 0b91 ecbc be3f c08f b4df f99d a0bf
00000370: b3c4 52bd d870 77bf f7fa 25f6 38d6 c6bf
00000380: 4d92 aeed 94bf a3bf 47e9 fcf8 b9fe b23f
00000390: 2369 b66c de09 bebf 2449 35a4 c9bf 91bf
000003a0: 714c 99b5 3aaf c2bf 2c52 1bc4 7b62 203f
000003b0: f946 c1a7 748a bebf 45f5 bac9 c98f 9dbf
000003c0: df87 f33b a461 b4bf 406a 9509 5baf 96bf
000003d0: d56b f559 7e37 b93f 5f0a 2a15 2e92 c63f
000003e0: 4245 44fa e5aa 883f c05e 4102 7002 bd3f
000003f0: 98df e228 7e18 c3bf 75d4 b6c7 b689 ccbf
00000400: 2ee3 bcd2 cd26 b5bf 9898 cd3b 638d 893f
00000410: 5075 370d 4510 8a3f 7afe 24a0 0979 843f
00000420: 41ec ddeb 32a4 b5bf bece 5012 e25d bd3f
00000430: 7db1 c1e9 8f1d a4bf e7b1 a94a 8d03 c4bf
00000440: 88c8 bfee 3a4b 913f 63f5 826b 28ee acbf
00000450: 772e 9e6e d84a d03f f206 205c eb6e c4bf
00000460: 590c 1c83 5f16 9e3f d0b0 f86c 1d07 683f
00000470: 4d12 77d9 bac3 963f 3647 e812 768c c1bf
00000480: 9c7d bf0b 9402 ba3f acbe 7852 ba8b abbf
00000490: 61b6 bce6 e1b2 a9bf 20d4 1ce3 6eb7 97bf
000004a0: a839 8c06 e6ea c0bf 3085 c4ff 65b0 b0bf
000004b0: f540 778f 03d0 913f b2d2 01c9 8cec b1bf
000004c0: 3246 606e cd00 c43f 8a8b edaa 2a7b c03f
000004d0: 8129 bd0b ce74 b8bf c13d 8fd0 1651 933f
000004e0: a070 8741 a009 bcbf d9a1 fc28 dc19 b23f
000004f0: 713f f42a 5189 c83f 45b0 8f3e b60e c33f
00000500: 737a 7e6d 9f89 ac3f 4db2 28fe 9edc b7bf
00000510: 09ad 6d27 dc29 b93f a300 e9a9 8577 c4bf
00000520: 7a13 dcb6 2fea c3bf f01a 59df 93dc c13f
00000530: 8372 43c3 f6a0 b93f 4e73 d0da 7f0d 92bf
00000540: 81ad 57d3 2c44 c6bf 2f1b f631 d87e c9bf
00000550: cd48 a6f9 fc62 c9bf 2448 bddf 2c60 aa3f
00000560: 5140 660e 63d3 c5bf e961 6484 8216 c6bf
00000570: f65c 8816 e1a3 9f3f 59e6 b12e 38b7 c43f
00000580: 0b45 2c72 868b bbbf 5350 0ff0 661b a63f
00000590: d3d3 c477 7b62 ad3f 6f58 7f62 8845 733f
000005a0: f701 a774 19e7 8e3f d80e 4a8a f428 aa3f
000005b0: 01ec ada8 2523 ba3f d8b8 e82e 60ef b03f
000005c0: 520a d292 6079 ba3f 2aac da90 c342 a6bf
000005d0: fc74 06d0 4177 5d3f 2d48 b238 9014 9abf
000005e0: bccd 5f33 1c79 afbf 6f43 d223 94c6 a93f
000005f0: 4312 542e 979c c8bf 1df4 cdd5 1299 bb3f
00000600: ff42 0ae5 548e c7bf d42a 07aa f65f b4bf
00000610: df22 e696 0cf2 c83f 3eaf b4aa 9ffb c83f
00000620: 0d2e 82d1 f7f4 c33f e2b9 bc19 5f99 aebf
00000630: f4a9 421b a8f1 81bf 8784 ead6 c972 b43f
00000640: 1d76 1558 d67a cdbf 418e 5164 b6a4 c63f
00000650: 4a6f f233 393d c7bf 7a02 7952 d0f8 bbbf
00000660: 5bbb 602a 6fa3 61bf c94c 1df8 61ad c83f
00000670: b6bd 359a 5d09 d1bf 131d 2fa2 177a c33f
00000680: 9fd6 e799 ac4b c63f 571d 092c 9de6 c5bf
00000690: 3773 c7ba 47c4 c5bf 606a c5c5 fd67 7c3f
000006a0: 63a5 f464 76f2 ce3f 352d f6e6 c009 b63f
000006b0: b40f b3f9 6757 b9bf 22c2 6d6c 003a c53f
000006c0: 01b7 950c c5e5 b23f 8cdb f960 6c2d b8bf
000006d0: eb67 c6a7 25a5 a23f 4b1c ec0d c92b ad3f
000006e0: b638 0275 4049 b8bf 78a7 6cbd fea6 be3f
000006f0: 61c6 023a 4e53 c53f edb4 f267 0b1b bebf
00000700: 1211 2a29 7a35 90bf 9601 c3e9 7a82 c13f
00000710: 9db1 f416 290b cd3f 69bd 4319 4b19 b73f
00000720: 4a06 98be dc93 873f 3d49 5d48 133a c9bf
00000730: 5a5c 9382 d2b8 b6bf 8ab6 9c71 11a8 b13f
00000740: 7d28 4763 6452 b1bf ed3f d7df 423a cf3f
00000750: 9a4b caae 023e d23f 6694 eefa 48c6 c23f
00000760: 57bb 947c efe3 92bf 1f40 e04f 0e96 c1bf
00000770: e049 0c54 2a84 a43f a9b5 1b98 0899 c0bf
00000780: 4c3c 9b55 2625 bcbf 3fd8 042e 83a8 c0bf
00000790: ff45 4a6d a88f a23f db2c 259a 6dd7 c93f
000007a0: c5a5 b224 2323 b9bf 9457 8139 a8cf 973f
000007b0: ac34 ba69 e916 c73f 8e65 3ee7 848d 5cbf
000007c0: df5f 8c31 0a5d b53f 97c0 6bb9 7297 c13f
000007d0: 1b0c 0c39 e1ca b5bf 2660 5cb3 5e0a c6bf
000007e0: d2aa 0787 9c72 cabf c6c2 610f e83b babf
000007f0: e625 4c10 bf13 98bf 334d 255c 1eb2 c83f

linear_map_in.mlp.3.bias f8 [24]
-0.1672081158876504 -0.2005378506286927 -0.1038001691239148 0.08601520276788395 -0.10703762181649734 -0.15793810372382533 0.02847570326822132 0.044575116432982495
0.08734787653722365 0.19955609350002448 0.02395679399938649 -0.14418480194351543 0.14281165729043918 -0.08664914039304956 -0.06515326075673622 -0.08579428217290073
-0.14076949448815318 0.11181447725659527 0.08852688486980761 -0.1477484996845478 0.08225547623048077 -0.09173211973876255 0.10657363262261683 0.09535922746561937
00000000: 887e ae56 1367 c5bf 25ba 076b 39ab c9bf
00000010: 13dc b4db a592 babf 7dcc d8a2 1705 b63f
00000020: 98ba 244d d166 bbbf 749e 24d7 5037 c4bf
00000030: 9708 1219 bc28 9d3f 0e11 97b6 8cd2 a63f
00000040: 4838 1a31 6e5c b63f 716a a6d7 0d8b c93f
00000050: 2f3d fa3a 2188 983f c7bc 76c8 a574 c2bf
00000060: 4766 c602 a747 c23f fdf3 3658 a32e b6bf
00000070: a08d 2d54 e2ad b0bf afcc 1d34 9df6 b5bf
00000080: deef 8c1b bc04 c2bf 5452 09a3 df9f bc3f
00000090: 0624 55ab b2a9 b63f 3bcf 163f 6ce9 c2bf
000000a0: 7eaa 53e4 b10e b53f 4c4f 4596 c17b b7bf
000000b0: 15e5 bada 6848 bb3f 5c2f 565b 7669 b83f

linear_map_in.mlp.4.weight f8 [1]
0.4636209590955729
00000000: 988f 433e f7ab dd3f

linear_map_in.mlp.6.weight f8 [24, 24]
-0.016949417028152544 0.12629783789985535 0.17139784408568698 -0.09515419096229878 -0.2617468468918333 0.18621836715731874 -0.04597960076024694 -0.21954055731663477
-0.07863867062984757 0.05330713891829335 -0.08440560803967323 0.16006902879660187 -0.14793695024056525 -0.14550048255424813 0.04864996101818681 0.05276087852292194
0.150690046896886 0.01862338727160803 -0.023926418605181188 0.11336890167275411 -0.024210405748311115 -0.11474010957074897 -0.030058332555142325 -0.13758247344527183
0.12678046663233047 0.041993355530785426 -0.06282823900556656 0.039657127897068316 -0.2218610576791713 -0.086301051963243 -0.14391891240960905 -0.06155187976875081
-0.05143835165580363 -0.14452828843707718 0.24079528910671533 -0.012875494861917292 0.21375136215278542 0.05777876342651909 0.12490991483720011 -0.187249853440644
-0.06102787355977607 0.07889678426086555 -0.05793938828420546 -0.1115684774345201 -0.17070574007707442 0.04703337533750927 -0.05073042051985536 0.06889345291091915
0.2384081535001801 0.244609245534877 0.16450747635250623 0.15239796756367952 -0.05900007110519552 -0.044608713301507875 -0.025529548929638966 -0.19083662505160987
0.20316272895347529 0.1633971585498181 0.18447993810209184 0.10999536119767372 0.15215677293707355 0.16900715702667155 0.15889641907059027 0.11477519071113063
-0.11296613990181191 -0.12078012958404799 -0.0868079406101353 0.11104462261157357 0.20267877743614351 -0.14727983311197465 -0.1139182389210971 -0.10577525413059431
-0.15548443139687695 -0.0018772912980749932 -0.035638697867730655 0.07991126866105464 0.03572499474768058 -0.008617979840712454 0.10983417344002085 -0.18330551775116688
0.1677960088889114 -0.20416546275582514 0.08152638525731862 -0.07732219033770875 0.09014100759890292 0.06752438531284503 -0.10700527593443745 0.01797488741972262
-0.037839260103540655 -0.057832515507052894 0.0390367834643271 0.25186683638608026 0.007242714749868218 -0.2178185480710185 0.0968174402483058 -0.17132938254132604
0.12164029089153365 0.11741936562162218 -0.24516118013134391 0.0070541056997494335 0.0688285182578075 -0.10134744500792094 0.11670198523423925 0.10356542466653389
-0.03973167806059856 -0.11003403616167966 0.11848895773528291 0.026492686885987916 0.1022787793991207 0.06359658453263278 -0.10611845584366877 -0.13678416567857474
-0.06926967267988367 -0.10279971042682014 -0.01914384724486621 0.18806251715264583 -0.0812199578051825 -0.07713078541833032 0.040245874607316115 -0.1160193080928997
0.1611379534803142 -0.020710887269884588 -0.10971799675485153 -0.20359857631207937 0.1419403050000884 0.027516786752584264 0.1358088648426059 0.06512998722215954
-0.016243699211712676 0.14658923402289845 -0.14852446355541649 -0.27801299808012675 0.071996571468109 0.17308102196007327 -0.13388492104152655 -0.06869958648756935
0.11002458237571303 -0.011453774438737574 -0.011834588146163852 0.12336454176480093 0.11735262248995365 0.04359994171505927 0.10588793439404232 -0.00868671060893305
0.04708519826467047 0.027978393506243714 -0.00622811563316166 0.018714966164087177 0.16267036579970895 0.1289780021318687 0.19231160643072928 0.20060318447674053
-0.04426052381995578 0.1741231205938542 0.17440538213604873 0.11616187843474189 -0.18607213894482968 -0.17492132346665953 0.10796754820217012 -0.17575058789300343
0.040634424456365836 -0.22051097595553992 -0.18237830186048468 0.052136188618510375 -0.07963299897835184 0.036321184531069806 0.02570888568744575 0.14461801601498994
0.19394030932456405 0.12984321545650518 -0.049192999121466956 -0.2027373984685477 0.032136841699958424 0.1044279757317941 -0.10854196765541076 0.07267799786701978
0.07926662970260225 -0.2413179404175509 -0.16572453297180303 0.2049387275722702 -0.018137909068117013 -0.14349092035713656 0.15975903351357076 -0.00460376980458786
-0.008402345703433723 0.04556492699662852 0.20889465695551726 0.1183199031426938 0.13691375479617138 0.128604082685567 0.135644832794995 0.1606571843791871
0.17780953940554575 -0.16014705932353202 -0.06076713972312598 0.22499729513223254 -0.01269492445652553 -0.05282044091320552 -0.1765438007975492 0.0042105413340355795
0.10381703726264095 0.14508313264212436 0.23130913375375023 -0.13627921198137782 0.11859188247297732 -0.024882976583431908 0.19458540921560605 -0.03763742175781831
0.07609970499978834 -0.055849425288007695 -0.17565689271392634 0.11792397104365382 0.15148595469568094 0.1059020264892067 -0.1375633895565442 0.006073325766022355
-0.01879554921851458 0.19401304649374015 0.1514768571945334 0.08876096332910377 -0.13997416877840643 -0.16120854103763857 0.13738108270268767 0.05358570029514156
0.17028355545192359 -0.04377608290651849 -0.21168271920133228 0.24935364743989305 0.09989097941945614 0.03369473629240669 -0.23752483461335067 -0.10689264389108329
-0.0680248030555194 0.19053113762821847 -0.143907910359233 0.03621049725360017 -0.0678737827241534 0.026805053786281 -0.1141413971249491 0.18445517545605108
-0.20060008270919427 0.07515427034457814 -0.11856878550910763 0.026892320731944197 -0.09643102858740984 0.11458848834777491 0.011046106698947197 -0.15929875816862094
0.09052224388793233 -0.12463360949550593 0.124838823079163 -0.19459313097273848 0.21373125366411588 0.01742889090763728 -0.013836408029019457 -0.23006148663577533
00000000: bce9 491f 305b 91bf ffed aa0d 872a c03f
00000010: b2f9 7953 5df0 c53f 5daa 426a 065c b8bf
00000020: 9bd1 ced8 75c0 d0bf 5777 6de2 00d6 c73f
00000030: 89c7 1863 a38a a7bf 1b08 e9ac e719 ccbf
00000040: 4b5d 8ef6 a921 b4bf a644 98c4 124b ab3f
00000050: c81f 211e 9b9b b5bf 6b56 e455 247d c43f
00000060: 4a9c 9315 99ef c2bf 1ab5 0f83 c29f c2bf
00000070: e9b0 0ccf a5e8 a83f 6842 874f 7903 ab3f
00000080: 539e a0bb cf49 c33f 97d5 165d 0212 933f
00000090: 20bb adc5 2a80 98bf 1d63 118d be05 bd3f
000000a0: 9dc5 a5d3 9cca 98bf af54 259a 9b5f bdbf
000000b0: 5bbf 2f8d 9cc7 9ebf 2ba1 f96f 4d9c c1bf
000000c0: a98e faa2 573a c03f 40dc 4e31 2780 a53f
000000d0: 604f cbef 8215 b0bf 9f0d be66 f04d a43f
000000e0: 2077 7e71 f165 ccbf f0e2 ca63 d317 b6bf
000000f0: d39e 0957 ef6b c2bf 776c 3a5d ba83 afbf
00000100: b85f 3eac 2056 aabf a390 1728 e77f c2bf
00000110: 3042 df49 61d2 ce3f ba62 d0aa 775e 8abf
00000120: 23f9 f562 345c cb3f edf3 a396 2d95 ad3f
00000130: ed02 2c9f 18fa bf3f 82ab 5a9e cdf7 c7bf
00000140: a8d5 2aa2 0b3f afbf c8f4 2864 9432 b43f
00000150: c66c a943 3baa adbf e584 d871 c08f bcbf
00000160: e96c 6f89 afd9 c5bf ee49 ca31 c214 a83f
00000170: 2518 1772 56f9 a9bf a531 2957 00a3 b13f
00000180: d906 318b 2884 ce3f 528e ef12 5b4f cf3f
00000190: 3ed5 70bb 940e c53f 00d9 54cf c681 c33f
000001a0: ea8b b7df 4135 aebf 8544 7e09 f4d6 a6bf
000001b0: b90e f006 6b24 9abf 0ae3 bca3 556d c8bf
000001c0: 6386 4f7e 3c01 ca3f b58a 1db6 32ea c43f
000001d0: c852 75e2 099d c73f 6843 0eef a728 bc3f
000001e0: ad97 d085 df79 c33f 4718 1cca 06a2 c53f
000001f0: 840a aec5 b756 c43f 9818 7f2a e861 bd3f
00000200: 3703 6f54 59eb bcbf ecf3 9152 72eb bebf
00000210: d821 f491 0b39 b6bf 416c 839e 6b6d bc3f
00000220: 5d3b 57d0 60f1 c93f 2fc3 49c9 10da c2bf
00000230: c182 95e6 be29 bdbf c18c 3749 1614 bbbf
00000240: c480 f1f1 e9e6 c3bf a831 bd2e eec1 5ebf
00000250: 2fbb a043 3c3f a2bf 5429 7b9d 1075 b43f
00000260: 669f 2ee8 8b4a a23f 876b 96ac 4da6 81bf
00000270: 0578 e8a6 171e bc3f 3874 f521 8e76 c7bf
00000280: afe1 49f1 567a c53f 1826 c108 1822 cabf
00000290: baf7 70c6 e9de b43f 7b6b c116 63cb b3bf
000002a0: 4470 aa27 7b13 b73f 6be6 9932 4749 b13f
000002b0: 1a4b a3a0 b264 bbbf 5acc 7746 0268 923f
000002c0: 1f91 4ce1 aa5f a3bf bb14 7f35 399c adbf
000002d0: c900 a418 a1fc a33f a369 4e14 961e d03f
000002e0: 4d51 c26f 89aa 7d3f 6baf 366a 7ae1 cbbf
000002f0: 3485 8c1b 07c9 b83f 69ef 6d07 1fee c5bf
00000300: db4b 416f d123 bf3f 1b0e 430f 320f be3f
00000310: 7cd9 7409 7161 cfbf a4f7 8614 c4e4 7c3f
00000320: 540d f3ea be9e b13f 0999 d7f9 e7f1 b9bf
00000330: d096 f569 2ee0 bd3f d369 f07f 4383 ba3f
00000340: 865c c5e3 b557 a4bf 43e4 c2ca 302b bcbf
00000350: a900 69d6 4a55 be3f 9ab0 081f e620 9b3f
00000360: d211 982c f12e ba3f 1478 b4a2 dd47 b03f
00000370: 72bf 5941 942a bbbf ab9d 19bf 2482 c1bf
00000380: 05c5 c342 a8bb b1bf 614b 52f2 1451 babf
00000390: 4a64 58d7 719a 93bf 2a14 63bc 6e12 c83f
000003a0: 3546 8ec6 d4ca b4bf 22f3 e2d8 d7be b3bf
000003b0: 9284 7976 1b9b a43f 5eab f6fd 70b3 bdbf
000003c0: 1bd1 2b20 2ba0 c43f 252f fb1d 3c35 95bf
000003d0: aa3f d887 7a16 bcbf a1e2 62a5 840f cabf
000003e0: a5d5 fa93 192b c23f f9fe c54c 5c2d 9c3f
000003f0: 90c0 8054 2f62 c13f aeaa 1bdd 5bac b03f
00000400: e87e 8533 30a2 90bf 1f7a 099f 6fc3 c23f
00000410: c42f d080 d902 c3bf d57d a707 f7ca d1bf
00000420: 1031 e107 5e6e b23f 153a 70d8 8427 c63f
00000430: da83 a61e 2423 c1bf 487c 36cd 4b96 b1bf
00000440: 7a4b 0f2f 922a bc3f 2086 0a95 1375 87bf
00000450: 682d 6588 bb3c 88bf 17a8 5d90 d194 bf3f
00000460: 1cb6 b14b d20a be3f 8920 8c47 bb52 a63f
00000470: 886e 43bf 781b bb3f 1c2d cd8f 56ca 81bf
00000480: 7b49 5815 8d1b a83f 136e 6a34 5ea6 9c3f
00000490: 36b7 5c0f a782 79bf 9d64 7b1e 042a 933f
000004a0: 7cad 91ee 61d2 c43f 57a7 87e6 5982 c03f
000004b0: 2f6f 21ae aa9d c83f fc88 667a 5dad c93f
000004c0: fafe 9ebc 50a9 a6bf eeca 369a aa49 c63f
000004d0: b0a6 4262 ea52 c63f 074d ebec c8bc bd3f
000004e0: f17e bb3b 36d1 c7bf 8fc7 d469 d263 c6bf
000004f0: 77c0 8ee0 c2a3 bb3f 9f69 a0c9 fe7e c6bf
00000500: f884 4308 09ce a43f d0ac 1123 b439 ccbf
00000510: 75d2 fe14 2c58 c7bf 27f3 1b32 98b1 aa3f
00000520: 475f 4b06 d462 b4bf a004 6db7 b098 a23f
00000530: d70a fa1c 6e53 9a3f 4930 99d8 d782 c23f
00000540: 8b6a f63a 09d3 c83f 3e20 ffd5 b39e c03f
00000550: 7774 d624 d32f a9bf ba9c 0c90 4cf3 c9bf
00000560: ac33 3278 3d74 a03f b237 8eb4 cabb ba3f
00000570: 85cf 5209 68c9 bbbf 8044 fa77 069b b23f
00000580: 29a0 3c5e d14a b43f ce06 049b 81e3 cebf
00000590: 4d1f a124 7636 c5bf 1daa 4da6 6e3b ca3f
000005a0: eec0 0f79 be92 92bf ce79 1a15 e95d c2bf
000005b0: 9f36 17e8 fb72 c43f 6df9 fb0b 67db 72bf
000005c0: 1a27 0cc0 3f35 81bf 821d 973e 4954 a73f
000005d0: 596f f763 0fbd ca3f d0b8 7692 364a be3f
000005e0: 676e 9cd1 6386 c13f a01f a23c 1976 c03f
000005f0: 06ea 5c54 cf5c c13f a155 6324 6a90 c43f
00000600: 3bf2 5486 76c2 c63f 9c2d 2ce7 b27f c4bf
00000610: 2188 90db de1c afbf e004 241c b6cc cc3f
00000620: 7d80 edea cbff 89bf 36a6 90e4 470b abbf
00000630: 6d56 5ebd fc98 c6bf b50e 4095 123f 713f
00000640: 2b87 cfdb c093 ba3f 7c17 f386 1592 c23f
00000650: 6e85 5ea6 899b cd3f 70d6 4ae3 9871 c1bf
00000660: 25e2 caa0 095c be3f 2ea5 9c4a ec7a 99bf
00000670: 170e 6eb8 2ce8 c83f 1876 1c4f 3645 a3bf
00000680: 3797 3530 457b b33f fa8a 39be 4b98 acbf
00000690: 4ffb c2d0 ec7b c6bf 8804 0cef 4330 be3f
000006a0: 2453 9c4a e463 c33f bbec 592c 651c bb3f
000006b0: 97d9 a259 ad9b c1bf e935 b0f8 57e0 783f
000006c0: 85c5 d0f4 233f 93bf 770e d864 6bd5 c83f
000006d0: 542d e0f9 9763 c33f e0f2 a8da 09b9 b63f
000006e0: b111 986e acea c1bf 13d8 cb41 7ba2 c4bf
000006f0: dc07 a60c b495 c13f 530e 9abc 956f ab3f
00000700: f236 dbfe d9cb c53f 1468 dc98 d169 a6bf
00000710: ab8d 0c5a 6b18 cbbf 8342 7200 d2ea cf3f
00000720: 09a0 c589 7492 b93f bdb1 d8bc 6f40 a13f
00000730: a679 53ba 3667 cebf 1df7 b1f9 505d bbbf
00000740: 49b7 70d0 126a b1bf cbce 7d06 5363 c83f
00000750: 2476 500c 936b c2bf c3c4 f3aa 2e8a a23f
00000760: 3459 0e1d 2d60 b1bf 4eb5 84b5 c872 9b3f
00000770: c97a c5df 5e38 bdbf f9b1 1429 3a9c c73f
00000780: 10cb 6775 43ad c9bf 7ae2 486d 4f3d b33f
00000790: d68a 1620 865a bebf f09d 3a18 a989 9b3f
000007a0: ca41 1a32 b4af b8bf 38a7 f3d1 ab55 bd3f
000007b0: ab2c 2958 579f 863f 8056 50d6 e663 c4bf
000007c0: 1328 0f3d 772c b73f 8700 c4fc fce7 bfbf
000007d0: 1c69 65e6 6ff5 bf3f 99ee c67e 6de8 c8bf
000007e0: 2a6b 4fb4 8b5b cb3f 12bf d011 e1d8 913f
000007f0: 157b d43f 4356 8cbf e1bb 95a0 a772 cdbf

linear_map_in.mlp.6.bias f8 [24]
-0.011333521095125629 -0.19087042351803224 -0.11651058312017504 -0.002412074686474594 0.14023292898717762 0.08715154536039917 0.11649574159702615 -0.06644546334424278
0.02572116821204635 0.18238023127510553 -0.11814629888721681 -0.13663040406105592 0.16419198613357905 0.14001536206476795 0.028245530728914486 -0.08117401872136398
0.0021932630486492686 -0.04398295697744762 0.01720425957852374 0.2075767482419098 0.0621834605876705 0.0336679032675368 0.056450604047397844 0.10042574191175718
00000000: b8e1 9d73 0736 87bf 964d 6429 716e c8bf
00000010: 3898 2338 a3d3 bdbf 93f9 9abc 7cc2 63bf
00000020: 733e e911 27f3 c13f 0968 1e4d 904f b63f
00000030: 8951 4838 aad2 bd3f 7cf5 07e4 9102 b1bf
00000040: 7282 2461 a656 9a3f 31ba 6144 3c58 c73f
00000050: 8e31 ddf9 d53e bebf 9e6e 8ae6 1a7d c1bf
00000060: c2c0 5a35 3e04 c53f 50bd 80fc 05ec c13f
00000070: 4b95 f47a 65ec 9c3f 4872 b10b d2c7 b4bf
00000080: a65c 1822 9bf7 613f b559 9923 ef84 a6bf
00000090: 3374 f750 fe9d 913f a2f4 8df8 df91 ca3f
000000a0: 19fd 26b3 82d6 af3f 14fd ea5e eb3c a13f
000000b0: 8b2f 72f4 17e7 ac3f 3402 305d 80b5 b93f

linear_map_in.mlp.7.weight f8 [1]
0.7393821459431835
00000000: 0e50 02bf 04a9 e73f

linear_map_in.mlp.9.weight f8 [24, 24]
-0.13416532758451272 -0.021352767588953457 0.03132763643342706 0.2314555207728234 0.12023626999077362 -0.2692928616290279 0.1962182123385285 0.13191152291599412
0.1512951381420808 0.01718194708932763 -0.08792314369558865 0.058243985529336614 -0.1565309835457433 -0.1901655563153558 -0.10396721758690787 -0.2848802862522754
0.11015953814031262 0.20869453031440857 -0.11510915444096886 -0.053123265477928165 0.00858897309706371 0.06649592156469214 0.2536128115462816 -0.162260615986185
0.04675348943057359 -0.01252678440480734 -0.02764193200553393 -0.1504038202033798 0.12097083569423953 -0.12199281803173993 0.12118100029839658 0.0001590126274083135
0.15619707047538092 -0.1520449628087906 -0.054816661025547185 0.22166696191121352 -0.21708814134911486 -0.019997573434435475 0.12589666091385124 0.061153153087664
0.029176822126089776 -0.05588375691746811 0.20832281476465556 0.0778359344304318 -0.20285442348022598 -0.0549022437364018 0.09811581862875586 -0.17551591115211618
-0.1706191899532358 0.07379455779513576 0.1193620035585668 -0.1566223998015043 0.12777131612133816 0.14593231578087174 0.04720947788399811 0.06954395775595744
-0.10303549822522087 0.07497348562730441 0.13825575593240585 -0.025558547335367884 -0.00016182318427801937 -0.16088865307475458 -0.14080356684846101 -0.09394814167739131
0.06068363555786676 0.16016346689843744 0.2021946069188904 -0.2819304155106879 0.06396911085316787 -0.05755424094242544 -0.04683348625721719 0.11050585703106579
0.1616210203770666 -0.09188817830174319 -0.1324840812656387 -0.14241991366056456 0.13331012169003464 0.140995864855626 -0.17034926714042622 -0.21332109779866207
-0.2407230860916627 0.04910687847044463 0.17959250313212363 -0.032343683768725574 -0.16104768455948895 -0.18201871158277777 -0.09762177940148406 0.12064604764979359
0.16033308512598804 0.1209532801175787 -0.04549461098690995 0.2026599041119425 -0.13571929855399356 -0.15623585099295884 -0.19529888338598236 -0.16285202135854046
0.022506886723069403 0.15472278865982583 0.08768897774365646 -0.16519301513034473 0.07294171671549181 0.09059097569466595 -0.1755647637431237 -0.12786823635477615
0.06744367506383826 -0.10515676333712885 -0.060900108369212544 -0.06768763877704956 0.07239085202190028 0.15026852151174028 -0.019584641167937327 -0.11239319098193935
0.187794571066023 0.03915483072619873 -0.024079082765180698 0.13621686089902674 0.1858511864035114 0.21517230759508765 -0.19390393257280003 -0.07866356994301753
-0.11546551697765825 0.08479923054892718 0.17010905382881084 -0.11735284797842059 0.04096526068988819 0.07615865740499467 -0.15596788289635755 0.14007967853105313
0.15644136623654625 -0.06568574850955057 -0.07612107742390961 0.01876879945656948 -0.03740757962059349 0.21892917432797568 0.12698291139838444 0.07234810462754926
0.05448836551238608 0.05081215270383786 -0.034930589070590184 -0.20373060372245097 -0.1708451049836529 -0.10828965304157925 -0.15675300651699406 -0.06895127264150132
0.22190929553992997 0.0032407095784624204 -0.09377804144630947 0.14814057472271253 0.07433168711700401 -0.21787438044029 -0.08988352456585715 0.15465411819892078
-0.14475206644280877 0.0901968162308369 -0.13695325957164184 -0.21207651998303464 0.018932622965512326 0.07227759464274244 -0.10015681359799189 -0.048996348518160426
0.13920891148014278 -0.00039625739393593103 -0.08257387660902413 0.006471784656155572 -0.0750611955740325 0.05100708396440022 -0.14272810007849931 -0.08423160308596095
-0.022288122723145728 -0.15641078501028163 -0.0019477360158644636 -0.02293988551881343 -0.09956960165462381 0.20912876127065586 -0.16261996836880624 -0.15933013697818105
0.06416976746351383 -0.2073442807316928 0.2176066556112363 -0.1636787777337452 0.12832502862874715 -0.037650525615959225 0.22275263071636192 0.07197061891082467
0.05715222012531917 -0.12519535436804272 0.04470111032747019 -0.14647987395588855 0.0919722353863717 0.19712306913612193 0.046332003207229425 0.11722002286019309
-0.09777776750190939 0.11584186079737505 -0.12827341639484574 -0.11419195978069135 0.10543018749190985 -0.12203692097370489 0.09815444663623556 -0.28235586237646576
-0.17555468171169306 -0.0670972182421772 -0.009942949569464945 0.03368169117350945 0.12312783569416491 -0.214611407506155 0.13556648619469178 -0.02422412805206748
-0.2547842884231672 -0.07634241942891297 0.0917989062413361 -0.05926586998798173 -0.007826840805380902 0.12853168785626265 -0.08327628097397521 0.16286699216955888
0.023580219372130902 0.1601385820783405 -0.25331923977354603 -0.12797061210187405 0.16303266859878415 -0.13819340956112358 -0.14860789978517214 0.13083878903849924
-0.1941291427286658 0.15831171373064648 0.064024225746691 0.07451867117404362 -0.1798627231029735 -0.1570010681391171 0.11014554949152763 0.1176697129897123
-0.06326993600757612 -0.11599939343291987 0.1921794472582674 -0.05133888231963037 0.20661396098346807 0.27740978176871445 -0.23464601529698184 0.09612616930095481
0.13351206436769417 -0.1575752577117491 -0.03805144129647916 -0.08307288710877073 0.21884067846380925 -0.0917241561788994 -0.09994878341554242 0.0129773212689811
0.2045480080669011 -0.1386703116001457 0.08726606642473574 -0.12400738978905514 -0.21819732115482043 0.06792391239647431 0.04513453451250158 -0.045831827849923325
00000000: 20c6 1d57 542c c1bf e602 e5f9 7fdd 95bf
00000010: 8f95 e20b 2d0a a03f 9c55 19a2 55a0 cd3f
00000020: 2745 67df cdc7 be3f 228c 6f20 183c d1bf
00000030: efd0 6faa ad1d c93f 4ee3 710e 7ae2 c03f
00000040: d698 2e9b a35d c33f e030 52f3 2498 913f
00000050: 7aeb bb92 2182 b6bf 9e0b 13da 27d2 ad3f
00000060: 16e1 910f 3509 c4bf dc9c 994e 5857 c8bf
00000070: 9952 6477 989d babf 0fa2 2e86 7a3b d2bf
00000080: 1eb5 a75d 6a33 bc3f b9f8 469b 80b6 ca3f
00000090: 044f cb25 cb77 bdbf a7d3 c4ff f832 abbf
000000a0: ab03 7774 1897 813f 540f 7070 e005 b13f
000000b0: 6706 dc3a 313b d03f 0f74 8bb3 f4c4 c4bf
000000c0: 3509 28c8 12f0 a73f 70d4 bd8a a4a7 89bf
000000d0: cc1c d9a7 2a4e 9cbf 03c6 7bb0 6e40 c3bf
000000e0: aa98 13d7 f1f7 be3f 4b0f cbdb eb3a bfbf
000000f0: 2d9d 2dd1 b705 bf3f 18e9 9811 94d7 243f
00000100: 451d b6fe 43fe c33f 7284 6497 3576 c3bf
00000110: a3e3 c2ec ed10 acbf 5994 0140 955f cc3f
00000120: dad0 b851 8bc9 cbbf 6fdd 996f 3e7a 94bf
00000130: d179 a6bc 611d c03f d01a 1e51 774f af3f
00000140: 4ac0 5463 87e0 9d3f 9820 adb8 cb9c acbf
00000150: dd61 366e 52aa ca3f f011 d548 0eed b33f
00000160: 1427 593d 22f7 c9bf e954 a69a 251c acbf
00000170: 0114 3b48 1e1e b93f bcb9 292d 4e77 c6bf
00000180: 05a7 7580 d9d6 c5bf ff56 5a3c 33e4 b23f
00000190: d448 ab1d 828e be3f bdf7 7bea 330c c4bf
000001a0: c3d3 0d7c cf5a c03f 7cac dafd e8ad c23f
000001b0: 3261 2537 d72b a83f f73c 3200 a2cd b13f
000001c0: e252 34cf 8860 babf 361e d65c 7631 b33f
000001d0: 0a52 1b57 5db2 c13f 7f33 c113 052c 9abf
000001e0: a5cc 8391 e235 25bf ae74 a0d7 ff97 c4bf
000001f0: ee1b 63ed d905 c2bf 213d 0644 fc0c b8bf
00000200: f730 3fec ec11 af3f cddf 2b8a 3c80 c43f
00000210: 7675 124c 83e1 c93f 1d6e 97de 250b d2bf
00000220: cc8c 1197 4760 b03f 5f09 30dd bf77 adbf
00000230: 1332 aa07 8ffa a7bf 5302 f7a1 1c4a bc3f
00000240: a4cd 6e62 ffaf c43f c5eb b1d0 fb85 b7bf
00000250: 2865 2306 3df5 c0bf 8652 bcd3 d03a c2bf
00000260: 9c36 715a 4e10 c13f 118c 360a 270c c23f
00000270: 6502 a239 01ce c5bf fdc8 4b11 1b4e cbbf
00000280: 00f4 139b 03d0 cebf d512 146a 8924 a93f
00000290: 7595 c71b e3fc c63f b5a5 09f0 598f a0bf
000002a0: 9dc7 23e5 359d c4bf fe08 c19e 634c c7bf
000002b0: 861d e8ad bdfd b8bf 582a 0ccd a8e2 be3f
000002c0: 8e9c 8a66 cb85 c43f eaec 724e cbf6 be3f
000002d0: aa81 aad4 114b a7bf 6686 2f7e c2f0 c93f
000002e0: f4db 5cfe 3f5f c1bf 4e1e 3d4f 89ff c3bf
000002f0: 4147 8bc6 8dff c8bf 3745 e9c4 55d8 c4bf
00000300: 5535 a499 0b0c 973f 1db4 9ed2 f4cd c33f
00000310: eff0 a0eb c872 b63f 6a98 c172 0b25 c5bf
00000320: 53a0 ceef 4eac b23f b4db eb5d f830 b73f
00000330: c8a7 4dfb e778 c6bf a3a4 ab82 fc5d c0bf
00000340: eda2 b81a fd43 b13f 4f76 7cbb 8deb babf
00000350: 0e89 898b 4c2e afbf 5211 e422 fa53 b1bf
00000360: edb0 f6f5 3488 b23f e76e c1b8 ff3b c33f
00000370: dbde 4705 ff0d 94bf b17d 8fd7 ccc5 bcbf
00000380: 3b26 8c0a a709 c83f ee1c e61a 1a0c a43f
00000390: c8fc f9e3 2fa8 98bf 1cd0 5cd9 8d6f c13f
000003a0: 1450 c3bf f8c9 c73f b418 1024 c48a cb3f
000003b0: c0a4 7b14 d8d1 c8bf ebb7 4ab4 4b23 b4bf
000003c0: 361a 3ceb 258f bdbf d400 ef01 67b5 b53f
000003d0: 2160 792b 22c6 c53f 17e7 2814 d60a bebf
000003e0: 76d0 de0d 66f9 a43f b499 dc3e 227f b33f
000003f0: 4813 226e c1f6 c3bf 2e02 1083 21ee c13f
00000400: 881f dd4b 4506 c43f c16b a9fd c7d0 b0bf
00000410: 006d 12c2 ab7c b3bf 7893 67cf 2038 933f
00000420: 2099 2f16 1627 a3bf 0d81 f005 df05 cc3f
00000430: c7af cddd f940 c03f 888b 4dc7 6785 b23f
00000440: 2bc1 c627 e6e5 ab3f 1e66 34ec 0c04 aa3f
00000450: bc5b 6013 6ce2 a1bf 6354 172c d813 cabf
00000460: a411 4b9d 40de c5bf 8a0b 4fe6 deb8 bbbf
00000470: 1b24 4586 7b10 c4bf ad48 0365 caa6 b1bf
00000480: efdd 8217 8667 cc3f b576 f8b4 428c 6a3f
00000490: e446 1875 d601 b8bf 5a85 d235 45f6 c23f
000004a0: 795a 39c5 6607 b33f 9e4b 50c5 4ee3 cbbf
000004b0: 51a6 754e 9b02 b7bf 2294 edc5 b4cb c33f
000004c0: 773c b357 3c87 c2bf 232e ea77 2317 b73f
000004d0: 286c 7835 af87 c1bf d3ce c9ca 5225 cbbf
000004e0: da84 dbd1 1263 933f 2a60 39d1 c880 b23f
000004f0: 48fc df7e e0a3 b9bf c890 04a5 0c16 a9bf
00000500: 7b3a 0ffd 98d1 c13f 9b8a 398c 18f8 39bf
00000510: a629 8ac3 8f23 b5bf 547c 1e77 2882 7a3f
00000520: cb6a 30e4 3537 b3bf 0e9c fbba 991d aa3f
00000530: e357 0715 ea44 c2bf 143a 8bcc 3390 b5bf
00000540: bf96 bd98 b2d2 96bf 3930 2ec3 4405 c4bf
00000550: 2cfd 519f 65e9 5fbf 8024 4fa8 8d7d 97bf
00000560: 8848 c8b6 647d b9bf 19bd 2733 bbc4 ca3f
00000570: ad08 e92a bbd0 c4bf 9253 cb0f ee64 c4bf
00000580: c4d0 a50c 6e6d b03f 7aac 60e4 418a cabf
00000590: 3d00 9fee 88da cb3f 4935 b51a 6df3 c4bf
000005a0: 6fff 9b5c f46c c03f 2940 6500 ee46 a3bf
000005b0: aa2a 0380 2883 cc3f dfaf 7e9e aa6c b23f
000005c0: ff00 aa48 0e43 ad3f 9399 4fc0 6606 c0bf
000005d0: 461a e75d 10e3 a63f c7d4 143e dabf c2bf
000005e0: f2dd 1f0f 7e8b b73f 7a07 9d27 543b c93f
000005f0: e201 110d d4b8 a73f 6af3 9ea4 2102 be3f
00000600: e253 b2b9 f607 b9bf 32ec a1eb cfa7 bd3f
00000610: be57 2e68 436b c0bf 4466 b92c af3b bdbf
00000620: 6cf5 4907 79fd ba3f c091 7cc8 cf3d bfbf
00000630: bb75 425a a620 b93f 3969 af52 1e12 d2bf
00000640: b742 4e68 9378 c6bf a1b2 0086 482d b1bf
00000650: fb22 d019 f85c 84bf 29de 2004 ba3e a13f
00000660: 8ca0 884b 4e85 bf3f 0b32 4bf8 6278 cbbf
00000670: 2be6 511c 3e5a c13f 92ee 07b7 35ce 98bf
00000680: 03fa 93c2 624e d0bf 69a4 be42 2d8b b3bf
00000690: c677 1d14 2280 b73f d917 bc9a 1858 aebf
000006a0: d024 52ca 8407 80bf 6bd1 ebf1 b973 c03f
000006b0: b8d3 5027 9851 b5bf 97aa 7b5a d3d8 c43f
000006c0: d2aa 24bc 6925 983f 2f59 6dca 6b7f c43f
000006d0: fd98 91e6 6136 d0bf b2cf e94c 5761 c0bf
000006e0: 6fdb e725 41de c43f b43b 4b57 52b0 c1bf
000006f0: 6a95 c06a 9505 c3bf 01fb fb4f 53bf c03f
00000700: 692d 9c47 39d9 c8bf e1fe 85e8 8e43 c43f
00000710: a2d7 bb43 e463 b03f f646 a2d7 a713 b33f
00000720: 5196 bfe0 bd05 c7bf 0d1b 8c6a 9c18 c4bf
00000730: 26b6 ddac 7f32 bc3f d840 0531 9a1f be3f
00000740: 2ff9 f861 7532 b0bf 5875 26e1 22b2 bdbf
00000750: c803 780c 5699 c83f 23ea 2609 1749 aabf
00000760: 0817 a986 5372 ca3f 4460 12f5 14c1 d13f
00000770: 192b eb70 e108 cebf d5f6 6f81 b99b b83f
00000780: 2954 0a5f ec16 c13f 19ef 4311 6d2b c4bf
00000790: bb3a de7f 7a7b a3bf 3204 51c5 4344 b5bf
000007a0: 6fac 84aa f802 cc3f 48a4 0afb 3b7b b7bf
000007b0: 3474 0b54 3e96 b9bf 3f09 8593 da93 8a3f
000007c0: 08fd 8d0e a12e ca3f 36d7 9fe2 f2bf c1bf
000007d0: 0d45 58a5 1157 b63f 8937 9bc3 f2be bfbf
000007e0: 4ea6 37cb e3ed cbbf 3ff6 5b26 7663 b13f
000007f0: 5d81 4dab df1b a73f ed6f 76f3 4477 a7bf
