exp/exp_second_round/gaussian_number_exame/4gaussian/transformer_emb_empty_token_40_6306166.pth (torch, 2999 bytes, 1 tensors)

weight f8 [1, 97]
00000000: 5aa5 d0f5 17a1 fc3f 5525 2457 8531 03c0
00000010: f748 a9f9 e93c f1bf c40e 50ff a238 e73f
00000020: 3469 f08d 257e 0440 cb97 8e34 60e9 c2bf
00000030: e05d af3d 5a0b e7bf 5211 bd03 7b45 d4bf
00000040: 5756 17b0 e4dd cbbf 0e37 006b aad5 f83f
00000050: c83d ffd7 6205 dfbf 6c36 dddc 6d2b fb3f
00000060: 2390 10a9 db33 e43f 0547 121c ae6d ea3f
00000070: 5f81 ac0f a20c f13f b4ac b9b6 af11 fb3f
00000080: 7e84 c4b4 4ebc 983f 2f89 fbba 5453 eabf
00000090: 1a9e f6c2 06af e4bf f4d8 376c e092 f23f
000000a0: 075a e807 7255 f7bf da2b f66d c6f2 d83f
000000b0: 883c a553 0452 c0bf 0b6d d9e6 0342 d53f
000000c0: 737b 9089 3d87 e73f f108 749d 7091 de3f
000000d0: 5168 59dc 339b f3bf 11b0 a278 cb31 e43f
000000e0: c96e d77f 7204 dabf 7a4b e3b4 f9c5 e93f
000000f0: 902b 90ad 44c8 07c0 13cd ae74 5c73 f9bf
00000100: 2abb b60d b70c ef3f 9418 ad85 adc2 e93f
00000110: e438 6c28 ac04 d7bf 217c 80f7 5fff fdbf
00000120: da4d f5da f40c a6bf 6b0b cee2 d82d f9bf
00000130: e11d 8674 be34 dd3f 8757 3c0c e012 d13f
00000140: b539 8748 7b3c fc3f b76c 1bcc 528d a7bf
00000150: eab4 4fa2 a496 d33f f3ac 5a9e 6133 9abf
00000160: 106b fae0 7fb4 dcbf e831 4df6 9637 0240
00000170: b270 f3cd ec65 eb3f e71d 4066 12b5 f53f
00000180: 98c5 cf1b 285f d6bf de62 13f7 13d6 f83f
00000190: a855 9247 a6e5 c0bf 0421 87e1 3250 e1bf
000001a0: becc ef87 b8e8 f53f 571b 8452 1333 e0bf
000001b0: f2e9 c0a4 bf46 ca3f efe7 7976 b237 e03f
000001c0: 5cd0 86ff f177 9cbf 8146 ab33 b5bb cf3f
000001d0: e59d bb1f a54f b3bf 8223 4c2e 39bc c63f
000001e0: 4978 049d 9997 e23f aa69 cdf7 f3ac e23f
000001f0: 456f fe78 11e8 0b40 6774 22bd bf38 f1bf
00000200: 2b73 5ca6 1c1d c2bf 3082 5593 9205 f4bf
00000210: f547 cfdb 14f1 e4bf d1cd ace2 abda f03f
00000220: 4e8e bc57 4e96 dbbf e147 b66a 00b2 f5bf
00000230: 0211 105f 3ebb f4bf 5a6a 598b 0210 ecbf
00000240: bf17 b5fa f91b e53f c5aa 24fd 8fb8 e3bf
00000250: 8391 e5c5 6498 e1bf a2d2 810c 246f e03f
00000260: 8d1d c14f 0d19 e3bf 66f7 e357 9920 c93f
00000270: 127c 7588 881c dbbf 0eac 7dc7 5bc7 f13f
00000280: 72ad 1ba1 f148 e73f bef2 da27 3f9b ea3f
00000290: d64d 42ea 6953 b1bf 1fa1 d2ed c398 f43f
000002a0: 311d b347 b8b9 31bf fafb e122 f9a6 ed3f
000002b0: c73f 2dcd 1ad3 cfbf 02bd 3218 0237 df3f
000002c0: 402e 7b98 5a72 d43f 69d7 a71e d2c6 f2bf
000002d0: ec31 4968 3ea4 e9bf b735 93af 693c c03f
000002e0: b9eb c9cf b206 f8bf 5ee9 e3f0 cc05 fa3f
000002f0: 2257 dcf7 a8c1 fa3f e382 94e6 88a5 fbbf
00000300: 3149 8e8e 22a1 c13f
1.789329490866598 -2.399180107870658 -1.0773715736764282 0.7256636606766382 2.5615950669281577 -0.14774706426868386 -0.720135803679053 -0.31674075474827135
-0.21770914648247938 1.5521644763679805 -0.48470374196491806 1.6981028201584207 0.6313303281826886 0.8258886860150773 1.0655842411288956 1.6918179643351268
0.0241558358985725 -0.8226722385409512 -0.6463655288579873 1.160858557440915 -1.4583607014552642 0.3898178171008887 -0.1275029571938584 0.33215425056342046
0.7352588354877824 0.4776269471768862 -1.2253912551300525 0.6310784679567424 -0.40652143940472435 0.805416920944807 -2.9727872428533786 -1.5906643445894744
0.9703021304938819 0.8050143824446132 -0.35966018626721863 -1.8748473804514634 -0.04306759999112915 -1.5736931666912948 0.4563442361763617 0.2667770499696122
1.7647660096296083 -0.04600008718053899 0.306069525248701 -0.025586629190610343 -0.44851681681181876 2.2771434061344173 0.8561920187453522 1.356707000175328
-0.34955790248849317 1.5522651339908218 -0.1320083474608229 -0.5410398869362614 1.369316607477955 -0.5062347995416115 0.20528407616241356 0.5067989648807706
-0.027801305028063758 0.2479158880510575 -0.07543403649071186 0.1776191211759191 0.581005865740516 0.5836124267473697 3.4883145764014523 -1.0763547313756818
-0.14151342509367146 -1.2513604884371823 -0.6544288914831201 1.0533865789883416 -0.4310489517976962 -1.355957428783306 -1.295713778818993 -0.8769543382325751
0.6596650978688031 -0.6162795967296338 -0.5498527398272447 0.5135669941215222 -0.5968081052496231 0.19630734244850173 -0.4236165363890346 1.111171511899332
0.7276542803423764 0.8314510134146855 -0.06767904252256271 1.2872962274505608 -0.00027046917939484426 0.9266324693015797 -0.2486299039687749 0.4877324329672349
0.3194796074937791 -1.1735402295575688 -0.8012992894014679 0.12684365342140122 -1.5016353718517463 1.6264161500717687 1.6722802812632342 -1.7279137618099234
0.13772994957668908
